kgnn_interpretation/old_claude2/trained_1gnn.pt (torch, 90750 bytes, 10 tensors)

layers.0.W1.weight f4 [64, 7]
000000 65 06 33 bc 9c f9 cc bd f6 4c 70 3c 2c be 88 bd
       -0.010926818 -0.10008547 0.014666786 -0.066768974
000010 8c ac e6 bd 9e 31 47 3f 07 62 84 3f 93 73 60 be
       -0.112633795 0.77810085 1.0342416 -0.21919088
000020 19 1e 03 be 8e bd 6f be f6 7e e6 bd a2 2c a2 be
       -0.1280445 -0.23412153 -0.112546846 -0.31674677
000030 da 88 74 be 8c c3 af be c2 c9 d0 be 80 8e fd 3e
       -0.2388033 -0.34328878 -0.4077893 0.4952278
000040 a8 3b 86 3d 70 00 9a bc 93 58 69 be 55 ca 6c be
       0.06554347 -0.018799037 -0.22787695 -0.23124059
000050 ca 58 ad be 9f ee 89 3e 42 09 6c 3e bd a4 26 3e
       -0.33856803 0.26939866 0.23050407 0.1627378
000060 64 5e 12 3f 15 0f ab be aa bf 68 be 98 52 74 bd
       0.5717528 -0.33409944 -0.22729364 -0.05964908
000070 35 bc 93 3e 36 3e ed bd 5a 46 7f be 74 06 08 be
       0.28854528 -0.115841314 -0.2492918 -0.13283712
000080 60 24 47 be d0 82 7a be 88 c7 99 bd c7 e2 12 be
       -0.1944747 -0.24463964 -0.07508761 -0.14344321
000090 49 e5 7a bd 29 83 c0 be 45 1f 89 3d 5d ac bb 3d
       -0.06125382 -0.37600067 0.06695417 0.09163735
0000a0 4f ae e7 3c 5a ef 86 be 8e fd be be cd 2b 9d be
       0.028281359 -0.26354486 -0.37302822 -0.3069748
0000b0 13 68 2d 3f c2 2f 18 3d 5b 7f 36 bd 51 13 2c 3e
       0.6773693 0.03715492 -0.04455505 0.16804244
0000c0 85 67 9b bc c2 4f 4d 3c 52 15 e8 3c 1d 74 aa be
       -0.01897026 0.012531223 0.028330479 -0.33291712
0000d0 b2 01 b5 be a5 63 d5 3d a8 05 3e be a8 c8 9b bd
       -0.35352856 0.10419396 -0.18556845 -0.076066315
0000e0 5d dd c1 be e0 df 9d be 52 66 98 be 84 25 a8 be
       -0.378642 -0.30834866 -0.29765564 -0.32841122
0000f0 fb a0 6a 3f 30 04 fa bd 11 55 9e be 8f 13 f7 3d
       0.91651887 -0.1220783 -0.30924276 0.120642774
000100 47 e0 e3 3e 28 ba cd be 51 9d 3b be 10 d2 ec bd
       0.44507048 -0.40181088 -0.1832173 -0.11563504
000110 65 3a b8 be c5 4b 71 3e be 3a bc be 37 22 d0 3e
       -0.35982051 0.2356406 -0.36763567 0.40651104
000120 21 83 b0 3d 5e 7a 05 3e 30 70 94 be 9e ee 07 3e
       0.08618761 0.1303496 -0.28991842 0.13274619
000130 c2 f8 36 be c9 42 b1 bd 7b f5 92 bb b2 e7 71 3d
       -0.17868331 -0.086553164 -0.00448483 0.059058852
000140 99 50 21 be 9e 2d 67 3f 9a 95 a1 be 6c 5f 31 be
       -0.15753402 0.9030398 -0.3155945 -0.17321557
000150 bb f7 c0 bb cd 14 17 3f cb fc d3 3e 62 a1 6d 3e
       -0.005888907 0.59016114 0.41403803 0.23206094
000160 6c 96 b6 bd 9a 00 9f be 70 88 16 bd c7 e7 a9 3d
       -0.089154094 -0.31055146 -0.03675121 0.08296161
000170 27 9c c0 be 32 60 79 3e b8 02 68 be b4 9a 60 3f
       -0.37619135 0.24353102 -0.22657287 0.8773606
000180 10 81 3e be de b2 52 be 83 1b 9d be 4d bc 13 bf
       -0.18603921 -0.20576045 -0.30685052 -0.577092
000190 53 f2 3d 3e bd cf 71 3e 52 9c e5 3e b9 94 55 be
       0.1854947 0.23614402 0.44845825 -0.20857514
0001a0 81 e3 09 3f 65 9b ee be f6 77 0f bf de 3f a4 bd
       0.5386277 -0.46602932 -0.5604242 -0.08019994
0001b0 14 21 8c be f8 d0 78 be df 20 98 3e 05 84 99 be
       -0.27368987 -0.24298465 0.2971258 -0.29983535
0001c0 98 59 55 3f d4 77 f5 bd 35 26 a0 be dc 42 05 be
       0.83339834 -0.11985746 -0.3127915 -0.13013786
0001d0 a0 50 39 be 77 7d 9d be ef 84 83 3e ae d0 9b be
       -0.18097162 -0.30759785 0.25687358 -0.30432647
0001e0 33 4c d5 be 96 0c 82 be c8 6f 38 be 10 1b b5 3f
       -0.41659698 -0.25400227 -0.18011391 1.4148884
0001f0 b1 25 56 be 01 73 c6 be 4e a4 b5 3e 65 f3 b1 3e
       -0.20912816 -0.38759616 0.35476917 0.34756008
000200 72 d0 ee 3d 05 87 46 3f f3 00 fe bc 68 38 6d bd
       0.116608515 0.77549773 -0.031006312 -0.05791512
000210 11 c9 8e 3f 65 59 26 be eb 94 58 3f 7a c9 12 bb
       1.1155111 -0.16245039 0.8460223 -0.0022397921
000220 86 69 46 3e 71 e9 74 be d5 2d 9b be 38 3e 84 be
       0.19376191 -0.23917176 -0.30308405 -0.2582872
000230 79 fa be be 6d 53 95 be 26 ae 8d be 28 73 5d 3f
       -0.3730047 -0.2916521 -0.27671927 0.8650384
000240 bc 68 19 be d2 30 93 be 9f 3e 9b be da 41 49 3e
       -0.14981359 -0.28748184 -0.30321214 0.19654027
000250 58 6c 85 be a9 a6 db bd 52 4f 1b 3f f0 1f 33 be
       -0.26059222 -0.10725147 0.6066791 -0.17492652
000260 20 47 35 bb 63 2f 74 3f ed 73 8a be 18 4f 09 bf
       -0.0027660802 0.95384806 -0.2704157 -0.5363631
000270 4f 67 60 be d0 8e a4 be 43 71 4d 3f 2e 9d 88 bd
       -0.21914409 -0.32140207 0.8025095 -0.06670605
000280 dd de 80 be df f3 81 be ae 58 13 3e d5 e6 9d 3c
       -0.2517003 -0.2538137 0.14389297 0.019275108
000290 82 0f 54 3e 27 69 73 3e 33 09 1a 3e 83 df bf be
       0.20709041 0.23770581 0.15042572 -0.37475213
0002a0 e3 73 1d be a3 e7 49 bd ba bf a7 3c 70 12 64 be
       -0.15376239 -0.04929317 0.020477165 -0.22272658
0002b0 31 d2 7a 3f 57 d5 4f be d1 ec 8c be da 49 09 bf
       0.97976977 -0.20296226 -0.27524427 -0.53628314
0002c0 ad e3 a5 3e e8 93 1a 3f 99 7f 82 3c 51 ad 4b 3b
       0.32400265 0.6038194 0.015929984 0.0031078646
0002d0 f0 c2 92 be 4c b9 b4 be c1 08 0c be 88 1f 96 3e
       -0.2866435 -0.3529762 -0.13675214 0.2932093
0002e0 07 3f ca 3d 2c 92 9d be d0 5e 6d be d2 67 ad be
       0.09875303 -0.30775583 -0.231807 -0.3386827
0002f0 b6 f6 62 be 17 07 3e bc 11 8f 29 3e 6f de f5 3e
       -0.22164425 -0.01159837 0.16558482 0.48021266
000300 7d ab b1 be 53 59 33 3b 90 7c 88 be 4b fe 91 bd
       -0.34701148 0.0027366474 -0.26657534 -0.07128581
000310 0c b2 70 3e c0 ea ad 3b 88 85 ff 3e 1b e3 a4 be
       0.2350542 0.0053075254 0.49906564 -0.32204518
000320 f2 d4 13 be c3 49 04 3c 30 a5 a8 bd 5e ad 38 be
       -0.14436701 0.008074227 -0.08234632 -0.18034884
000330 e3 bb 8a be a3 2b 21 3e 83 02 ee 39 ce 37 8d 3f
       -0.2709647 0.15739302 0.0004539677 1.1032655
000340 fd 7f 59 be 87 16 9d be 4b 40 bd 3e dd 50 4b 3e
       -0.2124023 -0.3068125 0.36963114 0.19855066
000350 bc 67 d3 be 54 95 d8 bd 36 3b 0b bd 30 a6 f6 3c
       -0.4129008 -0.10575357 -0.033992015 0.030108541
000360 00 b3 8b 3c 01 9a 2d 3e 96 51 1f 3e 8e 76 07 bf
       0.017053127 0.16953279 0.15558466 -0.52915275
000370 44 02 39 be 0d bd 44 be 28 2a f1 3d 28 57 e1 bd
       -0.1806727 -0.19212742 0.11775619 -0.11002952
000380 37 bb 98 be b1 2c 5b 3e e2 c8 bc 3d b5 e7 4b 3e
       -0.29830334 0.21403767 0.09218003 0.19912608
000390 97 7d 04 3f 88 f8 8b be b6 9b 8d 3f cc 21 f8 be
       0.51754135 -0.27338052 1.1063144 -0.48463285
0003a0 98 67 6b be f9 bc 56 bd fd cb d5 3d 7a 12 91 be
       -0.22988737 -0.052426312 0.10439298 -0.2833441
0003b0 b6 f6 8f 3e c1 b0 69 3e b7 a8 15 bb ac c6 86 bd
       0.28117913 0.22821333 -0.0022836158 -0.065808624
0003c0 15 40 b3 be 2e f9 0c be cc bd 2b bd de b2 ce 3e
       -0.35009828 -0.1376693 -0.04192905 0.4037084
0003d0 58 b6 43 bd 76 3f 80 be 20 16 80 3c e2 84 9e be
       -0.04778132 -0.25048417 0.01563555 -0.30960757
0003e0 33 60 8a bd 00 27 16 be 9f 8c 20 be df ab 1b be
       -0.0675663 -0.14663315 -0.15678643 -0.15202282
0003f0 59 61 90 3e 6d 76 c5 bb b4 92 61 3e 40 fd 20 bc
       0.2819927 -0.0060260803 0.22028619 -0.0098260045

layers.0.W2.weight f4 [64, 7]
000000 26 e6 a8 bc 59 fc ae be f0 93 47 be 8b 73 a9 be
       -0.020617556 -0.341769 -0.19490027 -0.33095965
000010 3c dd 3c 3f 17 e6 3b 3f 58 4d b5 be 57 d2 24 3e
       0.73775077 0.73397964 -0.3541057 0.16095863
000020 3f e5 d5 3d 78 93 d6 be 7e eb b7 be 31 e4 82 3e
       0.10444116 -0.41909385 -0.35921854 0.2556472
000030 99 7f c2 be 67 a2 85 be 7d 1c 7a be 1d 43 84 3d
       -0.37987974 -0.26100466 -0.2442493 0.06458113
000040 b7 14 ce be d5 7a a0 3e 80 c7 c7 3c ec 9a 9b 3d
       -0.4025018 0.31343713 0.024387121 0.075979084
000050 2b f8 96 3e 32 83 10 be ea b4 8b be 14 ee 2d be
       0.29486212 -0.14112547 -0.27286464 -0.16985351
000060 66 f5 8f 3f 78 96 8f be 3f f5 4b 3f 09 30 be be
       1.1246765 -0.28044486 0.7967109 -0.37146023
000070 43 33 34 bd 7e c6 48 be 63 a2 87 be b7 12 c8 be
       -0.0439942 -0.19606969 -0.2649108 -0.39076778
000080 a0 51 13 bf b9 43 a1 be 33 1d f4 be 18 94 91 be
       -0.57546425 -0.3149698 -0.47678527 -0.284333
000090 93 8b 5b 3d 72 16 e8 3e 12 27 45 3e a0 b8 8c be
       0.053599905 0.45329624 0.19253185 -0.27484608
0000a0 30 3b 39 3e d4 9d ac bd 72 de 81 be 22 99 01 bf
       0.18088984 -0.08428541 -0.25365025 -0.5062429
0000b0 28 b3 73 bd 5d e1 88 3e 68 e1 57 3d 31 6e 61 be
       -0.05949703 0.2673444 0.0527052 -0.22014691
0000c0 bc 44 ee 3d 9b 01 03 bf c5 7a bc 3e f5 f6 a7 be
       0.11634204 -0.51174325 0.36812416 -0.328056
0000d0 98 82 f4 bd 0e db ba be 22 6d 18 be 2c 06 f4 3d
       -0.11938971 -0.3649525 -0.14885381 0.1191524
0000e0 19 91 91 3e 7c 2b 58 bd f7 65 70 3d 65 d7 02 3d
       0.28431013 -0.052775845 0.05869099 0.031943697
0000f0 cf 4e 81 3f fa 2a 56 be d6 d6 fa 3e 70 e7 4e bf
       1.0102175 -0.20914832 0.48992032 -0.80821896
000100 b4 7d c0 3e 91 97 3f be 40 f8 34 be d8 b1 38 be
       0.37595904 -0.18710162 -0.17672825 -0.18036592
000110 f4 4f a2 be ec 65 c2 3d d8 c8 7a be 4b ff 41 3e
       -0.31701624 0.09492096 -0.24490678 0.18945043
000120 46 2d 65 3d f2 20 a8 be 60 ef d2 3d 90 d2 fb bc
       0.05595138 -0.32837635 0.102995634 -0.030740052
000130 02 ce 30 3e 36 9f c3 3d 45 4a 02 bf 72 e1 c3 3d
       0.17266086 0.095518515 -0.50894576 0.09564485
000140 d5 df 3f be e2 65 9d 3f e0 c5 e3 be b6 b8 00 3f
       -0.18737729 1.2296717 -0.44486904 0.50281847
000150 86 00 64 be 76 d9 00 bb 73 d8 c5 3e fa b6 0c 3e
       -0.22265825 -0.0019660867 0.386417 0.13741675
000160 34 51 3e 3e 2c f4 10 be ba 40 02 3e 37 63 22 3e
       0.18585664 -0.14155644 0.12720004 0.1585816
000170 6c 48 01 bf 80 55 0d bf 81 e4 08 bf c8 2b 62 3f
       -0.5050113 -0.5520859 -0.5347367 0.88348055
000180 fc 9b 16 bf 99 25 b8 be 06 85 1d 3e 62 5c 06 be
       -0.58831763 -0.35966185 0.15382776 -0.13121179
000190 3d 29 cb 3c f6 79 b6 be 8c 1d a8 be ad 33 b5 bd
       0.024799937 -0.35639924 -0.32835042 -0.08847747
0001a0 44 42 8b 3f bd b1 6f 3e 9e 8c 1e bc 38 51 ff 3d
       1.0879598 0.23407646 -0.00967708 0.12466663
0001b0 2a 79 ad 3e 90 b7 79 be ff b7 2f be be 6f a3 3f
       0.33881503 -0.2438643 -0.17160033 1.2768476
0001c0 95 3c 9a be d5 81 e2 3d 2e a1 ad bd 03 61 27 3d
       -0.30124345 0.1105992 -0.08478008 0.040864002
0001d0 e8 ec 8f be 24 64 7b be 57 64 a6 be a5 42 9b 3e
       -0.28110433 -0.2454992 -0.32498428 0.30324283
0001e0 b4 7f d9 be c4 22 19 be 4e c2 b3 be 76 e4 5e 3f
       -0.42480242 -0.14954668 -0.3510918 0.87067354
0001f0 13 69 a4 3c 4f 8f 05 3f 31 0e 12 be b6 94 07 be
       0.020069635 0.52171797 -0.14263226 -0.13240322
000200 fd ea 24 be 65 e4 bd be a0 82 9d be 8c 5f 4a 3f
       -0.16105266 -0.37088314 -0.3076372 0.7905204
000210 44 20 a0 be 66 81 b8 be 3c 7b e4 3e 18 cb 8a be
       -0.31274617 -0.36036223 0.4462527 -0.27108073
000220 c6 4b 1b 3e 0b 90 67 be c6 ac 29 be d0 b2 69 bd
       0.15165624 -0.22613542 -0.16569814 -0.057055295
000230 df 2c 82 3d 96 9b 84 be 50 16 ff 3c e8 dd 19 3d
       0.06356215 -0.25899953 0.03113857 0.037565142
000240 00 07 44 bd 30 9f 56 3d dd 66 19 be f7 fb a5 bd
       -0.04785824 0.052397907 -0.14980645 -0.08104699
000250 fb 21 03 be c3 09 b7 be b2 60 88 be 7c a3 76 be
       -0.12805931 -0.35749635 -0.26636273 -0.24085802
000260 42 15 11 3f 9e 01 80 be b8 52 7b 3e a9 c8 9f be
       0.5667306 -0.25001234 0.24543273 -0.3120778
000270 a6 10 bc 3a e6 4c 9e be 3a 4d bf 3e 00 60 b3 bd
       0.0014348223 -0.30918044 0.37363607 -0.08758545
000280 20 95 d8 be be 15 8f be 62 0c 17 be a4 70 82 be
       -0.42301273 -0.27946275 -0.14750817 -0.25476563
000290 a9 0c bd 3e 50 43 9b bd 02 ba 19 3e 5b cb ac be
       0.3692372 -0.07581198 0.15012363 -0.33748898
0002a0 3e 97 0d 3e 7c a0 96 be f4 d3 87 be 12 cf 2e be
       0.13827226 -0.29419315 -0.26528895 -0.17071179
0002b0 c8 f9 5d 3f 7b db 2c be a2 e8 a3 be 02 58 e7 bd
       0.8670926 -0.168806 -0.32013422 -0.11296083
0002c0 16 0b 33 3e 62 c6 aa 3e f2 cd 14 3e 2a 6f 54 3e
       0.17484698 0.3335448 0.14531687 0.2074553
0002d0 04 86 af bd 76 06 57 3e 5c d5 af 3d 13 b8 28 3d
       -0.08570483 0.20998558 0.08585617 0.04119117
0002e0 b2 12 88 bd 5d c0 95 3e 05 a0 7e bd 82 1c b6 be
       -0.06644191 0.29248324 -0.062164325 -0.35568625
0002f0 32 ee a7 be 84 e9 33 be 3c 1b d6 bd 7e 54 56 3e
       -0.32798916 -0.17569548 -0.10454413 0.20930669
000300 b6 f1 5c be 49 80 3f bd d4 b4 0a be 8c 03 95 3d
       -0.2157658 -0.0467532 -0.13545543 0.07276067
000310 33 d3 f6 bd a3 e4 8e be 56 fe a0 be 0f df af be
       -0.12052002 -0.2790881 -0.31444043 -0.34349868
000320 26 78 7a 3d 9a 0e ae be 98 61 88 be e3 a1 9f bc
       0.06114974 -0.33995515 -0.26636958 -0.019486373
000330 70 8b 99 be c3 c7 ef bb 8f f4 bc be b0 76 8a be
       -0.29989195 -0.0073175146 -0.36905333 -0.27043676
000340 dc 59 af be 98 23 ea bd 50 e7 02 be 78 b0 06 3f
       -0.34248245 -0.1143257 -0.12783551 0.5261302
000350 a7 fd f6 bd cd 81 23 3f 56 96 70 be 69 a8 3c 3f
       -0.12060099 0.63869935 -0.23494849 0.73694474
000360 b1 18 83 be b1 65 37 bf bc 0b e5 3e 71 69 c6 be
       -0.25604776 -0.71639544 0.44735515 -0.3875232
000370 0a f4 44 3e 1d 5d 81 3e 9e 49 15 3e 71 94 b5 3e
       0.19233719 0.25266352 0.14578864 0.35464814
000380 fc a1 6a 3e 97 40 27 be db 35 ae be 36 9a 00 3e
       0.22913355 -0.16333233 -0.34025463 0.12558827
000390 df 55 63 3e 0f b6 47 be 99 b0 81 3d 7d 50 6b 3e
       0.22200726 -0.19503044 0.063325115 0.22979923
0003a0 18 82 15 bd c3 fe 20 bd 14 87 c1 be 80 b6 89 3f
       -0.03650102 -0.03930546 -0.3779837 1.075882
0003b0 49 b9 2d 3e 1f ff 8f 3e b4 57 31 bd ef 65 0c be
       0.16965212 0.2812433 -0.04329653 -0.1371076
0003c0 bd fd 06 be d6 6a e8 3e 7f 73 61 bd c4 62 09 3f
       -0.13182731 0.4539401 -0.055041786 0.5366633
0003d0 2a 00 02 be ff 75 30 3d 8b 8a 71 bd 16 43 d1 bd
       -0.12695375 0.04308128 -0.058970015 -0.10217874
0003e0 f6 21 e6 3d 69 a8 6e 3f 59 4c b7 3d e2 9f 34 3f
       0.11236946 0.93225724 0.08950109 0.7055646
0003f0 97 67 1c be 07 e1 bb be 24 59 94 3c 45 c5 7f 3f
       -0.15273891 -0.3669512 0.018108912 0.99910384

layers.1.W1.weight f4 [64, 64]
000000 61 0d 30 be 91 3e 2a bd 9c 05 b1 3d 25 7f 6d 3d
       -0.17192604 -0.041563574 0.08643648 0.057982583
000010 04 1b b8 3c d5 e6 01 be 3a 9e 3b be 0e 34 a0 3a
       0.02247382 -0.12685712 -0.18322077 0.0012222545
000020 82 b7 79 3c cc 38 1a be 6a d0 5f bc a3 f3 46 3d
       0.015241506 -0.15060729 -0.01366053 0.048572194
000030 8e fd 61 bd 73 fc fd bd ac df 47 3d 85 fe ef 36
       -0.05517345 -0.124016665 0.048797294 7.152385e-06
000040 06 68 b4 3c ad 07 0a be 03 46 8c 3d b3 a4 cb bd
       0.022022258 -0.1347949 0.06849291 -0.09943523
000050 6a 54 82 3d db fe ce bd 74 86 b3 3c c5 e0 07 bd
       0.06363757 -0.101072036 0.021914698 -0.03317334
000060 8a f2 78 bc 12 27 9e bd 85 f3 94 bb 1b ca e7 bd
       -0.015194545 -0.07722296 -0.0045456314 -0.113178454
000070 c5 59 29 be df 58 cc bd 00 cd a8 3d 3b 4b 16 3d
       -0.1653815 -0.09977888 0.08242226 0.03669284
000080 a0 86 2e bc f1 d1 c4 bd c9 50 36 3d b8 a4 b1 3c
       -0.010652214 -0.09610356 0.044510636 0.02168499
000090 41 69 34 3b b5 ba ec bd d1 64 1c be 41 43 1d bd
       0.0027528557 -0.11559049 -0.15272833 -0.038394216
0000a0 31 ae 0b be eb 8b 27 3d 8e 40 2a be 9d 47 48 3b
       -0.13640667 0.04090492 -0.16626188 0.0030560263
0000b0 1a fb 8a 3d 31 64 4d 3a 30 89 9c 3b 02 3c 2f be
       0.06786175 0.0007835059 0.004777096 -0.17112735
0000c0 37 79 91 3d c0 af 92 bd 98 07 24 be 63 0b 8e 3d
       0.07103198 -0.07162428 -0.16018522 0.069357656
0000d0 8a 60 96 3c 5e a1 7a bd 1f 00 71 3d 9a 75 b1 bd
       0.01835658 -0.061189048 0.058838006 -0.08665009
0000e0 cf 59 f1 bd 5f 00 1e bd 1e ae 8b bd 1f 1b 07 bd
       -0.11784708 -0.038574573 -0.068203196 -0.03298485
0000f0 1f f3 28 be 51 5c 38 bd a5 1e dd bd 67 fa f2 bd
       -0.16498993 -0.045009915 -0.107968606 -0.11864167
000100 ed ab 27 be 89 0a 62 3d b9 d0 40 3c 40 af 1f be
       -0.16374178 0.05518583 0.011768513 -0.15594196
000110 8b 9b b5 3d 3e 59 38 3d eb 15 4c 3c e5 97 9f bd
       0.08867558 0.045006983 0.0124563975 -0.077926435
000120 d8 60 2e 3c d7 a9 e1 3d 5d ba a8 3d 47 8c c3 bd
       0.010643207 0.110187225 0.08238671 -0.0954824
000130 d5 46 f4 3d 44 e2 b4 bb dc 82 4b 3d a9 c5 b3 3d
       0.11927573 -0.005520137 0.049685344 0.08777935
000140 5e 73 ec 3d b2 30 e0 bd b6 16 5e 3b 12 c5 b9 bd
       0.11545442 -0.10946788 0.0033888048 -0.09070791
000150 5e d3 e3 3d a9 69 d9 bd a9 0e 04 bd da 0b 0b 3d
       0.111242995 -0.10615856 -0.032240544 0.03394685
000160 92 25 b2 bc 4d bb 41 bd 2a 19 01 3c 3f 6d 0d 3e
       -0.02174643 -0.047297765 0.007879535 0.13811205
000170 3f f8 7e 3d c2 9b c1 3d 81 64 57 be ea 2e 85 3c
       0.062248465 0.094535366 -0.21034433 0.016257722
000180 c4 2b 73 bc ad 75 8a 3b 8b 4b e8 3c b9 7a d9 bd
       -0.0148419775 0.004225454 0.028356334 -0.106191106
000190 36 fa 71 be 51 cb a5 3b 2e e3 80 bd 3d 7a 87 bd
       -0.23630604 0.0050596376 -0.06293331 -0.06615112
0001a0 f2 18 0c bd a3 cf df 3c f8 73 86 3d 42 4b 55 bd
       -0.034203477 0.027320689 0.06565088 -0.052073725
0001b0 47 85 e9 3d 33 fb dc 3d 8b 3b a9 bd 29 51 e4 bd
       0.11402374 0.107901 -0.0826331 -0.111482926
0001c0 8b 56 e0 bd a1 bd a0 bd 7f 7a 06 be 69 83 6d bc
       -0.10954007 -0.07848669 -0.13132666 -0.014496663
0001d0 a8 9e 34 bd 0d 1a 70 bd 8d fd 26 bd 8d 4b 52 bd
       -0.04409662 -0.058618594 -0.04076915 -0.051341582
0001e0 4d 78 9f bd 19 18 33 bd 9d 04 d8 bd 72 c2 8a 3d
       -0.077866174 -0.043724153 -0.10547755 0.06775369
0001f0 96 d6 ba bc 98 37 aa 3d 79 bd 83 3d da 07 97 3d
       -0.0228074 0.08311385 0.064326234 0.073745444
000200 ea 7b bb bd 92 0c 0f 3d 7a 9a d6 3d 96 46 02 be
       -0.09154494 0.034924097 0.10478683 -0.12722239
000210 08 23 8b 3d a6 3e 13 3d 08 6c b3 3a 31 e7 99 3b
       0.06793791 0.035948418 0.0013688812 0.0046967496
000220 b4 97 c1 bd c8 86 95 bd 1e 18 da bc ce 54 69 bc
       -0.09452763 -0.07301098 -0.026622828 -0.01424141
000230 01 6b 0f be 43 05 cf 3b 0b 20 20 be fd ae 71 3d
       -0.14005663 0.006317766 -0.15637223 0.059004772
000240 6e 82 84 3d 25 47 6c bc 42 09 17 be 8d 66 ee 3d
       0.0647019 -0.014421259 -0.14749625 0.11640654
000250 78 81 ae 3c 80 58 a7 bc dc 5c fb bb 32 e8 c2 3d
       0.02130197 -0.020427942 -0.007670982 0.09516944
000260 01 99 cc bd 96 ba b5 bd f4 48 8d bc f9 cb 31 bd
       -0.09990121 -0.08873479 -0.0172467 -0.043407414
000270 87 8c 3f 3d 10 20 eb bd ed ec 50 3d 9c 93 a1 3d
       0.046764877 -0.11480725 0.0510072 0.078894824
000280 b1 19 a5 bd 3e bb 21 3d bd c8 27 bd 2a a1 2b be
       -0.08061541 0.03948521 -0.040962923 -0.16760698
000290 3a df 5d bc db 52 db bd 95 fa 12 bd f8 7f 8a bd
       -0.013541991 -0.10709163 -0.035883505 -0.06762689
0002a0 7c 84 3b be 5a 58 a4 bd c6 61 8b bd 44 92 c1 bd
       -0.18312258 -0.08024664 -0.06805758 -0.09451726
0002b0 94 44 6a 3d 97 9e ac bd 32 25 0b 3e ae b1 bf bc
       0.057194307 -0.08428686 0.13588408 -0.023400154
0002c0 cf 01 1c be 00 27 8e bc 16 a8 44 3d 49 c3 07 be
       -0.15235065 -0.017352581 0.04801186 -0.13258089
0002d0 f9 8d ce bc e6 56 5b 3d c4 96 2f 3d 24 d2 8e bd
       -0.025214182 0.05354967 0.04286839 -0.06973675
0002e0 f7 e1 05 3e 7d 24 94 bd 0f 91 2e be a7 90 44 bd
       0.1307448 -0.07233522 -0.17047523 -0.047989514
0002f0 46 44 e3 bc cf ce a9 bd 70 6f 93 bb 68 91 20 be
       -0.027742516 -0.08291399 -0.0044993684 -0.15680468
000300 25 42 97 bd 8c fd 65 3d eb a7 8c 3d 83 7c 70 3d
       -0.07385663 0.056150004 0.06867965 0.058712494
000310 75 d8 a8 bb c1 15 79 bd 42 d6 66 37 a3 73 3b bd
       -0.005152757 -0.06081176 1.3758954e-05 -0.045764577
000320 59 51 d7 bd 96 17 bc bd e5 3b bb 3d 37 27 5f 3d
       -0.10513563 -0.09184186 0.09142283 0.054480758
000330 52 da b5 bd cc 40 5a bc 3a ad 60 3c 68 df 96 3d
       -0.08879532 -0.013321113 0.013713175 0.0736683
000340 fa b0 ca 3d b5 b9 94 3d ca 6c 53 bd 43 04 a9 3d
       0.09897037 0.07261983 -0.05161742 0.08252766
000350 f9 6a 36 3d b3 2f 2e be 89 e1 0f be 8f ed 82 3d
       0.04453561 -0.17010383 -0.14050879 0.06392967
000360 3d 2a a7 3c 74 b8 49 bd d8 94 93 bc c3 04 ad 3c
       0.020405883 -0.049248174 -0.01801531 0.021120435
000370 b4 e2 a0 bc 8e 75 af bd dd 66 89 bd e5 e7 eb 3c
       -0.01963935 -0.08567344 -0.06709073 0.0287971
000380 8d 45 08 be 24 64 3b bd 54 3f 45 bd 0a 0e 53 3c
       -0.13307782 -0.0457498 -0.048156098 0.012881765
000390 1b 0b 3d bc 74 b4 b2 ba cd 5d 96 bd 8c 8b 30 3e
       -0.011538292 -0.0013634101 -0.0734211 0.17240733
0003a0 5e df a5 bc 45 b3 1b bc 1a a9 31 bc df 5f b8 bd
       -0.020248111 -0.00950319 -0.01084354 -0.09002661
0003b0 bd ca 14 3d 11 1c 70 bd ca 5f b9 3c e3 a7 ac bc
       0.03632616 -0.058620516 0.022628684 -0.021076148
0003c0 21 f7 04 bd db a8 1a be 2c e9 d0 bd b2 60 ed 3c
       -0.032462243 -0.15103476 -0.10200724 0.028976772
0003d0 53 21 d5 3d f0 72 b2 bd b2 a3 89 3d c2 6a bb bd
       0.10406747 -0.08713329 0.067206755 -0.09151222
0003e0 40 da 1d be 48 ea fa 3d c6 44 47 3d 8a bb 68 bd
       -0.15415287 0.12251717 0.04864957 -0.056819476
0003f0 41 17 c0 3d 33 fb 84 3c 91 46 3a bd 71 90 ec bc
       0.09379435 0.016233062 -0.045477454 -0.028877469

layers.1.W2.weight f4 [64, 64]
000000 90 d9 11 be 1e 9c 0d bd 92 23 d7 bc 1d 7e 92 3c
       -0.1424315 -0.034572713 -0.026262078 0.017882401
000010 b0 b8 f1 bd 1f 15 90 bd 98 c2 d3 bd 1e 70 d6 bd
       -0.118028045 -0.070352785 -0.1033985 -0.104706034
000020 86 17 2d 3a bc 82 29 bd 90 ad 52 bc d1 61 67 bd
       0.00066029315 -0.041384444 -0.012858763 -0.05648977
000030 23 17 8d bd 68 80 6c bd 33 7f 5c 3c 5e ab 0e be
       -0.068891786 -0.057739645 0.013458061 -0.13932559
000040 97 9d 07 bd 73 11 8e 3c 74 d0 c6 3c e3 86 f8 bd
       -0.033109274 0.017342305 0.02426932 -0.121351026
000050 da e8 5c 3d 03 9d 09 be 7f 4c 51 3c f5 69 4e 3d
       0.053933002 -0.13438801 0.012774586 0.050394017
000060 7f 93 42 bd af 20 da bc aa 79 2f be e6 56 e8 bd
       -0.047503944 -0.026626913 -0.17136255 -0.113446996
000070 9d 51 d0 bd 7b 4e 2f be b2 4b cd bc 61 fb 31 3e
       -0.101718165 -0.17119782 -0.025060508 0.1738105
000080 14 4b 83 bd ce 2a 93 3d 77 29 2a be 31 17 8a b9
       -0.064108044 0.07185899 -0.1661738 -0.0002633869
000090 a3 02 d4 3d dd 17 8d 3d dc a1 cd bd 16 f4 28 be
       0.103520654 0.06889317 -0.10040638 -0.16499361
0000a0 10 38 e0 bd 94 90 05 3d 41 8c 20 bd 4a 18 8b 3d
       -0.10948193 0.032608584 -0.039196257 0.06791742
0000b0 8b 6a 13 be 86 89 15 be 73 3b 02 3d 94 8a 4b bc
       -0.14396112 -0.14603242 0.031794976 -0.012423176
0000c0 ec 56 07 be a6 30 84 3d 28 67 bb bd 2f 94 1f be
       -0.13216752 0.064545915 -0.09150535 -0.15583871
0000d0 86 95 c1 bc 6b ae 01 be 4c 3d f0 bd 67 8f 09 be
       -0.023630869 -0.12664191 -0.117304415 -0.1343361
0000e0 50 19 98 3b 87 88 1a 3b 47 8a 06 3d e3 81 03 be
       0.0046416894 0.0023579912 0.032846715 -0.12842517
0000f0 f6 a0 b2 bd 9e fe 84 3d 1b 49 ec bd 76 ff 15 bd
       -0.08722107 0.06493877 -0.11537381 -0.03662058
000100 f3 86 19 be 2a a7 e6 bd 83 8d ac bd 80 b9 90 3d
       -0.14992885 -0.11262353 -0.08425429 0.07066631
000110 82 fd 85 3c 87 46 1f 3b c6 a0 c1 bc 18 f9 ad 3d
       0.016356234 0.0024303512 -0.023636233 0.084947765
000120 47 ff 95 3d ed ea dc 3d 6b b2 5f 3d b7 fc b8 3d
       0.07324081 0.10786996 0.054613512 0.090325765
000130 65 33 86 3d 0f 90 f1 bc fa 7a 5b 3b cc dd 87 bd
       0.065527715 -0.029487638 0.0033490048 -0.06634101
000140 ed d0 ba bd 0c 4b e0 3d 4e 33 45 be bf 5d 85 bd
       -0.09121881 0.10951814 -0.19257852 -0.06512021
000150 25 b8 28 be 6d 4d da bd 15 9c c2 3c a3 6f dd 3d
       -0.16476496 -0.10659299 0.023756066 0.10812309
000160 4d 46 d5 bd 2e fc 87 3a 77 80 c6 bd e1 fe f0 3c
       -0.104137994 0.0010374838 -0.096924715 0.02941841
000170 bb 6a 86 3d 89 9d d5 bc fe 0f 84 be 76 cd 0b 3d
       0.06563326 -0.026076095 -0.2579345 0.03413149
000180 d0 a7 a7 bd 80 75 c8 bc 6d b9 bb bd 0b 65 b4 3d
       -0.081863046 -0.02447009 -0.091662265 0.08808335
000190 cf cd 4b be d3 2b 59 bd 39 35 a5 3d d9 01 74 3d
       -0.19902728 -0.05302031 0.08066792 0.059572075
0001a0 05 97 dc 3c 31 c6 d7 bd 85 39 cb bc 21 63 b9 3d
       0.02692748 -0.10535849 -0.0248077 0.090521105
0001b0 94 60 ac 3d 76 9d 68 bd dd e3 8a 3d f2 79 ad bd
       0.08416858 -0.05679079 0.06781743 -0.08470525
0001c0 83 9b f7 3c 99 e1 d6 3d 75 0c 6c bd 32 17 e5 bd
       0.030225521 0.10492248 -0.057629067 -0.11186065
0001d0 f1 3d 64 3d 3b 9e a5 3d 1c 93 72 3d cd 38 85 bd
       0.055723134 0.08086821 0.059222326 -0.065049745
0001e0 39 a2 84 be a8 c8 fb bb a9 17 10 bd b9 0f 07 bd
       -0.25905016 -0.007683832 -0.035178814 -0.03297398
0001f0 62 19 53 bd e5 e1 22 3d 09 1b 42 3d 9c 0f c2 bd
       -0.05153788 0.03976621 0.047389064 -0.094756335
000200 8c 2b c9 3d ab 4e 48 bd 73 3c d9 bc 91 c1 bc bc
       0.09822759 -0.04890315 -0.026518082 -0.023041518
000210 0c 1a b8 bd 08 73 56 bd f9 68 8e bd 42 de 0c bb
       -0.08989343 -0.052355796 -0.06953616 -0.002149478
000220 43 0f ea bd 24 75 e9 bd 86 32 36 be c3 2e ce bd
       -0.11428692 -0.11399296 -0.1779271 -0.10067513
000230 7b 1f 86 bc d8 10 5e 3d d1 c2 31 be 69 90 c0 bd
       -0.016372433 0.054215282 -0.17359473 -0.09402544
000240 aa 0f a1 3d 5f fc e9 bd 98 a1 b0 3c a8 b6 55 bd
       0.07864316 -0.11425089 0.021561429 -0.052176148
000250 45 43 31 be b2 10 dd bc 8f 1b f9 bd a3 db b5 bc
       -0.17310818 -0.0269855 -0.121634595 -0.022199458
000260 ca 8b 22 be 86 e2 75 3d 3b ef ce bd 6d e9 c0 3c
       -0.15873638 0.060030483 -0.10104223 0.023548806
000270 a9 1d 01 be 13 ca 1e be 1a 29 8c 39 07 10 88 3d
       -0.1260897 -0.15506773 0.00026733504 0.06643682
000280 1e f6 48 bd fa 28 1d be 29 7c a4 bd 51 04 09 be
       -0.04906284 -0.15347663 -0.08031494 -0.13380553
000290 6c 08 11 3d e5 f7 f0 bc 87 ed 19 3d 4e b3 8d 3d
       0.035408422 -0.02941508 0.03758004 0.06918965
0002a0 66 52 e8 bd c6 42 ca 3d 9c 23 08 3d 50 e8 0c bd
       -0.11343841 0.09876017 0.033237085 -0.034401238
0002b0 ef 6f 2c be 84 f2 12 be b9 ea 37 bb 48 6a 26 3d
       -0.16839574 -0.14350325 -0.002806349 0.0406287
0002c0 96 07 a0 3c 91 45 16 bd ed ec 01 be 99 11 2a be
       0.019534867 -0.036687437 -0.12688036 -0.16608275
0002d0 76 50 03 be 2c 0f 53 bd 66 f9 86 3c 3e fc 1d 3d
       -0.12823662 -0.05152814 0.016476344 0.038570635
0002e0 f2 c8 2c be ec 4b 31 3c 9f 40 70 3d 37 e4 2c be
       -0.1687353 0.010821324 0.058655377 -0.16883932
0002f0 fa c1 f9 bd 0f 0f ab bd 0b 84 c3 bc 53 6b 68 3d
       -0.12195201 -0.083524816 -0.023866674 0.056742977
000300 7c f7 9a bd 24 5a 25 3d b5 2a 04 3e 75 ff ad 3d
       -0.07566735 0.040369168 0.12906916 0.0849599
000310 4f ac 22 be eb fc ca bd 3d 77 33 3b 9a 65 57 3d
       -0.15886043 -0.099115215 0.0027384304 0.05258713
000320 e0 57 0c bd 71 a4 10 3e fb 45 00 3e 49 16 b0 bd
       -0.03426349 0.1412523 0.12526695 -0.085980006
000330 91 3f 8a bd 23 48 2e bd c8 13 95 bc f2 3c 0a 3d
       -0.067504056 -0.042549264 -0.018197909 0.03374953
000340 e3 ef 58 3c da 0e 1f bc 49 b1 0c b9 23 59 f8 3d
       0.013240787 -0.009708131 -0.00013417484 0.121263765
000350 fb ea 9b 3d 66 7b 67 bd b1 ff 08 be aa 43 01 3e
       0.07613178 -0.056514166 -0.13378789 0.12623468
000360 74 a2 76 bd e2 30 95 bd a7 b0 87 bd 64 4c c1 3d
       -0.06021352 -0.07284714 -0.06625491 0.094383985
000370 eb bc e3 bd db cd 39 bd 5d d1 36 be fe 1e 79 3d
       -0.111200176 -0.045362335 -0.17853303 0.060820572
000380 e3 7e 85 bd 7b 20 07 be 58 85 d0 bd 95 3c a6 bd
       -0.06518342 -0.13195984 -0.10181683 -0.08117024
000390 64 ee bd bb 52 64 01 be 9e 59 90 3d 93 0d 38 3d
       -0.0057962406 -0.12635925 0.07048343 0.04493482
0003a0 6a b0 be bd 25 20 06 3d 8b 65 06 3d b5 cf 0a 3e
       -0.09310992 0.0327455 0.032811683 0.13555796
0003b0 55 4f 0c bd 4e d1 5c bc df f1 5a bd 6c 35 b3 bd
       -0.034255344 -0.0134776365 -0.053453322 -0.08750424
0003c0 bb 51 3f bd ed aa 86 3d 82 9d 96 bd c8 f5 b0 bc
       -0.046708804 0.0657557 -0.07354261 -0.021601573
0003d0 a0 20 58 bd 77 6a 91 bd 3b e3 9d bd 76 43 57 bd
       -0.05276549 -0.07100385 -0.077093564 -0.05255457
0003e0 ab 4f 3c be 5b 7b a5 bc 90 81 81 bd 07 57 1d 3d
       -0.18389766 -0.020200422 -0.0632354 0.038413074
0003f0 c8 47 76 3d b5 d2 2f bd 45 7f 93 bd 9d a8 2a 3c
       0.06012705 -0.042925555 -0.07202009 0.010416177

layers.2.W1.weight f4 [64, 64]
000000 50 6f d7 bd 31 f9 8b bd a0 33 61 3c 33 b6 f1 3c
       -0.10519278 -0.06834639 0.0137452185 0.029505825
000010 dd 25 33 be fa d7 20 be 97 b2 24 be e0 48 4c be
       -0.17494912 -0.15707389 -0.16083752 -0.19949675
000020 81 c0 72 bd 28 a9 ec 3d 61 4e e0 bc 29 93 e6 bb
       -0.059265617 0.115557015 -0.027381124 -0.007036586
000030 74 61 38 bd 00 20 1c bb c8 ea e7 bd b6 06 53 3d
       -0.045014814 -0.0023822784 -0.11324078 0.051520072
000040 e2 d6 78 3d 00 c9 3a ba de 93 20 be 18 96 bd 3c
       0.060751803 -0.0007125288 -0.15681407 0.02314286
000050 26 5a 82 3d 73 a7 58 be 1a 1b a5 bd 16 62 8b bd
       0.06364851 -0.21157627 -0.0806181 -0.06805818
000060 39 31 e3 bc 7e 27 1f bb e6 88 29 be 80 af 8d bc
       -0.027733432 -0.0024285014 -0.16556129 -0.017295599
000070 99 38 ec bc 68 1b 63 3d f0 a0 be ba 09 bf d6 3c
       -0.028835582 0.05544606 -0.0014543813 0.02621414
000080 2a 6d 31 bd 63 2e 17 be ac 18 9a 3d b0 63 d7 bd
       -0.043316998 -0.14763789 0.07524237 -0.10517061
000090 e9 fd 4d bd 58 6b 1c be 68 42 92 be 80 ee aa 3b
       -0.050290976 -0.15275323 -0.2856629 0.0052164197
0000a0 40 ff a7 3d a7 24 cc 3d 14 5a f3 3c 3c d0 a4 bd
       0.08202982 0.099679284 0.029706039 -0.0804753
0000b0 58 26 3c 3d 57 0d 8f 3f 1a 54 0e 3e 8b 7a 0b be
       0.045935005 1.1175946 0.1389927 -0.13620965
0000c0 3c b6 13 be c4 dd fa 3d 59 51 37 be 8a 39 17 be
       -0.14424986 0.1224933 -0.17902125 -0.14768043
0000d0 a2 b3 9a bd d6 95 be bd af e2 93 3e 78 f6 0b bd
       -0.075537935 -0.09305923 0.28883883 -0.034170598
0000e0 5c a8 2b be 7a 2b f7 3d 99 40 29 3e f6 51 06 be
       -0.16763443 0.12068839 0.16528548 -0.13117203
0000f0 13 f7 5a be b6 2a 20 3c 14 cd c7 bc db a3 9a bd
       -0.21383314 0.009775808 -0.024389781 -0.07550784
000100 d3 b9 28 be ee 55 3a 3d 79 02 c3 bd f6 07 25 be
       -0.16477136 0.045492105 -0.09521956 -0.16116318
000110 50 32 15 3d bb af 38 bc fb 84 be bc 26 dc a9 3c
       0.036424935 -0.011272366 -0.02325677 0.020734858
000120 03 3e 87 bc b0 b5 b2 bd 35 82 a7 bd 1a 58 31 3d
       -0.016509062 -0.087260604 -0.08179132 0.04329691
000130 3b 62 83 bd 64 d5 d5 bd 64 e7 b0 bd c9 18 1e be
       -0.0641522 -0.10441092 -0.08637884 -0.15439142
000140 da 0b 45 bd 1c 32 bb 3d 90 3b ec bb 66 1f dd bc
       -0.048107006 0.09140417 -0.007209249 -0.026992511
000150 ea b0 96 bc 10 40 f4 bd f4 3c 69 3d b4 d8 4a bc
       -0.018394906 -0.119262815 0.056942895 -0.012380768
000160 53 2c 0e be db c4 12 be 3d 2b 30 be 4d d3 c3 bd
       -0.13884096 -0.14332907 -0.17203994 -0.09561787
000170 41 81 00 3d 7c eb 57 bd 51 52 f4 bd 79 ec ce bc
       0.031373266 -0.05271481 -0.11929763 -0.025259243
000180 53 58 16 be a4 bb ba bc fe c9 ae 3d 89 ce 3d 3a
       -0.1468213 -0.022794552 0.08534621 0.0007240554
000190 c2 ee c8 bd fe 17 d2 bd 72 40 02 bc e2 56 72 3c
       -0.098111644 -0.102584824 -0.007949935 0.014791222
0001a0 f8 ee fa bc a1 e4 e1 bd 76 dd 97 bd 81 12 99 bd
       -0.030631527 -0.11029936 -0.07415287 -0.074742325
0001b0 c2 15 2f be 5e 4b 00 be 53 f9 40 3d ec d4 2c be
       -0.17098144 -0.1252875 0.047112774 -0.16878098
0001c0 03 95 04 3d 25 58 8f 3c 92 ee a1 bd 65 d2 f6 bd
       0.03236867 0.017498085 -0.07906832 -0.12051848
0001d0 c0 fe 87 3b e2 5e a7 bd 0f 22 7d be ae af 7b 3d
       0.0041502416 -0.08172394 -0.24720024 0.061446838
0001e0 ee 36 8f bd a3 58 a2 bd 3c d1 14 be 28 b6 22 bd
       -0.06992899 -0.07927062 -0.14532942 -0.0397245
0001f0 cb 3d 4c bd 4b 74 81 3d 1d 0b ca bd de db 27 3c
       -0.049863618 0.06321009 -0.09865401 0.0102452915
000200 80 ac c6 3b 75 68 77 3e 00 96 0f 3b 48 8e b0 bc
       0.006063044 0.24160941 0.0021909475 -0.02155222
000210 74 b1 48 3d 90 0e 64 bd a6 22 9b 3d b5 e7 0c be
       0.048997357 -0.05567795 0.07574968 -0.13760264
000220 88 84 b7 bd e8 e5 f3 3d ac ef 40 bd bc 8d cb bd
       -0.08960825 0.119090855 -0.04710357 -0.09939143
000230 38 24 bb bd 1e 3e f8 3d 78 36 8f bc 0e 6b d7 bd
       -0.091377676 0.12121223 -0.017482027 -0.10518466
000240 08 9c 93 bc 40 96 79 bd 87 71 b6 bd c0 8b 7a bd
       -0.018018737 -0.060934305 -0.08908372 -0.061168432
000250 9e e6 c1 3d ea 6d a8 bc ec 93 95 3d 10 08 29 3c
       0.09467815 -0.020560224 0.073036045 0.010316864
000260 f4 0d 56 bd b0 f6 50 bd b4 d0 ab bd 3e f4 b8 bd
       -0.0522594 -0.05101651 -0.08389416 -0.090309605
000270 46 b9 dc bd 28 ec b5 3c a0 54 86 3d cc e7 d0 3d
       -0.107775256 0.022207335 0.0655911 0.10200462
000280 00 0a 50 bb e0 35 95 bc c0 3b 2a bc 4c ba 49 3d
       -0.0031744242 -0.018214166 -0.010390222 0.049249932
000290 08 32 a2 bc c4 e7 33 bd 85 d0 a3 bd 30 13 fa bd
       -0.019799247 -0.0439222 -0.07998756 -0.12210691
0002a0 b8 26 c5 bd 31 61 f1 bd 80 6c 46 3c 78 ca a0 bd
       -0.09626526 -0.11786116 0.012110829 -0.07851118
0002b0 a4 16 44 3d 09 92 33 be 82 ae f7 3d 00 9e 6b be
       0.047873154 -0.17536177 0.120938316 -0.23009491
0002c0 d4 be 8e 3d 3a eb 84 bd ac 8a 35 bd 82 09 ef bd
       0.06969991 -0.064901784 -0.0443217 -0.11671735
0002d0 56 42 ed bd 1f d9 71 be 74 f1 ac bd 6c cb eb 3d
       -0.11584918 -0.23617981 -0.08444491 0.11513409
0002e0 70 c2 6a 3d 4a 4b a0 3d 92 93 97 bd 43 7f 83 bd
       0.057314336 0.0782686 -0.07401194 -0.064207576
0002f0 00 ee 8f be bc 17 18 bd 74 2d ef bd 80 b7 8c 3d
       -0.28111267 -0.03713201 -0.11678591 0.06870937
000300 25 38 3d 3c d9 a0 4b bd d6 02 1c bd d8 47 d5 bb
       0.01154903 -0.049713943 -0.038088642 -0.0065088086
000310 08 03 a8 3d 74 dc 8d bd 6e 13 38 3e 22 2d 96 bd
       0.08203703 -0.06926814 0.17976162 -0.07332827
000320 ac f8 d8 3d b6 05 32 3e 92 30 30 3d a1 c5 20 be
       0.105943054 0.17384991 0.04301507 -0.1570039
000330 7b 75 82 bd ac 37 93 3d 2e af ef bd 75 89 40 bc
       -0.06370064 0.07188353 -0.11703335 -0.011751522
000340 41 c8 a8 3d 4f 08 42 bd 2e c9 c2 3d cb 3e cc 3c
       0.082413204 -0.047371205 0.09511028 0.024932286
000350 eb 6b 4c 3d ed c7 96 bd 53 5d 65 3d 0d 2b c5 3d
       0.049907606 -0.073623516 0.055997204 0.09627352
000360 de 0b 99 bd e5 54 b2 3d 2c 56 ab bb aa 30 e6 3d
       -0.074729666 0.087075986 -0.0052287783 0.11239751
000370 8e b5 b2 3d 49 6f 33 3c a7 7f 70 3d a7 79 8a bd
       0.08726035 0.010951825 0.05871549 -0.067614846
000380 5d c2 df 3d f7 72 4a 3c 20 cf 95 bd 10 1b e3 3d
       0.10925744 0.012356511 -0.073148966 0.11089146
000390 96 bf f9 3d f9 6a 79 3d 6f fa 95 bb 78 16 8c 3b
       0.12194745 0.060893033 -0.004576973 0.0042751394
0003a0 37 f6 cd bc 96 2b 32 be a3 47 1e 3e d6 15 3a 3b
       -0.025141818 -0.17399439 0.15457015 0.0028394363
0003b0 36 61 89 3d 81 d0 9a bd 03 82 91 3d e6 b6 58 be
       0.06707995 -0.075593 0.07104876 -0.2116352
0003c0 5c a2 2e 3e c7 21 30 3e 23 97 df 3d 04 16 2e bd
       0.17054123 0.17200385 0.10917499 -0.042501464
0003d0 96 04 12 3e 09 d1 90 3d ce 9c b4 be 42 6e 9a 3d
       0.14259562 0.0707112 -0.35275882 0.07540561
0003e0 59 73 35 3e 1b 62 b8 bc fb 51 c7 3d a2 19 56 3c
       0.17719783 -0.022507718 0.097324334 0.013067635
0003f0 2f af c8 bc 2a a7 bb 3d 5c f6 26 3e 10 d5 32 3e
       -0.024497597 0.091627434 0.16304916 0.1746409

layers.2.W2.weight f4 [64, 64]
000000 f4 46 ea bc d0 13 ae bd ae 0f bc bd 54 d7 33 be
       -0.028598286 -0.08499873 -0.09182678 -0.1756261
000010 67 e7 5f bd 65 b3 1b be 8a bd 0b be bc d5 b4 bd
       -0.05466404 -0.15205152 -0.13646522 -0.08829829
000020 ef 69 56 bd 47 b4 96 bb a0 9c 26 bd 67 f1 3f 3b
       -0.05234712 -0.0045991275 -0.040676713 0.0029288174
000030 6d d8 dd bd 48 99 36 bd 48 d1 b4 3c b1 7d f1 bc
       -0.108322956 -0.044579774 0.02207245 -0.02947888
000040 9e 0b 8a bc 3e 56 ae 3d ca b6 54 be 7c 16 2a 3d
       -0.016851243 0.08512543 -0.20772853 0.04152535
000050 f6 26 07 be 94 28 8e be be 49 05 3d 92 ff f7 bd
       -0.13198456 -0.27765334 0.03254103 -0.12109293
000060 14 b2 11 be 8f 24 2c be ba 05 34 3d 19 e5 97 bd
       -0.14228088 -0.16810821 0.043950774 -0.07416744
000070 fb f0 5e 3d c6 fa 89 bd 32 9b c0 bd 1f 26 a7 3c
       0.054429036 -0.06737284 -0.09404601 0.02040392
000080 49 fb 3c be dc 3d 3a be 4c 6f ab bd 00 62 0b 3b
       -0.18455233 -0.1818766 -0.083708376 0.002126813
000090 25 40 33 be 12 2f 17 bd c9 df 17 be 80 8e cf bc
       -0.17504938 -0.036910124 -0.14831461 -0.025336504
0000a0 00 4c b4 bc 88 61 f6 bd 6c 1b b1 bd c9 a1 4b bd
       -0.022008896 -0.12030321 -0.086478084 -0.049714837
0000b0 fc 2c 0d bd df fc ca 3e 7d b5 0b be 93 39 cc be
       -0.03446673 0.3964605 -0.13643451 -0.39887676
0000c0 cc 18 d6 3c b6 0c 03 be 1f 2e 4e bd 4f fd a7 bd
       0.026134871 -0.12797818 -0.050336953 -0.08202612
0000d0 04 e0 4d bd f7 0c 86 bd 63 ae 93 be e9 ae 0d 3d
       -0.050262466 -0.065454416 -0.28843984 0.034590635
0000e0 4b 77 b0 bd b0 f6 cd bc 87 f4 74 bd 1a a3 b0 be
       -0.08616503 -0.025142044 -0.059803512 -0.34499437
0000f0 a4 4d ca bd 03 ef 05 3d 86 0b 2d bd 82 0c 2b be
       -0.0987809 0.032698642 -0.042247318 -0.1670399
000100 46 cc bc bd 09 13 2c be 43 2c 65 3d c5 a7 46 bd
       -0.092186496 -0.16804136 0.055950414 -0.04849984
000110 f4 f7 bb bd 40 b9 22 bc 9d 7d 35 be 05 0a cf bd
       -0.09178153 -0.009931862 -0.17723699 -0.10109333
000120 a8 f4 45 bd aa ee f6 3c 8f a3 2b 3d 46 88 83 bd
       -0.048329026 0.0301431 0.04190403 -0.064224765
000130 91 72 3d be 80 2a bd 3c 82 5e 90 bd 20 cf 57 3d
       -0.18500735 0.023091555 -0.07049276 0.052687764
000140 76 ec bf bd 0c 57 0b bd 6f 81 00 be e4 92 64 3d
       -0.09371273 -0.03401856 -0.12549375 0.05580415
000150 d9 b2 ab bb af 58 15 be 44 43 1c bd 87 5f a6 bc
       -0.005239826 -0.14584611 -0.038150087 -0.020309223
000160 45 7c bd bd f9 07 98 bc 51 64 30 be 7d f5 fe bd
       -0.09252218 -0.01855849 -0.17225768 -0.12449167
000170 b4 32 a2 3c 2e bc 65 3d 55 b2 a6 bc 36 03 06 be
       0.019799568 0.056087665 -0.020348707 -0.13087162
000180 c9 91 6d bc 8c 38 07 be b8 1f cd bd 87 f4 11 be
       -0.01450009 -0.13205165 -0.100158155 -0.14253436
000190 84 41 93 bd af 42 09 bd 8c 09 4f bd 18 1a 76 3d
       -0.071902305 -0.03351086 -0.050546214 0.06008348
0001a0 40 50 11 bc c2 d8 ff bc b7 9f 1c be ee c7 fe bd
       -0.008869231 -0.031231288 -0.15295301 -0.12440477
0001b0 88 c9 2f bd 79 37 23 3c bb 06 bc bc c1 56 c7 3c
       -0.042916805 0.009961956 -0.022952428 0.02433336
0001c0 46 ba 01 be 9e 2c 69 3d 8a 07 a5 bc dd 98 dd bc
       -0.12668714 0.056927316 -0.020145196 -0.02705043
0001d0 80 06 52 bb 4c a0 19 be b3 2b bd bc 46 ef 06 bd
       -0.0032047331 -0.15002555 -0.023092126 -0.032943033
0001e0 ac e8 d5 3c 28 cd 02 3d 40 09 31 be c5 91 64 3d
       0.026111923 0.031933933 -0.17288685 0.05580308
0001f0 c5 df ba bd 02 40 13 be 41 e3 48 3d ad 7a a3 bd
       -0.09124712 -0.14379886 0.04904485 -0.07982383
000200 20 ba a8 3c a4 47 2b be 0e b4 89 bd 2a 57 a2 3d
       0.020596564 -0.16726547 -0.06723796 0.079267815
000210 fc 24 42 3d 50 34 ce 3d a8 4c 0e bd ef 30 be bd
       0.047398552 0.100685716 -0.034741074 -0.09286677
000220 b8 91 c8 3c a8 91 09 bd 00 58 87 38 d0 35 d0 bd
       0.024483547 -0.033586174 6.453693e-05 -0.10166514
000230 b4 97 e5 3d 30 a3 86 bd b0 07 39 bc 80 dd 4f 3b
       0.11210576 -0.06574094 -0.011293337 0.0031717718
000240 7c 6d 5e bd 7c 19 98 3d 69 fe 3b be 28 be 89 bc
       -0.05430363 0.07426736 -0.18358769 -0.016814306
000250 08 c9 a5 bd 5d a7 03 3d 40 5e ba bd 64 ae ca 3d
       -0.08094984 0.032142032 -0.09100008 0.098965436
000260 8a 6a dd bd 76 db ff bd 00 c9 47 3b c4 05 fc bd
       -0.10811336 -0.12493031 0.0030484796 -0.12305787
000270 c2 77 ee 3d 50 21 ef 3d 0c cf 69 bd b8 5a bf 3d
       0.11643936 0.11676276 -0.05708222 0.09343475
000280 1c e9 44 bd 68 80 fa 3c ba 6e b3 bd d0 a5 0a bc
       -0.048073873 0.030578807 -0.08761354 -0.008462384
000290 30 54 1c bd 70 ba e5 3c 35 5f 90 3c ce f2 ee bd
       -0.038166225 0.028043002 0.017623523 -0.11667405
0002a0 30 62 0a 3c 6c e1 2d 3d a8 3c ce 3d 6c d0 67 3d
       0.008446261 0.042451307 0.10070163 0.05659525
0002b0 c0 b0 3d 3b 2c 57 57 3c 9e d9 87 3d 13 86 99 be
       0.0028944463 0.013143342 0.06633304 -0.29985103
0002c0 a0 a6 e9 bb 62 28 ed bd 20 33 10 3c 70 86 1b 3c
       -0.007130459 -0.11579968 0.008801252 0.009492502
0002d0 36 8a a8 bd 14 1a 71 3d 8f a5 3a 3d c8 d3 d9 bd
       -0.08229487 0.05886276 0.045568045 -0.10636097
0002e0 04 0b e4 bd bc 32 7a bd 27 e8 d4 bc 81 21 19 be
       -0.111349136 -0.06108354 -0.025989605 -0.14954187
0002f0 b9 a0 ad be a2 8f c4 3d 00 4a d3 bd 68 c3 08 bd
       -0.33911684 0.09597708 -0.10316849 -0.03338948
000300 b3 91 a3 3c c4 a9 b6 3d 76 24 ed bd cf 9b a3 3d
       0.019966936 0.08919099 -0.1157922 0.079887025
000310 29 62 1e bd b0 f8 7c 3d d3 a5 09 3d a0 14 a4 3d
       -0.03866783 0.061760604 0.033605408 0.080117464
000320 72 47 01 bb 7c 77 56 3c 1e f7 29 3e 59 49 20 be
       -0.0019726423 0.013090011 0.16598174 -0.1565298
000330 c8 af be 3d 63 26 35 3c 74 4f 36 3d 32 e8 14 3e
       0.09310871 0.011056515 0.044509366 0.145417
000340 da e7 ec bd 16 d9 01 3d 75 db d3 bd 27 31 27 3d
       -0.1156766 0.03170117 -0.103445925 0.04081836
000350 97 68 1a 3e a7 56 4a be 5f c6 43 bc 24 e2 ad bd
       0.1507896 -0.19759618 -0.011949151 -0.084903985
000360 9b 3c 0b bd eb 60 c8 3d cd a2 37 3d ee 2a ea bd
       -0.033993345 0.09784111 0.044832993 -0.114339694
000370 5f 2e 90 bd 7b b4 b2 bc d2 43 6c bb df 85 1d be
       -0.070400946 -0.021814575 -0.0036051166 -0.15383099
000380 46 62 63 bd b2 51 5a bd 20 7d ce 3d 90 be 17 3e
       -0.055513643 -0.053300567 0.100824594 0.14818788
000390 43 73 6e 3a 6a a2 9f bc 2a 1e 4c bd 9d d9 20 3c
       0.0009096155 -0.019486625 -0.049833454 0.009817508
0003a0 b9 ab 92 3a a3 2c 12 be 61 ed 22 3d 1f a8 39 3d
       0.0011190093 -0.1427484 0.039777163 0.04532635
0003b0 9f 67 17 be dc df 80 3c 79 f9 73 3e 3a 9b 34 3c
       -0.14785622 0.015731744 0.23825635 0.011023337
0003c0 38 c7 26 3d 97 49 3b 3c 19 2b 03 3b 25 7d 19 bd
       0.040717334 0.011431119 0.0020014702 -0.037472863
0003d0 25 8c 90 bd 8f 95 ab 3a 88 70 41 be e3 7d a9 bd
       -0.070579804 0.0013090837 -0.18890584 -0.08275964
0003e0 c2 1b 39 3e 38 b3 ef bc 5c 29 d7 3c 48 4d 94 bd
       0.18076995 -0.029260263 0.026264839 -0.07241303
0003f0 f0 de 79 3e 82 a4 e6 bc 48 1f af 3d 10 9a c1 3d
       0.2440145 -0.028154615 0.08550888 0.09453213

classifier.0.weight f4 [64, 64]
000000 bf 23 24 bc e6 ca 04 3e be 7c 73 be 29 f1 a8 bd
       -0.010018288 0.12968025 -0.23778054 -0.08249123
000010 09 7d 55 bd 73 4a 10 bd 86 12 d8 3c e0 21 58 bd
       -0.052121196 -0.03522725 0.02637602 -0.05276668
000020 3e ab 28 3e 42 a0 15 3e f7 2a 32 be 78 f3 dc bb
       0.16471574 0.14611915 -0.17399202 -0.006742891
000030 0e bf 88 3c f6 07 4f bb 2e dc 67 bd 65 ff c9 bd
       0.016692664 -0.0031590438 -0.056606464 -0.09863166
000040 3f a0 08 bc 35 a9 fa 3c 19 e7 be bc b7 f5 56 3d
       -0.008338987 0.030598262 -0.023303555 0.052480426
000050 31 47 74 3d 92 d5 bf bd 20 10 1f 3d 2a d6 41 bc
       0.059638206 -0.09366907 0.038833737 -0.011830846
000060 1e 10 82 be be b3 c9 3b 91 08 f0 3d 50 ee a3 3d
       -0.2540292 0.00615546 0.11720384 0.08004439
000070 16 38 cb bd b9 84 bd 3d de f4 2f 3c 3d 96 8b 3d
       -0.09922807 0.092538305 0.010739533 0.06815765
000080 32 d9 8a bd d8 bd 40 bd 5e 72 99 bc f6 0e 4e bd
       -0.06779708 -0.04705605 -0.018731292 -0.050307237
000090 43 98 03 be 3d fa c7 bd 4d 3a 5a 3d 98 f3 d2 bc
       -0.12851052 -0.09764526 0.053278256 -0.02575092
0000a0 d3 35 7a bd c5 f5 ab bc e0 05 88 bd 0b cc 01 3e
       -0.061086487 -0.020991215 -0.066417456 0.12675492
0000b0 22 dc b7 3d 17 7b 31 be 03 d9 9f 3d 11 7a ca 3d
       0.08977534 -0.17332111 0.078050636 0.098865636
0000c0 07 59 d9 bd 20 de f1 3d 57 4d 62 bd 70 14 e0 3d
       -0.10612684 0.11809945 -0.05524954 0.10941398
0000d0 75 1a a5 3d 0a 3b 75 bd e8 ee 3f bd 6f d3 ce 3d
       0.08061687 -0.059870757 -0.046858698 0.100989215
0000e0 fe 4c bb bd b8 ff a0 3d 2d 9f b7 3d db 35 55 bd
       -0.091455445 0.078612745 0.08965907 -0.052053314
0000f0 a4 64 eb 3d e5 3b 65 bd 12 60 fa bc 24 31 53 be
       0.11493805 -0.055965323 -0.030563388 -0.20624214
000100 6a d8 82 be 2c 49 91 3d 6f 6a 26 be 69 ea 65 bd
       -0.25555736 0.070940346 -0.16251539 -0.056131754
000110 4c 8d 0f be 01 a3 1c bf c2 bb 55 3d 94 33 e7 3c
       -0.14018744 -0.61186224 0.052181013 0.028222837
000120 78 5f c0 be 1e a6 e1 bd 8e 13 d3 3d 18 6f 50 be
       -0.37572837 -0.110180125 0.10306464 -0.20354879
000130 16 14 67 bd c7 d5 e3 bc 69 ab 70 bb 8d 0d 0a be
       -0.05641564 -0.027811898 -0.0036723262 -0.13481732
000140 d5 1d 81 bd 79 ee 6e bd d8 1f 94 bc a1 0c 88 bd
       -0.06304518 -0.058332894 -0.01808159 -0.06643034
000150 19 44 79 3d bb 67 a6 bc 28 45 1e 3d f5 c7 6f bd
       0.06085596 -0.020313134 0.03864017 -0.058540303
000160 4c 15 3f bd 32 6f 90 bd 62 15 90 be 45 50 97 be
       -0.04665117 -0.07052459 -0.28141314 -0.29553428
000170 6d 89 f5 3c 70 cd 61 be 44 28 3c 3d 5e 5c d5 3c
       0.029972756 -0.22051024 0.045936838 0.02604502
000180 91 9a a8 3c a8 96 0b be c8 d1 52 3d 98 b0 c5 bc
       0.020581516 -0.1363169 0.051469594 -0.024132058
000190 00 53 a4 bd 8b aa 2e bd f3 17 34 3d bb de c3 3c
       -0.080236435 -0.04264311 0.043968152 0.023909917
0001a0 d4 a9 c0 bd 62 4f 85 3d b7 9e 0f 3e dc 81 33 3d
       -0.09407392 0.06509282 0.14025389 0.043825015
0001b0 f8 26 4f 3c 4d 54 dc bd fd 13 4c bd c8 9b 1b be
       0.012643568 -0.107582666 -0.04982375 -0.15196145
0001c0 ed b2 2f bd b7 5b b1 be f6 83 0a 3d 19 35 da 3c
       -0.042895246 -0.34640285 0.033817254 0.026636647
0001d0 94 36 8d be 36 49 fc bd 04 82 4c be fd 4d 5d 3c
       -0.27580702 -0.123186514 -0.19971472 0.013507363
0001e0 3e 40 3e bc f9 ee 94 3d 64 96 f8 3c 44 26 44 bd
       -0.011611996 0.07272143 0.03034515 -0.047888055
0001f0 5d 43 4b 3e d5 53 5b bd 5a 44 d4 bd 72 55 92 bc
       0.19849916 -0.053546745 -0.103645995 -0.01786301
000200 ed 6d 82 3c 20 72 b0 bd 38 3e c3 bc b2 b2 39 be
       0.015921557 -0.086155176 -0.02383338 -0.18134573
000210 c0 11 96 bc 7b 68 82 bd 63 97 1d be 27 e2 1f be
       -0.01831901 -0.06367584 -0.1538978 -0.15613614
000220 18 ff 2c 3c a4 b1 28 be 30 93 de 3c 7f 0c 5d 3d
       0.010558866 -0.16474015 0.027169794 0.053966995
000230 2c 5a 16 bd 95 35 2d 3c 21 29 9c bb 48 bd e6 bc
       -0.03670709 0.010571857 -0.004765645 -0.028166428
000240 fd 62 0c be 16 18 99 bd e6 2f fa bd 34 da 2b bd
       -0.13709636 -0.07475297 -0.12216167 -0.04195614
000250 3a bb ff bc 64 c3 04 bd 42 28 89 3d 29 c7 8c bd
       -0.031217206 -0.0324129 0.06697132 -0.06873924
000260 3c b3 1c 3d 6c c0 7b 3d d4 36 69 3d f4 4c 23 3d
       0.03825687 0.061462805 0.056937054 0.03986831
000270 84 f3 e4 bd da 09 6b bd 87 31 c8 bd 36 d6 c4 bc
       -0.111792594 -0.057382442 -0.097750716 -0.024027925
000280 ed da 5b 3c c6 f7 20 bd df 51 cd bd 55 7f 1f bd
       0.013418895 -0.039298795 -0.10025381 -0.038939793
000290 da 61 bd bd 18 e8 df bd 90 a4 b0 bc d8 92 92 bd
       -0.09247179 -0.1093294 -0.021562845 -0.071569145
0002a0 12 9e b0 bd 23 9d 6e bb 0c 71 a9 bc 91 3a f6 bc
       -0.086238995 -0.0036409579 -0.020683788 -0.030057224
0002b0 6e cb ed bc 7d 7d 89 bd ea 93 16 bd 3a 18 15 be
       -0.029027667 -0.06713388 -0.036762156 -0.14560023
0002c0 76 78 c2 bc 8c de 39 bd a6 ce 95 3c a5 4a 60 bd
       -0.02373908 -0.045378253 0.018287014 -0.054758687
0002d0 13 7f 5b 3d 94 94 27 3d eb 43 3d be 8a eb f0 bd
       0.053587984 0.04091318 -0.1848294 -0.117636755
0002e0 a8 dd 87 bc 8b 44 87 bd aa 4f 94 bc e2 c6 03 be
       -0.016585186 -0.066048704 -0.018104393 -0.12868837
0002f0 2c 85 dd 3b 4a 26 07 be eb e8 52 bd 40 54 cc bd
       0.00676026 -0.131982 -0.05149166 -0.09977007
000300 b5 b3 c4 bd 85 9c a1 3c 64 5b 84 3d 75 60 1a be
       -0.09604589 0.019727955 0.06462744 -0.15075858
000310 39 3a 3d 3c e8 9d a0 bd 66 d2 1f be 40 57 59 3d
       0.011549526 -0.07842618 -0.15607604 0.053061724
000320 14 10 90 bc 4f 06 40 bd 3b 23 3c bd a3 9d 9a bb
       -0.017585792 -0.046881016 -0.045932036 -0.004718499
000330 41 53 4b be 28 6e 39 3c 13 c2 ff 3c d2 4f 90 bd
       -0.19855978 0.011317767 0.031220471 -0.070464745
000340 53 c1 c3 bd 42 b2 8b bd 40 0f 0c 3c 82 5f 1f bd
       -0.09558358 -0.06821109 0.008548558 -0.038909443
000350 c4 14 0d be 84 0d dc bb 80 d1 fa 3b c2 05 58 bd
       -0.13777453 -0.0067154784 0.007654369 -0.052739866
000360 74 4a 3d bd 2f eb 45 3d 93 3e 19 be 9e 9c d1 bd
       -0.046213582 0.04831999 -0.14965276 -0.102349505
000370 cd 26 6a be c1 21 0a 3d ca bd e1 bd 00 66 6d bd
       -0.22866364 0.033723596 -0.110225275 -0.057958603
000380 b2 be 04 be 7b 88 0b 3d 66 e0 29 be a4 01 03 be
       -0.1296337 0.034065705 -0.16589507 -0.12793595
000390 06 de f8 bd 40 3c de bc c2 a7 dc bd f3 58 80 bd
       -0.121517226 -0.027128339 -0.10774185 -0.06266966
0003a0 35 ae 43 bc b4 ab 43 bd 6b 81 44 bd 76 53 b0 bd
       -0.01194339 -0.04777117 -0.047974985 -0.08609669
0003b0 54 5f 19 be db 51 a2 bd fa bd 2a 3d de c9 15 bd
       -0.14977771 -0.07925769 0.041685082 -0.03656947
0003c0 b8 c2 b7 3c 7e 9f c7 bd da b8 4d 3c ad 51 b0 3c
       0.022431716 -0.097472176 0.012556279 0.021523321
0003d0 29 46 08 bd 29 2b e8 3c b7 8d 4e bd d1 1f 70 bd
       -0.033270035 0.028340893 -0.05042812 -0.058624092
0003e0 5a 09 d3 bc 33 98 38 be b0 ea 9d 3c 26 2c 00 be
       -0.025761295 -0.1802681 0.019276947 -0.12516841
0003f0 61 71 ea bd 95 56 8a bd 14 bc 1d be 0e ca a4 bd
       -0.114474066 -0.067547955 -0.15403777 -0.080463514
