kgnn_interpretation/old_claude2/trained_12gnn.pt (torch, 190936 bytes, 14 tensors)

gnn1_layers.0.W1.weight f4 [64, 7]
0.108048834 0.64870894 -0.15917636 -0.22002876 -0.112633795 0.74819833 0.44691998 -0.1401356
-0.12941425 -0.1139191 -0.050789073 1.1836146 0.121806145 -0.34328878 -0.29886106 0.21500596
0.09596421 -0.018799037 -0.22787695 -0.23124059 -0.33856803 -0.112483196 0.1369806 0.32176358
0.24918833 -0.33409944 -0.22729364 -0.05964908 0.28395194 0.061614383 -0.13346641 0.017960811
0.91126513 -0.24463964 0.34325066 -0.21499275 -0.1247195 -0.37600067 0.3040019 0.07340186
0.21968928 -0.26354486 0.021163842 -0.3069748 0.18430102 0.34089798 -0.07805622 0.4742663
0.3898713 0.01823785 -0.36928234 -0.31477046 -0.35352856 0.04329004 -0.18556845 -0.076066315
-0.358306 -0.089922406 -0.24867146 -0.346503 1.1068822 -0.26202 0.3491047 -0.1185973
-0.33041617 -0.15451457 -0.1832173 -0.11563504 -0.35982051 0.34830564 -0.34053215 0.19210993
0.043457147 0.27003017 -0.28991842 0.27183083 -0.17868331 0.06625089 0.27949223 -0.032349516
0.07287252 -0.18205678 -0.3155945 0.1235348 -0.54602516 0.30941737 0.34573996 0.42380363
-0.089154094 -0.31055146 0.00857264 0.21319833 -0.37619135 -0.14922784 -0.22657287 -0.15294138
-0.18603921 -0.20563105 -0.17042476 -0.35803393 0.26263112 0.3901719 0.8083945 -0.17562255
-0.1748435 -0.28691044 -0.3175787 0.11469289 -0.15834215 0.65616435 -0.04219137 -0.013381689
-0.15525334 -0.0008105894 -0.08017096 -0.13013786 -0.18097162 -0.30759785 0.34663466 -0.24006183
0.087392025 -0.07448621 0.008509558 0.90363836 0.16880721 -0.38313264 0.30959502 0.29398537
-0.019919857 0.36465338 0.008670778 -0.05791512 0.541868 -0.32255465 -0.14450024 0.16954331
0.19376191 -0.23917176 -0.30308405 -0.2582872 -0.3730047 -0.2916521 -0.09346962 0.13465245
0.06326455 -0.28748184 -0.30321214 0.21136124 -0.43048593 -0.10044997 0.050111834 -0.17492652
-0.16226289 -0.13199468 -0.15727374 -0.17425925 -0.27745044 -0.34127942 0.8437388 0.1514209
-0.259262 -0.2538137 0.09161639 0.010562541 0.20709041 1.0503973 0.15042365 -0.37475213
0.057952598 0.20621872 -0.102435105 -0.28021437 1.0105011 -0.26558977 -0.27078077 -0.3407558
-0.04361365 0.12103844 0.08366728 0.07474238 -0.2866435 -0.3529762 -0.03515868 0.163495
0.23769692 -0.32236367 0.67774093 -0.26927343 -0.2900583 -0.05840852 0.15661494 0.21574982
-0.34701148 0.18217382 -0.26657534 0.085946485 0.22725672 0.0053075254 0.33691218 -0.32204518
-0.14436701 0.079656385 -0.08234632 -0.12564296 -0.20028631 0.15748084 0.13798083 0.9000485
-0.2124023 -0.3068125 -0.08395752 0.068481036 -0.17451069 -0.10575357 0.6000709 0.030108541
0.017053127 -0.16679059 -0.34228072 -0.3553839 -0.1806727 -0.19212742 0.11775619 -0.11002952
-0.24081106 0.23197478 0.053396445 0.2167561 0.28547403 -0.27924156 0.054379314 -0.25460586
-0.12222037 -0.1670452 -0.16829279 -0.31981623 0.057359636 0.27114815 -0.010373168 -0.065808624
-0.35009828 -0.1376693 0.016477583 0.2869512 -0.04778132 -0.14673124 0.1576406 -0.3750999
0.13481542 1.1070652 -0.20452116 -0.09441788 0.2014494 -0.007931304 0.26400384 -0.10769718
00000000: b548 dd3d ca11 263f 21ff 22be 384f 61be
00000010: 8cac e6bd ed89 3f3f b2d2 e43e b57f 0fbe
00000020: 2b85 04be 6b4e e9bd 3408 50bd af80 973f
00000030: 8075 f93d 8cc3 afbe 5104 99be 862a 5c3e
00000040: e288 c43d 7000 9abc 9358 69be 55ca 6cbe
00000050: ca58 adbe 975d e6bd a444 0c3e 32be a43e
00000060: 3a2b 7f3e 150f abbe aabf 68be 9852 74bd
00000070: 2662 913e 5d5f 7c3d 6bab 08be 8d22 933c
00000080: ac48 693f d082 7abe 8dbe af3e 0f27 5cbe
00000090: f06c ffbd 2983 c0be 23a6 9b3e b753 963d
000000a0: 3af6 603e 5aef 86be cb5f ad3c cd2b 9dbe
000000b0: 68b9 3c3e 2e8a ae3e f1db 9fbd 08d3 f23e
000000c0: 369d c73e 8b67 953c 9312 bdbe 9829 a1be
000000d0: b201 b5be e650 313d a805 3ebe a8c8 9bbd
000000e0: e273 b7be 3d29 b8bd bba3 7ebe d768 b1be
000000f0: 51ae 8d3f 7c27 86be dabd b23e 24e3 f2bd
00000100: 4f2c a9be 1139 1ebe 519d 3bbe 10d2 ecbd
00000110: 653a b8be 1e55 b23e 3b5a aebe 77b8 443e
00000120: 1f00 323d 6541 8a3e 3070 94be 692d 8b3e
00000130: c2f8 36be 8cae 873d 9b19 8f3e ed80 04bd
00000140: 303e 953d 186d 3abe 9a95 a1be d0ff fc3d
00000150: 4ec8 0bbf f46b 9e3e d404 b13e cafc d83e
00000160: 6c96 b6bd 9a00 9fbe 4274 0c3c aa50 5a3e
00000170: 279c c0be 2fcf 18be b802 68be aa9c 1cbe
00000180: 1081 3ebe f290 52be d483 2ebe 3950 b7be
00000190: 9677 863e 9cc4 c73e f1f2 4e3f 66d6 33be
000001a0: 2d0a 33be ede5 92be ad99 a2be 1be4 ea3d
000001b0: 7224 22be 63fa 273f dcd0 2cbd df3e 5bbc
000001c0: bbfa 1ebe bc7d 54ba ac30 a4bd dc42 05be
000001d0: a050 39be 777d 9dbe 197a b13e c5d2 75be
000001e0: 97fa b23d 3a8c 98bd ac6b 0b3c d854 673f
000001f0: ccdb 2c3e f629 c4be 3d83 9e3e 4085 963e
00000200: f82e a3bc d9b3 ba3e e10f 0e3c 6838 6dbd
00000210: dcb7 0a3f e225 a5be dff7 13be c39c 2d3e
00000220: 8669 463e 71e9 74be d52d 9bbe 383e 84be
00000230: 79fa bebe 6d53 95be 006d bfbd 55e2 093e
00000240: d890 813d d230 93be 9f3e 9bbe 156f 583e
00000250: a768 dcbe b7b8 cdbd 1142 4d3d f01f 33be
00000260: 3e28 26be 9d29 07be 5e0c 21be 0471 32be
00000270: fc0d 8ebe 2dbc aebe 44ff 573f 150e 1b3e
00000280: fdbd 84be dff3 81be 60a1 bb3d 820e 2d3c
00000290: 820f 543e 6b73 863f a808 1a3e 83df bfbe
000002a0: b45f 6d3d 002b 533e 7fc9 d1bd 4278 8fbe
000002b0: 1a58 813f 62fb 87be c7a3 8abe 8b77 aebe
000002c0: 3aa4 32bd 00e3 f73d c059 ab3d 8812 993d
000002d0: f0c2 92be 4cb9 b4be 8c02 10bd 3c6b 273e
000002e0: d266 733e da0c a5be 6e80 2d3f 35de 89be
000002f0: 8682 94be c63d 6fbd ab5f 203e 85ed 5c3e
00000300: 7dab b1be c68b 3a3e 907c 88be b604 b03d
00000310: fcb5 683e c0ea ad3b c17f ac3e 1be3 a4be
00000320: f2d4 13be e322 a33d 30a5 a8bd 8ca8 00be
00000330: db17 4dbe a842 213e d94a 0d3e 9469 663f
00000340: fd7f 59be 8716 9dbe ecf1 abbd c93f 8c3d
00000350: eeb2 32be 5495 d8bd 3f9e 193f 30a6 f63c
00000360: 00b3 8b3c 27cb 2abe 6b3f afbe e1f4 b5be
00000370: 4402 39be 0dbd 44be 282a f13d 2857 e1bd
00000380: 2d97 76be cc8a 6d3e 3bb6 5a3d 50f5 5d3e
00000390: a729 923e c0f8 8ebe d8bc 5e3d b35b 82be
000003a0: ac4e fabd e60d 2bbe f254 2cbe f4be a3be
000003b0: f0f1 6a3d eed3 8a3e 38f4 29bc acc6 86bd
000003c0: 1540 b3be 2ef9 0cbe fffb 863c 45eb 923e
000003d0: 58b6 43bd b740 16be 8a6c 213e 180d c0be
000003e0: 0e0d 0a3e 50b4 8d3f ff6d 51be 295e c1bd
000003f0: c048 4e3e 4df2 01bc 832b 873e 5790 dcbd

gnn1_layers.0.W2.weight f4 [64, 7]
0.03894304 -0.20764403 -0.2177625 -0.33095965 -0.30426574 1.0898869 -0.3541057 0.23443544
0.11314234 -0.38440102 -0.21931566 0.6747237 -0.10704596 -0.2111382 -0.32265884 0.13304618
-0.21128146 0.31343713 0.024387121 0.075979084 0.29486212 -0.10525249 -0.21077558 -0.04492393
0.36026058 -0.28044486 0.033910654 -0.37146023 0.16571504 0.09246724 0.0015132837 0.056326218
0.9121869 0.124530524 -0.26002252 -0.09220501 0.0809314 0.32719293 0.19253185 -0.27484608
0.23063634 -0.08428541 -0.09830768 -0.34353557 -0.05949703 0.66153663 0.0527052 -0.22014691
0.11634204 -0.10583107 0.36196133 -0.3081534 -0.11938971 -0.3649525 -0.14885381 0.1191524
0.24556522 0.0074446965 0.29319343 0.016469112 0.95680547 0.07883128 0.42693466 -0.255495
0.25277954 0.1822052 -0.17672825 -0.18036592 -0.31701624 0.09492096 -0.3050148 0.028408062
0.12626787 -0.32837635 0.102995634 -0.030740052 0.17266086 0.14357676 -0.4547327 0.27496585
0.28543714 -0.06678407 -0.33114046 -0.19366746 -0.011343603 -0.06623526 0.2776803 0.13741675
0.29941556 -0.14155644 0.12720004 0.13871142 -0.31879207 -0.39760968 -0.24622545 0.05613716
-0.36464444 -0.47766647 0.16577277 0.1851387 0.25944263 -0.22528507 -0.2766321 0.0409213
0.37999108 0.30227453 0.06932137 0.14328429 0.402162 0.37664035 -0.32653677 0.3394686
-0.27128714 -0.20841436 0.26282012 0.11925614 0.122109026 -0.16019662 -0.005216092 0.27718
-0.197563 -0.036565185 0.18841225 0.10645437 0.3655891 -0.19800258 -0.07450048 -0.2615865
-0.25177106 -0.37088314 -0.15573874 0.23574483 -0.35400182 -0.30862483 0.2673388 0.08441627
0.15165624 -0.22613542 -0.16569814 -0.057055295 -0.18954925 -0.25899953 0.03113857 0.037565142
-0.04785824 0.052397907 -0.14980645 0.13010602 0.078536265 -0.2889173 -0.4810655 0.8096014
-0.07337725 -0.2951992 0.3075637 -0.17504396 0.1867991 0.1551342 0.07591048 -0.015840799
-0.40275562 -0.25937793 -0.15662058 -0.25476563 0.3692372 -0.07581198 0.15012363 -0.33748898
0.2584112 -0.111660965 -0.37936726 -0.04736596 0.8213361 0.13194329 -0.21973574 -0.24605294
0.025949629 0.04247208 0.14531687 0.2074553 -0.08570483 0.20998558 0.26541415 -0.120548874
0.18411097 0.0780162 1.125931 -0.35219893 -0.17099364 -0.18570818 -0.048557065 0.1600735
-0.2157658 0.1892294 -0.13545543 0.172743 -0.08861773 -0.34033749 -0.3088804 -0.3412655
-0.14847866 -0.3368026 -0.09072149 0.03589917 -0.30002552 0.053404883 -0.36905333 -0.27043676
-0.34248245 -0.16991454 -0.1926376 -0.07517769 -0.069891095 0.17767432 0.31785405 0.13561031
-0.14890572 -0.3539205 0.021211494 -0.18726547 0.19233719 0.25266352 0.14578864 0.35464814
0.27346337 -0.0020649917 -0.3498075 0.2736052 0.29205412 -0.32040346 0.40275803 0.30096278
0.15730955 0.028462674 -0.39618695 -0.19343677 0.20561504 0.059201058 -0.03909553 -0.12690736
-0.13182731 0.18939964 0.023308516 0.36456442 -0.011310304 0.17483473 0.0985497 0.04645997
0.14776643 1.5113304 -0.0909609 0.30701095 -0.02736306 -0.44597515 0.1419672 0.020521935
00000000: bd82 1f3d a3a0 54be 22fd 5ebe 8b73 a9be
00000010: b8c8 9bbe 6a81 8b3f 584d b5be d80f 703e
00000020: 2cb7 e73d 36d0 c4be 4994 60be b1ba 2c3f
00000030: ea3a dbbd 9d34 58be 8a33 a5be 423d 083e
00000040: 2b5a 58be d57a a03e 80c7 c73c ec9a 9b3d
00000050: 2bf8 963e 9e8e d7bd 8ed5 57be 2802 38bd
00000060: 1374 b83e 7896 8fbe e6e5 0a3d 0930 bebe
00000070: 34b1 293e 775f bd3d 6059 c63a 52b6 663d
00000080: 1585 693f dc09 ff3d ac21 85be fbd5 bcbd
00000090: 5dbf a53d d585 a73e 1227 453e a0b8 8cbe
000000a0: ef2b 6c3e d49d acbd 8955 c9bd e5e3 afbe
000000b0: 28b3 73bd 775a 293f 68e1 573d 316e 61be
000000c0: bc44 ee3d f6bd d8bd ff52 b93e 48c6 9dbe
000000d0: 9882 f4bd 0edb babe 226d 18be 2c06 f43d
000000e0: 7375 7b3e a4f2 f33b 731d 963e 3bea 863c
000000f0: 34f1 743f 4b72 a13d 2e97 da3e 3ed0 82be
00000100: 526c 813e 0094 3a3e 40f8 34be d8b1 38be
00000110: f44f a2be ec65 c23d e62a 9cbe 06b8 e83c
00000120: 5d4c 013e f220 a8be 60ef d23d 90d2 fbbc
00000130: 02ce 303e c905 133e b9d2 e8be 53c8 8c3e
00000140: d124 923e 16c6 88bd 3e8b a9be c350 46be
00000150: 85da 39bc 5aa6 87bd 1d2c 8e3e fab6 0c3e
00000160: ff4c 993e 2cf4 10be ba40 023e 5e0a 0e3e
00000170: b738 a3be 7f93 cbbe 8622 7cbe 14f0 653d
00000180: adb2 babe b390 f4be 56c0 293e 0095 3d3e
00000190: aad5 843e 21b1 66be b9a2 8dbe 189d 273d
000001a0: 318e c23e bac3 9a3e 5df8 8d3d 1eb9 123e
000001b0: 2de8 cd3e 01d7 c03e d42f a7be d4ce ad3e
000001c0: 26e6 8abe 936a 55be 5c90 863e 903c f43d
000001d0: 4c14 fa3d 950a 24be c0eb aabb 89ea 8d3e
000001e0: f44d 4abe 60c5 15bd 24ef 403e c004 da3d
000001f0: 7f2e bb3e 30c1 4abe b593 98bd aaee 85be
00000200: 23e8 80be 65e4 bdbe fa79 1fbe 1867 713e
00000210: ba3f b5be 1304 9ebe a2e0 883e 70e2 ac3d
00000220: c64b 1b3e 0b90 67be c6ac 29be d0b2 69bd
00000230: 3319 42be 969b 84be 5016 ff3c e8dd 193d
00000240: 0007 44bd 309f 563d dd66 19be 833a 053e
00000250: 9fd7 a03d f8ec 93be 384e f6be 0a42 4f3f
00000260: d046 96bd 5924 97be fd78 9d3e b93e 33be
00000270: 4348 3f3e 80db 1e3e f476 9b3d 90c4 81bc
00000280: fc35 cebe 2fcd 84be 2561 20be a470 82be
00000290: a90c bd3e 5043 9bbd 02ba 193e 5bcb acbe
000002a0: 794e 843e 81ae e4bd 6d3c c2be cf02 42bd
000002b0: 1543 523f 241c 073e 6802 61be 4df5 7bbe
000002c0: 5194 d43c 34f7 2d3d f2cd 143e 2a6f 543e
000002d0: 0486 afbd 7606 573e 5de4 873e 54e2 f6bd
000002e0: 9687 3c3e f5c6 9f3d 821e 903f 6b53 b4be
000002f0: f518 2fbe 492a 3ebe c6e3 46bd 4fea 233e
00000300: b6f1 5cbe 5ac5 413e d4b4 0abe 8ae3 303e
00000310: 367d b5bd b740 aebe 9225 9ebe 5aba aebe
00000320: ca0a 18be 6471 acbe 30cc b9bd 020b 133d
00000330: f29c 99be 14bf 5a3d 8ff4 bcbe b076 8abe
00000340: dc59 afbe 14fe 2dbe ca42 45be c3f6 99bd
00000350: 1023 8fbd 42f0 353e c4bd a23e 6edd 0a3e
00000360: be7a 18be 1135 b5be bac3 ad3c 85c2 3fbe
00000370: 0af4 443e 1d5d 813e 9e49 153e 7194 b53e
00000380: 6403 8c3e d054 07bb f819 b3be fb15 8c3e
00000390: 1e88 953e ec0b a4be 4d36 ce3e cb17 9a3e
000003a0: c115 213e 8e2a e93c 04d9 cabe 4a14 46be
000003b0: c08c 523e cf7c 723d a222 20bd 01f4 01be
000003c0: bdfd 06be fbf1 413e 80f1 be3c 30a8 ba3e
000003d0: da4e 39bc e007 333e 6dd4 c93d cf4c 3e3d
000003e0: 1550 173e 4673 c13f b549 babd 8a30 9d3e
000003f0: 7f28 e0bc db56 e4be da5f 113e 9e1d a83c

gnn1_layers.1.W1.weight f4 [64, 64]
-0.19712362 -0.053677555 0.14186126 0.058082297 0.010596573 -0.15008014 -0.19253604 -0.013966563
0.0057335356 -0.04625856 -0.034881964 0.039867565 -0.075689666 -0.13780177 0.039177153 -0.009731166
-0.0026912102 -0.14690417 0.13062434 -0.025329221 0.06363286 -0.11471647 0.012336918 -0.034994062
-0.028213227 -0.0792242 -0.014037133 -0.13505697 -0.18117066 -0.113933355 0.15799722 0.02714608
-0.023131408 -0.10816367 0.034314945 0.010348258 -0.024061332 -0.1274119 -0.16560185 0.023287235
-0.15563588 0.01885857 -0.18134037 -0.024045382 0.04034583 -0.021687912 0.104132846 -0.18319403
0.057836168 -0.08338685 -0.17553425 0.055702224 0.009188698 0.0144601725 0.02815142 -0.08665009
-0.027185492 -0.062348448 -0.079433665 -0.057257596 -0.0632649 -0.057849538 -0.11868199 -0.1364754
-0.17450933 0.0033190304 -0.024843384 -0.17188543 0.03629498 0.02651581 -0.056841187 -0.17605333
-0.04959106 0.079048306 0.04611183 -0.16761352 0.08669754 -0.05039786 -0.017279232 0.026515612
0.097304486 -0.16082019 0.16951266 -0.13095292 0.06942503 -0.15012805 -0.09184633 -0.013876317
-0.07508675 -0.06140694 -0.061700348 0.09295257 0.011048842 -0.0005546879 0.110085584 0.1568271
-0.069476485 -0.05365216 -0.034330413 -0.17998928 -0.17819574 -0.05803373 -0.1190059 -0.08450217
-0.059293874 0.0045184456 0.025653133 -0.07447007 0.07910384 0.07504599 -0.035882328 -0.19771793
-0.16199514 -0.13429546 -0.13014261 -0.085294634 -0.07706782 -0.098766424 -0.030586317 -0.0961386
0.06257519 -0.08392563 -0.15181078 0.023355953 -0.058376454 0.03142296 0.01436874 0.054786187
-0.32883045 0.033823628 -0.10768601 -0.22829734 0.06905878 0.09156956 0.042982142 -0.23275575
-0.014233836 -0.27799508 0.004176186 0.056070875 -0.15507169 0.049427167 -0.13038681 0.020252695
0.10484481 0.04016028 -0.4206273 -0.076711714 -0.042538736 -0.08109432 0.04995919 0.28467298
-0.11876722 -0.18138678 0.0077709523 0.029324977 0.15901966 0.021551728 -0.21563555 -0.14152326
-0.09215691 0.02020202 0.0634281 -0.18583535 -0.30136213 -0.0707686 -0.030963268 -0.3381666
-0.20530319 -0.062039256 -0.3139256 -0.14397433 0.069831245 -0.042940836 -0.15571363 -0.17707498
-0.11937118 -0.027792964 -0.13866821 -0.04815975 -0.332541 0.0043243123 0.103762664 -0.19006597
0.011122737 -0.18824151 -0.16384873 0.00067658804 -0.0954354 -0.11235867 0.0038673228 -0.37109467
0.14668185 0.046511743 0.008878268 -0.038867883 -0.018886454 -0.15049848 0.028820869 -0.07198844
-0.12961577 -0.1523825 0.024022127 0.024775583 -0.17357853 -0.02027858 -0.009204797 0.058691017
0.012264143 0.05486205 0.01913128 0.027493233 0.10167517 -0.17809603 -0.16039334 -0.03475434
0.008199663 -0.12215664 -0.046288233 -0.060236525 -0.028416606 -0.12722367 0.010450023 0.023071492
-0.14678729 -0.05884411 -0.05970819 -0.019915607 0.17650306 -0.023397144 -0.08845777 0.17232159
-0.107621625 -0.096351504 -0.05152062 -0.15524359 -0.046452854 -0.14486445 -0.047202315 -0.048079092
-0.042752456 -0.16546695 -0.17877789 -0.0025404005 0.047144454 -0.17097655 -0.013755763 -0.1520702
0.067891054 0.05623968 0.034772363 -0.15144747 0.017266406 0.005234572 -0.060246788 0.18114577
00000000: c6da 49be ffdc 5bbd 1444 113e b4e7 6d3d
00000010: 409d 2d3c 9cae 19be 2b28 45be 03d4 64bc
00000020: 62e0 bb3b 9e79 3dbd 64e0 0ebd 2c4c 233d
00000030: 2f03 9bbd e81b 0dbe 3978 203d 786f 1fbc
00000040: 045f 30bb 0c6e 16be 63c2 053e 3a7f cfbc
00000050: f251 823d 78f0 eabd c920 4a3c ef55 0fbd
00000060: 6d1f e7bc 4c40 a2bd 01fc 65bc 604c 0abe
00000070: cd84 39be e455 e9bd 06ca 213e 7561 de3c
00000080: 147e bdbc ea84 ddbd d48d 0c3d bd8b 293c
00000090: 451c c5bc 4478 02be 8893 29be dfc4 be3c
000000a0: 035f 1fbe 4a7d 9a3c 4ab1 39be d2fa c4bc
000000b0: ab41 253d d9aa b1bc 9a43 d53d 3797 3bbe
000000c0: 9ee5 6c3d bac6 aabd 40bf 33be 0428 643d
000000d0: 318c 163c 5cea 6c3c cf9d e63c 9a75 b1bd
000000e0: 1cb4 debc 1661 7fbd 1eae a2bd f186 6abd
000000f0: 0791 81bd a3f3 6cbd 8b0f f3bd 35c0 0bbe
00000100: 93b2 32be 1784 593b 5a84 cbbc bc02 30be
00000110: 0caa 143d af37 d93c 4ed2 68bd 5347 34be
00000120: ff1f 4bbd 14e4 a13d c2df 3c3d e1a2 2bbe
00000130: 7b8e b13d fd6d 4ebd 2d8d 8dbc 4537 d93c
00000140: 9347 c73d 0cae 24be ba94 2d3e 8618 06be
00000150: b62e 8e3d 2bbb 19be ee19 bcbd 7e59 63bc
00000160: 15c7 99bd d885 7bbd 81b9 7cbd eb5d be3d
00000170: 3406 353c 7a68 11ba 8d74 e13d 4997 203e
00000180: b049 8ebd 5ec2 5bbd 0c9e 0cbd 1c4f 38be
00000190: f278 36be c7b4 6dbd 5eb9 f3bd 790f adbd
000001a0: 22de 72bd 780f 943b 8526 d23c c483 98bd
000001b0: 3201 a23d b6b1 993d 59f9 12bd 9276 4abe
000001c0: 0ee2 25be c084 09be 1b44 05be f4ae aebd
000001d0: bcd5 9dbd 0d46 cabd 2890 fabc 50e4 c4bd
000001e0: 6c27 803d 33e1 abbd 4974 1bbe fc54 bf3c
000001f0: 261c 6fbd 5db5 003d dd6a 6b3c 7b67 603d
00000200: 775c a8be a58a 0a3d 7c8a dcbd c7c6 69be
00000210: b16e 8d3d d288 bb3d 0b0e 303d 8657 6ebe
00000220: 0935 69bc 5f55 8ebe 63d8 883b 93aa 653d
00000230: 1dcb 1ebe 2474 4a3d 1f84 05be fbe8 a53c
00000240: e0b8 d63d 1b7f 243d 765c d7be 081b 9dbd
00000250: 193d 2ebd c714 a6bd 02a2 4c3d a8c0 913e
00000260: 3a3c f3bd 75bd 39be 79a3 fe3b ef3a f03c
00000270: 0dd6 223e 408d b03c 91cf 5cbe 79eb 10be
00000280: c3bc bcbd b57e a53c 97e6 813d 9f4b 3ebe
00000290: 234c 9abe 21ef 90bd aea6 fdbc 2c24 adbe
000002a0: 003b 52be e01c 7ebd dbba a0be 026e 13be
000002b0: af03 8f3d bbe2 2fbd 6573 1fbe 2553 35be
000002c0: e178 f4bd 12ae e3bc 0aff 0dbe 2843 45bd
000002d0: d042 aabe f6b2 8d3b 8581 d43d a7a0 42be
000002e0: 243c 363c 62c2 40be f6c7 27be 0e5d 313a
000002f0: a373 c3bd 4d1c e6bd e972 7d3b 1f00 bebe
00000300: c433 163e 1983 3e3d 2876 113c ee33 1fbd
00000310: c4b7 9abc 461c 1abe be19 ec3c ad6e 93bd
00000320: ffb9 04be 280a 1cbe 0dca c43c 2af6 ca3c
00000330: 92be 31be 441f a6bc b8cf 16bc fe65 703d
00000340: 8bef 483c 07b7 603d 34b9 9c3c 7d39 e13c
00000350: 123b d03d ce5e 36be 273e 24be 915a 0ebd
00000360: e157 063c 432d fabd bb98 3dbd 93ba 76bd
00000370: f1c9 e8bc ec46 02be 9336 2b3c 6d00 bd3c
00000380: 684f 16be 8606 71bd 9390 74bd 0e26 a3bc
00000390: 38bd 343e 5eab bfbc 5929 b5bd 1275 303e
000003a0: ba68 dcbd f053 c5bd 4907 53bd 2df8 1ebe
000003b0: 5945 3ebd 5957 14be 3757 41bd 95ee 44bd
000003c0: 331d 2fbd 2b70 29be 8d11 37be d97c 26bb
000003d0: 8b1a 413d 7a14 2fbe da5f 61bc 4ab8 1bbe
000003e0: 770a 8b3d 945b 663d 776d 0e3d 0c15 1bbe
000003f0: 4772 8d3c c686 ab3b 56c5 76bd 477e 393e

gnn1_layers.1.W2.weight f4 [64, 64]
-0.13398746 -0.045765836 0.00456271 -0.0062524634 -0.12967588 -0.07339922 -0.09646843 -0.15829708
-0.0097243525 -0.059410136 -0.03640664 -0.063834906 -0.07427525 -0.066336975 0.0034725715 -0.14976871
-0.033285152 0.0077311676 0.1355913 -0.14239983 0.18692926 -0.14682725 0.0041509583 0.017289022
-0.05774104 -0.048270285 -0.18063228 -0.12564856 -0.11006299 -0.17736056 0.036410335 0.16068844
-0.074663036 0.06120931 -0.17184015 -0.012747962 0.10308157 0.05750929 -0.11286555 -0.13941568
-0.11910656 0.03261506 -0.07068942 0.034735586 -0.15271649 -0.14652264 0.124590814 -0.033413526
-0.14389424 0.053122967 -0.12965415 -0.16400309 -0.0402746 -0.11292628 -0.11953982 -0.15292256
0.09436905 -0.019927157 0.022158364 -0.13105819 -0.07370984 0.053325698 -0.12703295 -0.037032824
-0.084090486 -0.17427199 -0.10578651 0.08420964 -0.041284747 -0.06881065 -0.010501207 -0.0017888416
0.016323397 0.07982264 0.023030337 0.026368186 0.027018812 -0.08182844 -0.060117763 -0.13238007
-0.187248 0.055271063 -0.03302806 -0.08971405 -0.060689095 -0.15983729 -0.035945572 0.070658505
-0.16577524 -0.0006293428 -0.16142361 -0.024232024 0.014011766 -0.114928484 0.0051766536 0.14147268
-0.1441914 -0.08980509 -0.16424975 0.01681881 -0.02285282 -0.11820386 0.020762056 0.058300123
0.002346245 -0.17984603 -0.051687513 0.055434544 0.0004891354 -0.10189278 0.14277115 -0.1663456
-0.029232081 0.044529047 0.008054772 -0.17097722 0.023499778 0.07060262 -0.0019284429 -0.098397024
-0.08249197 -0.04986279 -0.0855347 -0.12924354 -0.055524558 -0.021385666 -0.0055820267 -0.08433364
-0.50082475 -0.02953818 -0.044921767 -0.14728047 -0.084015615 -0.2673384 -0.039961327 -0.05329581
-0.06268815 -0.0491979 -0.11245439 -0.1022598 -0.14208406 0.062831834 -0.14625135 -0.13700822
-0.20694926 -0.10690778 -0.2832268 0.014090999 -0.06770051 -0.048589993 -0.10822009 0.08941554
-0.19355857 0.097137295 -0.12417092 0.052338257 -0.042309277 -0.031127037 -0.026219463 -0.00843268
-0.060196877 -0.17207433 0.0008268913 -0.1831483 -0.2719965 0.0020135602 0.06890294 -0.20806654
-0.22153376 -0.21650462 0.02508567 -0.054795388 -0.38289517 -0.22533555 -0.10196033 0.04500596
0.061018914 -0.02349724 -0.32919878 -0.12685825 -0.090413496 -0.03585215 -0.0003325718 0.05915403
-0.09066645 -0.08866263 0.04612645 -0.33508056 -0.19150439 -0.078596935 -0.015611439 -0.22046965
0.025510073 0.024522059 0.041086126 0.03807633 -0.17405863 -0.1417216 0.051876243 -0.06051115
-0.049517356 0.04495618 0.05316153 -0.09662764 -0.117842145 -0.0499305 -0.044238888 0.017034858
-0.015645918 -0.021103635 0.10109127 0.033011094 0.13449697 -0.07235018 -0.1472771 0.024231922
-0.07024614 -0.14960653 -0.080886856 0.0319199 -0.1175127 -0.072107926 -0.017882891 0.02983849
-0.07876309 -0.14984114 -0.1123089 -0.1004042 0.07369118 -0.14492926 0.05008549 0.09300957
-0.15010129 0.008207521 -0.05374691 0.062246133 -0.0625669 -0.061703496 -0.060585298 -0.16330378
-0.059617896 0.04602453 -0.13735521 -0.035581008 -0.1461984 -0.15693705 -0.106017455 -0.14373997
-0.1634732 -0.09842301 -0.077134155 0.002178523 -0.002584927 -0.061695803 -0.08860499 -0.026555926
00000000: 0234 09be f574 3bbd c982 953b 77e1 ccbb
00000010: c1c9 04be 5552 96bd 3d91 c5bd a118 22be
00000020: e452 1fbc 0b58 73bd 211f 15bd e0bb 82bd
00000030: 9f1d 98bd aedb 87bd 1594 633b f85c 19be
00000040: 0356 08bd bc55 fd3b 72d8 0a3e 43d1 11be
00000050: 626a 3f3e e259 16be c304 883b b5a1 8d3c
00000060: de81 6cbd 10b7 45bd abf7 38be 04aa 00be
00000070: b468 e1bd 029e 35be 0123 153d 838b 243e
00000080: efe8 98bd 9db6 7a3d ddf6 2fbe d4dc 50bc
00000090: 6e1c d33d dc8e 6b3d 0e26 e7bd fcc2 0ebe
000000a0: 24ee f3bd 5f97 053d 9dc5 90bd e746 0e3d
000000b0: b661 1cbe 080a 16be 7829 ff3d 9fdc 08bd
000000c0: 0359 13be 7897 593d 0fc4 04be 6df0 27be
000000d0: fbf6 24bd e545 e7bd 4bd1 f4bd bb97 1cbe
000000e0: 8f44 c13d 473e a3bc 7585 b53c 1e34 06be
000000f0: 2ff5 96bd 0c6c 5a3d ed14 02be bbaf 17bd
00000100: a237 acbd 5b74 32be 99a6 d8bd 1b76 ac3d
00000110: 321a 29bd 99ec 8cbd 410d 2cbc 9077 eaba
00000120: a5b8 853c 0d7a a33d 1eaa bc3c 1802 d83c
00000130: 8e56 dd3c ab95 a7bd 0b3e 76bd a48e 07be
00000140: f1bd 3fbe e963 623d 6e48 07bd 00bc b7bd
00000150: 2195 78bd 63ac 23be aa3b 13bd 68b5 903d
00000160: fcc0 29be 7bfa 24ba 3b4c 25be 3d82 c6bc
00000170: 9b91 653c a05f ebbd eba0 a93b 37de 103e
00000180: e9a6 13be bbeb b7bd 1631 28be 9ac7 893c
00000190: d635 bbbc de14 f2bd 3015 aa3c 1ccc 6e3d
000001a0: 76c3 193b 8f29 38be 49b6 53bd 550f 633d
000001b0: 5239 003a 29ad d0bd 9a32 123e 8056 2abe
000001c0: 1e78 efbc 1764 363d 2af8 033c a714 2fbe
000001d0: 9b82 c03c 1b98 903d cec3 fcba 6184 c9bd
000001e0: 8df1 a8bd ed3c 4cbd d12c afbd 6b58 04be
000001f0: b86d 63bd fe30 afbc 6fe9 b6bb 1eb7 acbd
00000200: 0d36 00bf 0efa f1bc e3ff 37bd b1d0 16be
00000210: 6110 acbd 94e0 88be 7dae 23bd b54c 5abd
00000220: a562 80bd bd83 49bd 7d4e e6bd 966d d1bd
00000230: 7c7e 11be faad 803d eac2 15be e24b 0cbe
00000240: 82ea 53be 77f2 dabd 1a03 91be efdd 663c
00000250: 91a6 8abd 4d06 47bd 7fa2 ddbd 7f1f b73d
00000260: 3834 46be ebef c63d 534d febd a460 563d
00000270: 7e4c 2dbd 21fe febc 33ca d6bc 3929 0abc
00000280: 0091 76bd 4134 30be bcc3 583a 3a8b 3bbe
00000290: 2043 8bbe eff5 033b fc1c 8d3d 650f 55be
000002a0: bfd9 62be 63b3 5dbe 7780 cd3c 2171 60bd
000002b0: d60a c4be 5dbe 66be 94d0 d0bd 2b58 383d
000002c0: f8ee 793d 497d c0bc be8c a8be 21e7 01be
000002d0: b62a b9bd b4d9 12bd 085d aeb9 7f4b 723d
000002e0: 55af b9bd c194 b5bd 17ef 3c3d ae8f abbe
000002f0: ba19 44be 6ef7 a0bd 1fc7 7fbc ccc2 61be
00000300: 80fa d03c 7ce2 c83c ed49 283d edf5 1b3d
00000310: 6d3c 32be 781f 11be 2f7c 543d 8ada 77bd
00000320: b6d2 4abd f923 383d e8bf 593d b6e4 c5bd
00000330: 3957 f1bd ed83 4cbd d633 35bd b08c 8b3c
00000340: de2b 80bc 88e1 acbc f108 cf3d a436 073d
00000350: 93b9 093e 552c 94bd cfcf 16be 0682 c63c
00000360: 35dd 8fbd 7432 19be 02a8 a5bd 71be 023d
00000370: 80aa f0bd 52ad 93bd 247f 92bc d96f f43c
00000380: 8b4e a1bd f56f 19be 3502 e6bd b8a0 cdbd
00000390: 67eb 963d 5668 14be 7126 4d3d cd7b be3d
000003a0: 27b4 19be d778 063c b825 5cbd cdf5 7e3d
000003b0: 1323 80bd cebc 7cbd 4a28 78bd 1b39 27be
000003c0: e531 74bd 3884 3c3d d8a6 0cbe 64bd 11bd
000003d0: 09b5 15be 1bb4 20be ae1f d9bd 9230 13be
000003e0: 8565 27be 0192 c9bd 83f8 9dbd 8dc5 0e3b
000003f0: e167 29bb bdb4 7cbd 8876 b5bd d08b d9bc

gnn1_layers.2.W1.weight f4 [64, 64]
-0.10519282 -0.06824571 0.0137452185 0.029503984 -0.17495103 -0.1570739 -0.16083765 -0.15820383
-0.059266 0.12917326 -0.027381152 0.05296147 -0.045015696 -0.0023822784 -0.11324078 0.051520064
0.060751773 -0.0007125288 -0.0374722 0.02314286 0.06364849 -0.060293548 -0.080618106 -0.06805818
-0.027733445 -0.0024287077 -0.16556163 -0.017295744 -0.028835597 0.05544606 -0.0014544268 0.027238896
-0.043317012 -0.1476379 0.07524237 -0.10517061 -0.04966169 -0.15275484 -0.1297985 0.0052164197
0.08202982 -0.016469225 0.029705768 0.039629627 0.04593495 0.086272836 0.13899785 -0.009023986
-0.14424992 0.1224933 -0.17902136 -0.14768045 -0.075537935 -0.093041204 0.0542908 -0.03417061
-0.1676345 0.12068839 0.057263628 0.0015921629 -0.18250279 0.009775794 -0.024389815 -0.07550838
-0.16477136 0.04584712 -0.037367374 -0.16116332 0.03642431 -0.011272377 -0.0232568 0.020734811
-0.016509106 -0.08726069 -0.08179133 0.043288987 -0.06415225 -0.10441092 -0.08637884 -0.15439142
-0.04810702 0.09140417 0.014721359 -0.02699257 -0.018394921 -0.11926284 0.056942895 -0.012380858
-0.13884096 -0.14332917 -0.17204003 -0.0956179 0.031373255 -0.05271608 -0.11929764 0.09485025
-0.1468213 -0.022794556 0.08534621 0.00072398403 -0.09811241 -0.102585316 -0.007949949 0.07484436
-0.030631527 -0.00028328598 -0.074152976 0.045364298 -0.17098144 -0.043081492 0.04711264 -0.12024951
0.03236866 0.0174976 -0.07906833 -0.12051851 0.004150163 -0.08172396 -0.0741625 0.06144683
-0.06992902 -0.019217893 -0.1447411 -0.039724506 -0.04273116 0.063210085 -0.09865402 0.010245272
0.006063044 0.06635971 0.0021909475 -0.02155222 0.048997357 -0.05567795 0.07574968 -0.10469693
-0.08960825 0.119090855 -0.04710357 -0.09939143 -0.091377676 0.12121223 -0.017482027 -0.10518466
-0.018018737 -0.060934305 -0.08384833 -0.061168432 0.09467815 0.05042161 0.073036045 0.010316864
-0.0522594 -0.05101651 -0.08389416 -0.090309605 -0.107775256 0.022207335 0.0655911 0.10200462
-0.0031744242 -0.018214166 -0.010390222 0.049249932 -0.019799247 -0.0439222 -0.034442157 -0.12210691
-0.09626526 -0.053505316 0.012110829 -0.07851118 0.047873154 -0.06836426 0.120938316 -0.1104697
0.06969991 -0.064901784 -0.0443217 -0.11671735 -0.11584918 -0.118297264 -0.0024008602 0.11513409
0.057314336 0.0782686 0.027988344 -0.048296258 -0.048681736 -0.03713201 -0.11678591 0.06870937
0.033641156 -0.009339137 -0.06436099 0.06005824 0.12803482 -0.013371229 0.07729832 -0.10003002
0.10833899 0.17384996 -0.010198907 -0.045303952 -0.15135963 0.12295954 -0.11703335 0.017397108
0.0499499 -0.16646479 0.053976078 0.07458618 0.1201937 0.0886581 0.09854449 0.13020857
-0.11367906 0.11178982 -0.08867806 0.068416074 0.089915805 0.010952413 0.14576407 0.03041321
0.14757225 -0.07841369 -0.12419762 0.113425225 0.1219472 0.15092126 0.10526396 -0.013875065
-0.020351538 0.0075237453 0.15469559 -0.033113785 0.16688189 0.04042053 -0.034705438 -0.13833229
0.073159195 0.08280622 0.09965652 -0.124517664 0.007329655 0.021189895 -0.09863065 0.11976271
0.1796501 -0.022505844 -0.05126698 0.096080355 -0.024238428 0.16330948 0.1769955 0.18040122
00000000: 556f d7bd 68c4 8bbd a033 613c 57b2 f13c
00000010: 5d26 33be fbd7 20be a0b2 24be 2f00 22be
00000020: e8c0 72bd ff45 043e 704e e0bc 20ee 583d
00000030: 6162 38bd 0020 1cbb c8ea e7bd b406 533d
00000040: dad6 783d 00c9 3aba 737c 19bd 1896 bd3c
00000050: 245a 823d 5ef6 76bd 1b1b a5bd 1662 8bbd
00000060: 4031 e3bc f42a 1fbb fd88 29be ceaf 8dbc
00000070: a138 ecbc 681b 633d 77a2 beba 1b24 df3c
00000080: 2e6d 31bd 642e 17be ac18 9a3d b063 d7bd
00000090: 0e6a 4bbd c46b 1cbe e6e9 04be 80ee aa3b
000000a0: 40ff a73d 78ea 86bc 8359 f33c ad52 223d
000000b0: 4926 3c3d d0af b03d 7455 0e3e 57d9 13bc
000000c0: 40b6 13be c4dd fa3d 6051 37be 8b39 17be
000000d0: a2b3 9abd 638c bebd 0860 5e3d 7bf6 0bbd
000000e0: 61a8 2bbe 7a2b f73d 448d 6a3d 1fb0 d03a
000000f0: 03e2 3abe a72a 203c 26cd c7bc 23a4 9abd
00000100: d3b9 28be 31ca 3b3d 880e 19bd ff07 25be
00000110: a831 153d c7af 38bc 0b85 bebc 0ddc a93c
00000120: 1b3e 87bc bcb5 b2bd 3682 a7bd cb4f 313d
00000130: 4162 83bd 64d5 d5bd 64e7 b0bd c918 1ebe
00000140: de0b 45bd 1c32 bb3d db31 713c 861f ddbc
00000150: f2b0 96bc 1340 f4bd f43c 693d 15d9 4abc
00000160: 532c 0ebe e2c4 12be 432b 30be 51d3 c3bd
00000170: 3e81 003d d1ec 57bd 5252 f4bd d940 c23d
00000180: 5358 16be a6bb babc fec9 ae3d bfc9 3d3a
00000190: 29ef c8bd 4018 d2bd 8140 02bc 0048 993d
000001a0: f8ee fabc 0086 94b9 84dd 97bd eacf 393d
000001b0: c215 2fbe 3876 30bd 2ff9 403d 6045 f6bd
000001c0: 0095 043d 2057 8f3c 94ee a1bd 69d2 f6bd
000001d0: 17fe 873b e45e a7bd 82e2 97bd acaf 7b3d
000001e0: f236 8fbd d86e 9dbc 0337 14be 2ab6 22bd
000001f0: de06 2fbd 4a74 813d 1e0b cabd c9db 273c
00000200: 80ac c63b 9ae7 873d 0096 0f3b 488e b0bc
00000210: 74b1 483d 900e 64bd a622 9b3d 586b d6bd
00000220: 8884 b7bd e8e5 f33d acef 40bd bc8d cbbd
00000230: 3824 bbbd 1e3e f83d 7836 8fbc 0e6b d7bd
00000240: 089c 93bc 4096 79bd acb8 abbd c08b 7abd
00000250: 9ee6 c13d e486 4e3d ec93 953d 1008 293c
00000260: f40d 56bd b0f6 50bd b4d0 abbd 3ef4 b8bd
00000270: 46b9 dcbd 28ec b53c a054 863d cce7 d03d
00000280: 000a 50bb e035 95bc c03b 2abc 4cba 493d
00000290: 0832 a2bc c4e7 33bd 3813 0dbd 3013 fabd
000002a0: b826 c5bd 6428 5bbd 806c 463c 78ca a0bd
000002b0: a416 443d 9002 8cbd 82ae f73d f03d e2bd
000002c0: d4be 8e3d 3aeb 84bd ac8a 35bd 8209 efbd
000002d0: 5642 edbd d645 f2bd c057 1dbb 6ccb eb3d
000002e0: 70c2 6a3d 4a4b a03d d047 e53c 4cd2 45bd
000002f0: 8066 47bd bc17 18bd 742d efbd 80b7 8c3d
00000300: 4fcb 093d 2e03 19bc b2cf 83bd a1ff 753d
00000310: 8f1b 033e 0013 5bbc 954e 9e3d 8adc ccbd
00000320: d5e0 dd3d b905 323e 5119 27bc a390 39bd
00000330: 05fe 1abe 36d2 fb3d 2eaf efbd 6184 8e3c
00000340: 4498 4c3d bf75 2abe 0516 5d3d a4c0 983d
00000350: 1d28 f63d 6192 b53d b2d1 c93d 6555 053e
00000360: 91d0 e8bd 10f2 e43d d89c b5bd ba1d 8c3d
00000370: c725 b83d c071 333c 2d43 153e 2025 f93c
00000380: 2e1d 173e 5b97 a0bd 525b febd 7c4b e83d
00000390: 74bf f93d 1a8b 1a3e a294 d73d 3e54 63bc
000003a0: 45b8 a6bc c089 f63b 8568 1e3e 52a2 07bd
000003b0: 16e3 2a3e ff8f 253d 4a27 0ebd fba6 0dbe
000003c0: 7dd4 953d 4f96 a93d b818 cc3d 1e03 ffbd
000003d0: 9a2d f03b 6e96 ad3c defe c9bd 2746 f53d
000003e0: 32f6 373e 2d5e b8bc 53fd 51bd c7c5 c43d
000003f0: ab8f c6bc 9a3a 273e 4f3e 353e 19bb 383e

gnn1_layers.2.W2.weight f4 [64, 64]
-0.0285983 -0.08499876 -0.09182678 -0.1756265 -0.05466444 -0.15205152 -0.13646528 -0.029934427
-0.0523473 0.0032804117 -0.04067672 0.06297131 -0.10832314 -0.044579774 0.02207245 -0.029478902
-0.016851265 0.08512543 -0.068410516 0.04152535 -0.13198456 -0.07599494 0.032541014 -0.12109293
-0.14228088 -0.16810831 0.043950487 -0.07416749 0.054429036 -0.06737284 -0.09404602 0.020402107
-0.18455233 -0.1818766 -0.083708376 0.002126813 -0.05497855 -0.036910772 0.045659475 -0.025336504
-0.022008896 -0.11000717 -0.086478174 -0.04970703 -0.034466743 -0.041162923 -0.016333248 -0.12554324
0.026134845 -0.0680017 -0.050336987 -0.08202613 -0.050262466 -0.06545443 0.09448458 0.03459061
-0.08616505 -0.025142044 -0.13007511 -0.11819565 -0.08140771 0.032698635 -0.04224733 -0.16704014
-0.09218649 -0.16804136 0.11551593 -0.048482127 -0.09178164 -0.009931856 -0.177237 -0.101321876
-0.048329055 0.03014278 0.04190402 -0.06423342 -0.18500738 0.023091555 -0.07049276 0.052687764
-0.09371273 -0.03401856 -0.07862009 0.055803936 -0.005239832 -0.14625716 -0.038150087 -0.020309307
-0.09252218 -0.018558517 -0.17225772 -0.12449168 0.01979956 0.116126895 -0.020348713 -0.010762543
-0.0145000955 -0.13205165 -0.100158155 -0.14253445 -0.07190233 -0.033511072 -0.050747953 0.060083397
-0.008869231 0.114990145 -0.15295301 -0.004296016 -0.042916823 0.13455643 -0.02295248 0.06252578
-0.12668714 0.056926876 -0.02014521 -0.027050434 -0.0032047331 -0.1500266 0.06686987 -0.032943033
0.026111916 0.03193381 -0.16621982 0.05573906 -0.08883909 -0.14379886 0.049044866 -0.07982386
0.020596564 0.01876223 -0.06723796 0.079267815 0.047398552 0.100685716 -0.034741074 -0.09171954
0.024483547 -0.033586174 6.453693e-05 -0.10166514 0.11210576 -0.06574094 -0.011293337 0.0031717718
-0.05430363 0.07426736 -0.1018523 -0.016814306 -0.08094984 0.0741241 -0.09100008 0.098965436
-0.10811336 -0.12493031 0.0030484796 -0.12305787 0.11643936 0.11676276 -0.05708222 0.09343475
-0.048073873 0.030578807 -0.08761354 -0.008462384 -0.038166225 0.028043002 0.040184125 -0.11667405
0.008446261 0.09679483 0.10070163 0.05659525 0.0028944463 0.085761026 0.06633304 -0.082222626
-0.007130459 -0.11579968 0.008801252 0.009492502 -0.08229487 0.029852524 0.08644253 -0.10636097
-0.111349136 -0.06108354 0.016197339 -0.12132107 -0.024876982 0.09597708 -0.10316849 -0.03338948
0.05003169 0.13804169 -0.14065595 0.15494753 -0.0025947334 0.11875797 -0.070001714 0.0577344
0.000116545554 0.01309006 0.10817345 -0.03896891 0.0009399071 0.062132582 -0.010856152 0.17477311
-0.15350193 -0.09051453 -0.12962608 0.113090344 0.20141171 -0.056653813 0.025895953 -0.03251242
-0.07672488 0.11717369 -0.03358448 -0.14764759 -0.092612445 -0.021812685 0.08852283 -0.0547286
-0.01696825 -0.14321604 0.049778037 0.15261967 0.0009096363 0.06348902 0.04916334 -8.0752194e-05
0.0059976107 -0.08407913 0.04287656 -0.0017797768 -0.0480003 0.018053232 0.14262508 -0.0027618264
-0.05593159 -0.06909926 -0.0025500392 -0.12732463 -0.19537266 -0.05216342 0.024851978 -0.036479384
0.18323132 -0.029259326 -0.05170694 0.018143563 0.13605618 0.028568447 0.10005195 0.10026743
00000000: fb46 eabc d413 aebd ae0f bcbd 6fd7 33be
00000010: d2e7 5fbd 65b3 1bbe 8ebd 0bbe 0b39 f5bc
00000020: 1f6a 56bd 2dfc 563b a29c 26bd 1af7 803d
00000030: 86d8 ddbd 4899 36bd 48d1 b43c bd7d f1bc
00000040: aa0b 8abc 3e56 ae3d d01a 8cbd 7c16 2a3d
00000050: f626 07be 3ca3 9bbd ba49 053d 92ff f7bd
00000060: 14b2 11be 9624 2cbe 6d05 343d 20e5 97bd
00000070: fbf0 5e3d c6fa 89bd 339b c0bd 5222 a73c
00000080: 49fb 3cbe dc3d 3abe 4c6f abbd 0062 0b3b
00000090: 3031 61bd c02f 17bd 6e05 3b3d 808e cfbc
000000a0: 004c b4bc 704b e1bd 781b b1bd 9999 4bbd
000000b0: 002d 0dbd 749a 28bd 4ecd 85bc 688e 00be
000000c0: be18 d63c 7a44 8bbd 282e 4ebd 51fd a7bd
000000d0: 04e0 4dbd f90c 86bd 2281 c13d e2ae 0d3d
000000e0: 4d77 b0bd b0f6 cdbc 6932 05be 9010 f2bd
000000f0: 16b9 a6bd 01ef 053d 890b 2dbd 920c 2bbe
00000100: 45cc bcbd 0913 2cbe 9e93 ec3d 3295 46bd
00000110: 03f8 bbbd 39b9 22bc 9e7d 35be d881 cfbd
00000120: b0f4 45bd feed f63c 8da3 2b3d d08c 83bd
00000130: 9372 3dbe 802a bd3c 825e 90bd 20cf 573d
00000140: 76ec bfbd 0c57 0bbd 9203 a1bd ab92 643d
00000150: e6b2 abbb 70c4 15be 4443 1cbd b45f a6bc
00000160: 457c bdbd 0808 98bc 5464 30be 7ef5 febd
00000170: b032 a23c f0d3 ed3d 58b2 a6bc 6155 30bc
00000180: cf91 6dbc 8c38 07be b81f cdbd 8df4 11be
00000190: 8741 93bd e842 09bd 16dd 4fbd 021a 763d
000001a0: 4050 11bc f47f eb3d b79f 1cbe 98c5 8cbb
000001b0: 8dc9 2fbd 29c9 093e d706 bcbc 840d 803d
000001c0: 46ba 01be 282c 693d 9107 a5bc df98 ddbc
000001d0: 8006 52bb 93a0 19be 12f3 883d 46ef 06bd
000001e0: a8e8 d53c 07cd 023d 8735 2abe a44e 643d
000001f0: 45f1 b5bd 0240 13be 45e3 483d b17a a3bd
00000200: 20ba a83c 40b3 993c 0eb4 89bd 2a57 a23d
00000210: fc24 423d 5034 ce3d a84c 0ebd 74d7 bbbd
00000220: b891 c83c a891 09bd 0058 8738 d035 d0bd
00000230: b497 e53d 30a3 86bd b007 39bc 80dd 4f3b
00000240: 7c6d 5ebd 7c19 983d f097 d0bd 28be 89bc
00000250: 08c9 a5bd 60ce 973d 405e babd 64ae ca3d
00000260: 8a6a ddbd 76db ffbd 00c9 473b c405 fcbd
00000270: c277 ee3d 5021 ef3d 0ccf 69bd b85a bf3d
00000280: 1ce9 44bd 6880 fa3c ba6e b3bd d0a5 0abc
00000290: 3054 1cbd 70ba e53c 1c98 243d cef2 eebd
000002a0: 3062 0a3c 5e3c c63d a83c ce3d 6cd0 673d
000002b0: c0b0 3d3b 7aa3 af3d 9ed9 873d 5664 a8bd
000002c0: a0a6 e9bb 6228 edbd 2033 103c 7086 1b3c
000002d0: 368a a8bd 488d f43c c808 b13d c8d3 d9bd
000002e0: 040b e4bd bc32 7abd 48b0 843c 2e77 f8bd
000002f0: d0ca cbbc a28f c43d 004a d3bd 68c3 08bd
00000300: 08ee 4c3d cd5a 0d3e 1d08 10be 91aa 1e3e
00000310: 670c 2abb 6137 f33d 0f5d 8fbd e87a 6c3d
00000320: eb69 f438 b177 563c 0b8a dd3d dd9d 1fbd
00000330: 1964 763a bc7e 7e3d 00de 31bc b9f7 323e
00000340: 9c2f 1dbe af5f b9bd b3bc 04be e99b e73d
00000350: df3e 4e3e d40d 68bd c023 d43c be2b 05bd
00000360: ef21 9dbd c2f8 ef3d e18f 09bd ee30 17be
00000370: 98ab bdbd 84b0 b2bc 754b b53d 192b 60bd
00000380: 0001 8bbc 3aa7 12be 0ee4 4b3d 5548 1c3e
00000390: a974 6e3a 8806 823d 805f 493d 8159 a9b8
000003a0: 9b87 c43b ae31 acbd 559f 2f3d 6647 e9ba
000003b0: f69b 44bd 5fe4 933c 4f0c 123e c2ff 34bb
000003c0: 8618 65bd ea83 8dbd 8f1e 27bb 6361 02be
000003d0: c50f 48be 4fa9 55bd 6096 cb3c 686b 15bd
000003e0: fea0 3b3e 41b1 efbc a8ca 53bd cfa1 943c
000003f0: 5052 0b3e 6008 ea3c 09e8 cc3d 0359 cd3d

gnn2_layers.0.W1.weight f4 [64, 129]
-0.04916243 -0.010746444 -0.06869043 0.03547686 -0.15183304 -0.12684786 0.05612543 0.013208349
0.013825071 0.02717888 -0.07298745 -0.10707912 0.020018734 -0.07113617 -0.086939596 -0.0023175948
-0.10261124 -0.023211792 0.037407488 0.11842116 0.014783089 -0.07297665 0.11892676 -0.11053888
-0.07563697 -0.09798022 -0.01967686 -0.04546025 -0.06524346 -0.036360614 -0.063464716 0.007220336
-0.109801166 -0.030670837 -0.0642812 -0.035295714 -0.012859517 0.036255818 0.21985196 -0.02595431
-0.12731306 -0.11185366 0.020783423 -0.010313234 0.006510309 -0.086869195 0.03946037 0.0028044262
-0.050347865 -0.019060487 0.073180586 0.013946163 -0.045459982 -0.03520162 -0.037759475 0.005135494
-0.0883987 0.015397859 -0.0018261595 -0.13901952 0.05126683 -0.1332153 -0.12388285 0.08945545
0.079279214 -0.01743767 0.04089132 0.058149293 0.07728595 -0.14126109 0.10247097 0.03219782
-0.08650451 -0.11139426 0.08644793 -0.079554655 0.009560682 -0.07827708 -0.047773037 0.018215679
-0.14374918 -0.022815697 -0.14401135 0.035734594 0.0073690787 -0.22674377 0.040313818 -0.14044143
-0.03285925 0.0027703382 -0.055344656 -0.011401045 0.08798041 0.07610051 0.0046165194 -0.03929888
0.05238545 -0.028109627 -0.24540061 0.029404134 0.019441724 -0.043891266 0.1565908 0.03605938
-0.11480056 0.015626192 0.14088234 -0.06834755 -0.031102749 -0.0053061247 -0.044773385 -0.07849208
-0.06033983 -0.089540504 0.07808751 -0.008323448 -0.024481572 -0.01498852 0.0692566 -0.067489915
-0.17137693 0.018147372 -0.0006644001 -0.09934887 0.09385912 -0.13977978 -0.07300417 -0.009608743
0.27987915 0.041671112 0.043267738 -0.08543243 -0.038485687 0.0040974338 -0.117645934 -0.15180407
0.06074965 -0.014041792 0.07919236 0.02354574 0.03420002 0.04974684 0.09899868 -0.116417155
-0.12982534 0.004756765 -0.08604588 0.012748145 -0.03466401 -0.08226806 -0.008416688 -0.00611683
0.08690378 0.08559239 0.1166569 0.13043709 0.02360502 -0.06729786 -0.069817655 0.07919254
0.105755046 -0.04542437 -0.069870174 0.074978985 -0.109477416 -0.13847898 -0.015188023 0.07504753
-0.08313895 0.094760165 0.08778657 -0.03359514 0.07928284 -0.05143772 -0.048481885 -0.06648532
-0.017030057 -0.08729353 0.092091486 0.06378544 0.115624875 0.13117303 -0.15301976 -0.03414194
0.047171563 0.055827282 0.08960338 0.011041059 0.107117094 -0.11909696 0.042484373 -0.010178611
-0.02535057 0.11627471 0.10557605 -0.06351538 0.008904342 -0.06819139 -0.087470815 0.024915291
0.025060188 0.06838113 0.088024326 -0.024465203 -0.019338815 0.050272226 0.124345824 -0.091133736
-0.10363619 0.06114419 0.0060212687 0.01489412 -0.12219794 0.0018635136 -0.050197393 0.0051525235
0.026969224 0.07633512 -0.06180992 0.0302681 0.00067072257 -0.008369291 -0.070517994 0.04192507
0.03374171 0.12643766 -0.13859001 0.014729532 -0.15119764 -0.08203782 -0.075889125 -0.057430465
-0.018049296 0.06450173 0.06856366 -0.06647581 -0.017036201 -0.07720793 0.068763465 -0.01570775
0.03310545 -0.10988716 0.07967246 0.11858598 0.07463837 0.122317605 -0.061877277 -0.038657818
0.0643956 -0.024618527 0.116264544 0.013132174 0.021724405 -0.06625548 -0.06795798 0.0030051859
00000000: 8b5e 49bd da11 30bc 91ad 8cbd 2f50 113d
00000010: 1f7a 1bbe 68e4 01be c7e3 653d d567 583c
00000020: 8d82 623c 3ea6 de3c 727a 95bd 4c4c dbbd
00000030: 54fe a33c d7af 91bd 630d b2bd cae2 17bb
00000040: d825 d2bd a826 bebc 9838 193d cb86 f23d
00000050: c534 723c c874 95bd e08f f33d 3562 e2bd
00000060: 8ee7 9abd dba9 c8bd 5e31 a1bc 8734 3abd
00000070: 5d9e 85bd deee 14bd caf9 81bd 9198 ec3b
00000080: 6fdf e0bd 6841 fbbc dda5 83bd 3d92 10bd
00000090: b9b0 52bc fb80 143d df20 613e 229e d4bc
000000a0: 5b5e 02be 8813 e5bd ff41 aa3c d7f8 28bc
000000b0: 6e54 d53b 7ae8 b1bd 32a1 213d 77ca 373b
000000c0: 9039 4ebd bd24 9cbc b4df 953d 727e 643c
000000d0: 3f34 3abd 932f 10bd aea9 1abd a547 a83b
000000e0: 610a b5bd 4d47 7c3c bf5b efba 225b 0ebe
000000f0: 2bfd 513d 9769 08be 4bb6 fdbd 6b34 b73d
00000100: 245d a23d 72d9 8ebc a87d 273d f42d 6e3d
00000110: 1948 9e3d bfa6 10be 4ddc d13d dce1 033d
00000120: 4729 b1bd ac22 e4bd 9d0b b13d 8ded a2bd
00000130: 68a4 1c3c bc4f a0bd a9ad 43bd 0c39 953c
00000140: fc32 13be fce7 babc b677 13be 705e 123d
00000150: 5078 f13b 852f 68be 1a20 253d e1cf 0fbe
00000160: 6c97 06bd 908e 353b 14b1 62bd 73cb 3abc
00000170: 132f b43d 96da 9b3d 2c46 973b ddf7 20bd
00000180: 2092 563d 2946 e6bc 4c4a 7bbe f0e0 f03c
00000190: 4044 9f3c 54c7 33bd 5759 203e 00b3 133d
000001a0: 8e1c ebbd 8002 803c 7643 103e cdf9 8bbd
000001b0: 31cb febc 00df adbb 4c64 37bd 75c0 a0bd
000001c0: e626 77bd 0361 b7bd 58ec 9f3d 125f 08bc
000001d0: 948d c8bc 6992 75bc 68d6 8d3d 2738 8abd
000001e0: 6f7d 2fbe cca9 943c 232b 2eba 6c77 cbbd
000001f0: 3639 c03d 6e22 0fbe 3683 95bd fd6d 1dbc
00000200: 524c 8f3e 54af 2a3d 8339 313d 33f7 aebd
00000210: 2ba3 1dbd c443 863b 5af0 f0bd 8772 1bbe
00000220: a0d4 783d 8b0f 66bc 9b2f a23d ffe2 c03c
00000230: 5215 0c3d 58c3 4b3d d2bf ca3d 1e6c eebd
00000240: eff0 04be a3de 9b3b d338 b0bd 98dd 503c
00000250: d9fb 0dbd 287c a8bd 26e6 09bc b06f c8bb
00000260: 9cfa b13d 104b af3d d0e9 ee3d 4d91 053e
00000270: 515f c13c 76d3 89bd 8ffc 8ebd b32f a23d
00000280: 1a96 d83d e70e 3abd 1818 8fbd 958e 993d
00000290: b235 e0bd 6fcd 0dbe 30d7 78bc 85b2 993d
000002a0: c144 aabd 9e11 c23d 72c9 b33d 0f9b 09bd
000002b0: 0b5f a23d 5cb0 52bd f194 46bd 7529 88bd
000002c0: 9e82 8bbc f3c6 b2bd 769a bc3d f1a1 823d
000002d0: bccc ec3d 3952 063e 36b1 1cbe 6bd8 0bbd
000002e0: f836 413d 26ab 643d fa81 b73d 8fe5 343c
000002f0: 3560 db3d 1be9 f3bd 1804 2e3d 30c4 26bc
00000300: 00ac cfbc 6f21 ee3d 4238 d83d 5a14 82bd
00000310: 84e3 113c eda7 8bbd e623 b3bd 271b cc3c
00000320: 064b cd3c 680b 8c3d 1946 b43d 406b c8bc
00000330: 6f6c 9ebc 40ea 4d3d 06a9 fe3d 53a4 babd
00000340: 363f d4bd 5572 7a3d 104e c53b 7806 743c
00000350: ea42 fabd 2441 f43a c89b 4dbd 80d6 a83b
00000360: 90ee dc3c 9655 9c3d 662c 7dbd cef4 f73c
00000370: 6ed3 2f3a 5a1f 09bc bd6b 90bd 9fb9 2b3d
00000380: bf34 0a3d e078 013e 8aea 0dbe 2354 713c
00000390: 8ed3 1abe 7203 a8bd c26b 9bbd 353c 6bbd
000003a0: 1edc 93bc 7c19 843d 1b6b 8c3d 7824 88bd
000003b0: 818f 8bbc 311f 9ebd dcd3 8c3d 8aad 80bc
000003c0: 9599 073d 850c e1bd 512b a33d 35dd f23d
000003d0: 00dc 983d a781 fa3d 0773 7dbd a957 1ebd
000003e0: d7e1 833d cbac c9bc 1b1c ee3d 5428 573c
000003f0: 61f7 b13c f4b0 87bd 8e2d 8bbd a7f2 443b

gnn2_layers.0.W2.weight f4 [64, 129]
0.0845366 -0.12291494 0.08204277 0.06615072 -0.016179597 -0.061320484 0.004572439 -0.0037389963
-0.079463914 -0.13614574 0.11631461 -0.01624968 -0.08723343 -0.017151548 -0.09808281 0.012949763
0.018049708 -0.042843796 0.056210697 0.11544564 -0.040515274 -0.056333426 0.11398595 -0.096883714
-0.05766713 -0.08871595 0.010829133 -0.08416981 0.044546377 -0.050560035 -0.102312714 -0.040218808
0.009294769 0.11424652 -0.059994146 0.008087479 0.050924454 0.027514065 0.11709353 0.027912468
0.046007104 -0.049181323 0.013619788 -0.135452 -0.025564885 -0.05843116 0.010491313 -0.0615295
0.0010431984 0.015451698 0.0058414564 -0.046563413 -0.09945125 -0.013563165 -0.04079818 -0.041138425
-0.047569394 0.0175345 -0.0073170885 -0.056901146 -0.016517255 0.00091954885 -0.13648824 0.023174187
0.030981384 -0.14626528 0.06791057 0.026160529 0.10230816 -0.07225044 0.0064105764 0.075604044
-0.1167974 -0.12230338 0.026988804 -0.0061017456 0.029051222 0.0089213485 -0.053625632 0.04572183
-0.019667754 0.038729526 -0.12547104 -0.01941491 -0.024381552 -0.23175976 0.06421478 -0.036255494
-0.043447293 -0.13824657 -0.068844154 -0.12013869 0.094583474 0.01735859 -0.080424994 0.004277998
-0.0147762 0.05050299 -0.307963 0.038327053 0.0626217 -0.04332846 0.18866315 0.04307219
0.019504203 -0.063012615 0.04956955 0.019977449 0.033335723 -0.049836427 -0.01712204 0.078626275
-0.08116681 -0.08941253 -0.063060686 -0.032929007 -0.017355211 0.15216407 0.0060267276 -0.03431974
-0.18253432 -0.12066298 -0.13168725 -0.06405667 0.037006486 -0.025289346 0.086239934 -0.008983657
0.025160542 0.10889942 -0.021834688 0.08450729 -0.1434509 0.06032583 -0.10953304 -0.0007664384
0.045771867 0.10164632 0.08779663 -0.09746846 0.06449508 0.023330197 0.08707097 -0.07224956
-9.5406314e-05 0.046736654 -0.054233927 0.04171537 0.01107426 0.0006749636 -0.004353695 -0.0011561662
0.081203215 -0.0017581582 0.0767651 -0.021612637 0.10846772 -0.094235264 -0.025434166 0.036284797
-0.024731848 0.09478971 -0.040770642 0.052072324 0.023672394 0.014071458 -0.038060483 0.039676405
-0.09336924 -0.007385362 -0.019337764 -0.09427869 0.007952551 -0.0595744 -0.07065941 0.0584533
0.034267034 -0.0519268 -0.04577399 0.051620483 0.0044543594 0.08753169 -0.005367005 0.06730599
-0.009473128 0.09784632 0.12424161 0.13235113 0.09609823 -0.14834955 0.09664222 0.085366115
0.0613091 0.088722326 0.08434587 0.0068070665 0.009896444 0.020918347 0.05769073 -0.12674981
0.050783716 0.13032764 0.0143697 -0.14196251 0.10618834 0.010025382 0.13218278 -0.06646434
-0.011114504 -0.021110833 -0.026963964 -0.08364926 -0.052171323 -0.00026459325 -0.11775913 0.058291256
-0.01745956 0.05938369 -0.056274332 -0.008477365 0.01532818 -0.03836698 -0.11028959 0.08816493
-0.03922929 0.05296329 -0.091127284 0.043647394 -0.122203946 0.023471564 0.08114259 -0.14188871
-0.06708633 -0.012080515 -0.014586468 -0.074367516 0.10673831 -0.1423431 0.0007912539 0.052651037
0.06718564 -0.015554717 0.044033326 0.103523605 0.10023004 -0.01849552 -0.045200437 -0.034394644
-0.04579321 0.12840678 0.03229577 0.07129706 0.015648883 -0.0049102353 0.020309212 0.02672413
00000000: 8621 ad3d d4ba fbbd 0a06 a83d 077a 873d
00000010: 138b 84bc 302b 7bbd 66d4 953b f309 75bb
00000020: fabd a2bd ca69 0bbe 5b36 ee3d 0d1e 85bc
00000030: 71a7 b2bd 6781 8cbc a4df c8bd 3e2b 543c
00000040: fbdc 933c fa7c 2fbd 303d 663d c46e ec3d
00000050: 58f3 25bd e1bd 66bd 7771 e93d f86a c6bd
00000060: 5e34 6cbd b5b0 b5bd ad6c 313c 3961 acbd
00000070: 4376 363d 0a18 4fbd 5489 d1bd 7abc 24bd
00000080: 1649 183c 14fa e93d 6cbc 75bd 5881 043c
00000090: 2996 503d 2d65 e13c bcce ef3d b0a8 e43c
000000a0: f271 3c3d 5b72 49bd 8825 5f3c eeb3 0abe
000000b0: 736d d1bc 8355 6fbd c2e3 2b3c 5b06 7cbd
000000c0: eebb 883a 1e29 7d3c b069 bf3b 47b9 3ebd
000000d0: 19ad cbbd 0a38 5ebc fe1b 27bd c480 28bd
000000e0: 20d8 42bd 83a4 8f3c 30c4 efbb 2d11 69bd
000000f0: 324f 87bc e10d 713a 93c3 0bbe cbd7 bd3c
00000100: accc fd3c 91c6 15be b214 8b3d 9b4e d63c
00000110: f186 d13d 0af8 93bd d00f d23b 4bd6 9a3d
00000120: 7a33 efbd 327a fabd a017 dd3c 27f1 c7bb
00000130: d4fc ed3c d92a 123c 8da6 5bbd d046 3b3d
00000140: 451e a1bc daa2 1e3d 7b7b 00be 040c 9fbc
00000150: d2bb c7bc 6e52 6dbe 0a83 833d a480 14bd
00000160: caf5 31bd 8290 0dbe 2afe 8cbd 460b f6bd
00000170: fbb4 c13d 9a33 8e3c dcb5 a4bd 732e 8c3b
00000180: e017 72bc 39dc 4e3d 54ad 9dbe d4fc 1c3d
00000190: ce3f 803d 2f79 31bd ea30 413e 776c 303d
000001a0: 47c7 9f3c c20c 81bd 7109 4b3d bfa7 a33c
000001b0: 0a8b 083d 4821 4cbd 8543 8cbc d006 a13d
000001c0: c93a a6bd eb1d b7bd f625 81bd 91e0 06bd
000001d0: 842c 8ebc e6d0 1b3e db7b c53b db92 0cbd
000001e0: 47ea 3abe 271e f7bd 06d9 06be 2530 83bd
000001f0: 1d94 173d 9a2b cfbc 909e b03d 3030 13bc
00000200: 7b1d ce3c a906 df3d a9de b2bc 2812 ad3d
00000210: cbe4 12be 3818 773d dc52 e0bd cfea 48ba
00000220: 487b 3b3d f22b d03d b8ce b33d 8b9d c7bd
00000230: ff15 843d f81e bf3c 4452 b23d 94f7 93bd
00000240: e014 c8b8 ef6e 3f3d 6524 5ebd bcdd 2a3d
00000250: d070 353c 0af0 303a 71a9 8ebb 808a 97ba
00000260: df4d a63d 0072 e6ba 0537 9d3d fc0c b1bc
00000270: 5324 de3d 6bfe c0bd 505b d0bc 5e9f 143d
00000280: 729a cabc 1c21 c23d 1eff 26bd ca49 553d
00000290: 9cec c13c f98b 663c 4fe5 1bbd ba83 223d
000002a0: 5f38 bfbd e800 f2bb 3b6a 9ebc 3015 c1bd
000002b0: 6b4b 023c 4904 74bd e1b5 90bd ba6c 6f3d
000002c0: 975b 0c3d 32b1 54bd 827d 3bbd 0070 533d
000002d0: e0f5 913b d143 b33d b3dd afbb b9d7 893d
000002e0: 2e35 1bbc a763 c83d 6372 fe3d 0e87 073e
000002f0: 26cf c43d f2e8 17be 5bec c53d 6ed4 ae3d
00000300: 401f 7b3d 0db4 b53d 87bd ac3d d00d df3b
00000310: b224 223c f45c ab3c 1d4d 6c3d b4ca 01be
00000320: 9602 503d 9c74 053e e46e 6b3c 9f5e 11be
00000330: 4679 d93d 8041 243c ec5a 073e 751e 88bd
00000340: 9c19 36bc a0f0 acbc 88e3 dcbc 4e50 abbd
00000350: 99b1 55bd 1bb9 8ab9 b32b f1bd d0c2 6e3d
00000360: 5a07 8fbc 503c 733d ea7f 66bd a5e4 0abc
00000370: 0c23 7b3c b226 1dbd 82df e1bd d18f b43d
00000380: e4ae 20bd 09f0 583d f1a0 babd 9cc7 323d
00000390: 1046 fabd 7047 c03c 162e a63d 464b 11be
000003a0: 8f64 89bd 5aed 45bc 15fc 6ebc ff4d 98bd
000003b0: 9d99 da3d 64c2 11be 266c 4f3a 9da8 573d
000003c0: a098 893d 36d9 7ebc 4a5c 343d 2f04 d43d
000003d0: 6845 cd3d eb83 97bc 1824 39bd 66e1 0cbd
000003e0: a991 3bbd 117d 033e 9248 043d 3104 923d
000003f0: 1632 803c 0ae6 a0bb 815f a63c 90ec da3c
