kgnn_interpretation/old_claude2/trained_3gnn.pt (torch, 66492 bytes, 8 tensors)

layers.0.W1.weight f4 [64, 25]
0	0xbddcf783	-0.107893966
1	0xbe45bd92	-0.19310597
2	0xbdaa9b29	-0.08330376
3	0xbdc37fdb	-0.09545871
4	0xbd741f58	-0.059600204
5	0x3d81b98c	0.063342184
6	0x3df32566	0.118723676
7	0xbdb3f201	-0.08786393
8	0xbde0586b	-0.109543644
9	0xbd81cea7	-0.06338244
10	0xbdae5ab6	-0.085133955
11	0x3d44f1e8	0.048082262
12	0xbc9bb5f1	-0.019007655
13	0xbe70726e	-0.23481151
14	0xbdc56410	-0.09638226
15	0x3d8e55de	0.069499716
16	0x3ca6644b	0.020311495
17	0xbcf1a9bb	-0.02949988
18	0xbe3465e9	-0.17617
19	0xbe4562dc	-0.19275993
20	0xbe0b7e79	-0.13622464
21	0xbe042998	-0.12906492
22	0xbd530f16	-0.05152806
23	0xbbe07efc	-0.006851075
24	0x3dbd1c7a	0.09233947
25	0xbe673008	-0.22576916
26	0xbe1caf8a	-0.15301338
27	0x3cef4821	0.029209198
28	0x3dda611e	0.10663055
29	0x3ced01c0	0.028931499
30	0xbde4628a	-0.11151607
31	0x3da97532	0.08274306
32	0xbdefb54c	-0.117045015
33	0xbe4986bb	-0.19680302
34	0x3d8437a6	0.064559266
35	0xbdcc7a46	-0.09984259
36	0xbd2438ec	-0.040093347
37	0xbe919b91	-0.28439
38	0x3e09110f	0.13385414
39	0x3dfe3fcf	0.12414514
40	0xbce2363b	-0.02761375
41	0xbe630927	-0.2217146
42	0xbe79ef3b	-0.24407665
43	0xbdf2bc98	-0.11852378
44	0x3d9a3e54	0.075314194
45	0x3db7e64d	0.08979473
46	0x3e04f9a4	0.12985855
47	0x3d4ae385	0.049533386
48	0xbcf63a1a	-0.030057002
49	0xbb005ac0	-0.0019585341
50	0xbca2b75d	-0.019862825
51	0xbccd658a	-0.025072832
52	0xbe10e8d0	-0.14151311
53	0x3cd2101b	0.025642445
54	0xbdc919ba	-0.0981936
55	0x3de576ec	0.11204323
56	0xbe65595c	-0.22397369
57	0x3e4464be	0.19179055
58	0xbdfb70f9	-0.12277407
59	0xbda241c6	-0.079227015
60	0x3dbbae32	0.091640845
61	0xbd737698	-0.05943927
62	0x3ec15861	0.3776274
63	0x3d56c4a1	0.052433614
64	0x3e23d479	0.1599902
65	0x3e114de3	0.14189868
66	0xbcdb36a0	-0.026759446
67	0xbe8a9bde	-0.27072042
68	0xbf051cb5	-0.5199693
69	0x3e207252	0.1566861
70	0xbd357df4	-0.04430957
71	0x3e51361a	0.20430794
72	0x3ea4ef19	0.32213667
73	0x3e9623ef	0.2932429
74	0xbe1d179e	-0.1534104
75	0x3dd7a09b	0.1052868
76	0xbddb7fb9	-0.107177205
77	0x3d22734b	0.039660733
78	0x3e80dd47	0.2516882
79	0xbce71110	-0.028206378
80	0x3dc62318	0.09674662
81	0xbce728ac	-0.028217636
82	0xbe546292	-0.20740727
83	0x3d8ac5fb	0.06776043
84	0xbe67a9f6	-0.22623429
85	0x3e3dbc5b	0.18528883
86	0x3e193c8b	0.14964502
87	0x3e93ac53	0.2884241
88	0x3b73043f	0.0037081388
89	0xbe5b062d	-0.21389075
90	0x3c633016	0.013866445
91	0x3da8c7ef	0.08241259
92	0xbde82a84	-0.11336234
93	0xbdcf4836	-0.10121195
94	0xbd6dbb81	-0.058040146
95	0xbb4f790f	-0.003165785
96	0xbe0bb360	-0.13642645
97	0xbdeff70a	-0.11717041
98	0xbdb51667	-0.088421635
99	0xbe429f4d	-0.19006081
100	0x3e868209	0.26271084
101	0x3e945594	0.2897154
102	0x3d159f18	0.036528677
103	0x3d0be369	0.034152422
104	0xbda72a7a	-0.08162399
105	0xbe05330b	-0.13007753
106	0xbe9248af	-0.28571078
107	0x3e2e2595	0.17006524
108	0x3dc56b94	0.096396595
109	0x3d061881	0.032738212
110	0x3ce6abb2	0.028158043
111	0xbd8866c0	-0.06660223
112	0x3c8d82af	0.017274229
113	0x3e4cb4c4	0.19990832
114	0x3d44e2a2	0.048067696
115	0x3dcbbc92	0.09948076
116	0x3d98c6a2	0.07459761
117	0xbd793d07	-0.060849216
118	0x3eb6c2b2	0.35695416
119	0x3d8b9f58	0.06817502
120	0x3da84818	0.08216876
121	0x3d51a7f7	0.051185574
122	0x3e0249bb	0.12723438
123	0x3ea05876	0.3131749
124	0x3dbcb646	0.092144534
125	0xbe6cc55f	-0.23122166
126	0x3d174e2f	0.036939796
127	0x3dfae2b4	0.122502714
128	0x3dce7895	0.10081593
129	0x3e094d91	0.13408495
130	0x3e4c54c9	0.19954218
131	0xbcfb0ce8	-0.030645803
132	0xbc8cfb97	-0.017209811
133	0xbe42e84d	-0.19033928
134	0xbdb8c496	-0.09021871
135	0x3e4cca4f	0.1999905
136	0x3dd1fad2	0.10252918
137	0xbe277b76	-0.1635569
138	0xbe2439de	-0.160377
139	0xbe4b0606	-0.19826517
140	0xbe7d77c4	-0.24752718
141	0xbe584f0a	-0.21123901
142	0xbd92c44a	-0.071663454
143	0x3e0a3701	0.13497545
144	0x3c8c1a3e	0.017102357
145	0xbe1bc5a2	-0.1521211
146	0xbe6108f1	-0.21976067
147	0x3d3d76b6	0.04625579
148	0xbe522263	-0.2052093
149	0xbcc9bb68	-0.024625495
150	0x3d5a987d	0.05336808
151	0xbe2a7473	-0.16645984
152	0xbdcd12d1	-0.100133546
153	0x3d59fefa	0.05322168
154	0xbd41cf20	-0.04731667
155	0xbdc5f151	-0.09665168
156	0xbe36910b	-0.17828767
157	0xbe6a0207	-0.22852336
158	0xbe19a245	-0.15003307
159	0x3e17be94	0.14818794
160	0xbdc5d7c3	-0.09660294
161	0xbe098768	-0.1343056
162	0x3d3018fd	0.04299258
163	0x3d61c7ac	0.055122063
164	0x3d553991	0.052056853
165	0x3da8fdd1	0.08251537
166	0x3d5c7578	0.053822964
167	0xbe4b0f35	-0.1983002
168	0xbd1b09de	-0.037851207
169	0x3db84624	0.08997753
170	0xbd8ef188	-0.06979662
171	0xbe3149cf	-0.17313312
172	0x3e0818c2	0.13290694
173	0xbe3ef07c	-0.18646425
174	0xbde9341a	-0.11386891
175	0xbe2fe671	-0.1717775
176	0xb963d69c	-0.00021728355
177	0x3d73440a	0.05939106
178	0xbbfc9baa	-0.0077089863
179	0x3d21ff20	0.039549947
180	0xbe53dd86	-0.20689973
181	0xbe95cb9b	-0.292569
182	0x3c4e9229	0.0126080895
183	0x3e3a08d5	0.18167432
184	0x3df76d44	0.12081388
185	0xbe2b8c21	-0.16752674
186	0xbcd4ada8	-0.025961712
187	0xbe4d5d23	-0.2005506
188	0xbe88750f	-0.2665181
189	0xbdba07f1	-0.09083546
190	0x3e03e9ab	0.12882106
191	0x3e340da3	0.17583327
192	0xbe805170	-0.25062132
193	0x3e3aa680	0.18227577
194	0xbe242403	-0.16029362
195	0x3c2032b8	0.009777717
196	0x3e326d20	0.1742444
197	0x3c2f9fc1	0.010719241
198	0x3e17f857	0.14840828
199	0xbe2e800a	-0.1704103
200	0xbdbad41f	-0.0912249
201	0xbe1643c0	-0.14674282
202	0xbed4a47f	-0.4153175
203	0x3cbe489a	0.023227978
204	0xbdaab7c7	-0.08335834
205	0x3e955b1a	0.29171067
206	0x3dc8e8fe	0.09810065
207	0xbdeac698	-0.1146366
208	0xbe5bccbf	-0.21464823
209	0xbe8c59fe	-0.2741241
210	0x3de8fcdd	0.11376355
211	0x3d72b62c	0.059255764
212	0x3eb87d5a	0.36033136
213	0x3e35f61e	0.17769668
214	0x3e879f5c	0.2648877
215	0xbd651e70	-0.05593723
216	0x3db325e5	0.08747462
217	0x3e56691d	0.20938535
218	0xbe3976fb	-0.18111794
219	0xbeb726cd	-0.3577179
220	0xbbdfe8be	-0.006833165
221	0xbdd478b2	-0.10374583
222	0xbc8f4314	-0.01748804
223	0xbeefc5dd	-0.46830645
224	0xbda03e9d	-0.078244425
225	0x3e66a3d2	0.2252343
226	0x3e8bce37	0.27305767
227	0x3dab3e53	0.08361497
228	0x3f0d16c3	0.55112857
229	0xbda74eda	-0.081693366
230	0x3ead1733	0.33806762
231	0xbe087402	-0.13325503
232	0xbe2ba243	-0.16761117
233	0xbda16247	-0.07880073
234	0xbe21da2c	-0.15805882
235	0x3ddb55c7	0.1070972
236	0x3df2f53a	0.118631795
237	0x3ea29de2	0.3176108
238	0x3d04e4b4	0.03244467
239	0x3e8176fa	0.25286084
240	0x3f181f30	0.5942259
241	0xbc9e947a	-0.019357909
242	0x3e28e227	0.1649252
243	0x3d1e9353	0.038714718
244	0xbd125cd9	-0.035733078
245	0xbda1efc0	-0.07907057
246	0x3e15a42d	0.1461341
247	0xbd71b802	-0.059013374
248	0x3d7f9459	0.062397335
249	0xbd9ee803	-0.077590965
250	0xbd8de903	-0.06929209
251	0xbd49a4b9	-0.049229357
252	0xbd84af74	-0.064787775
253	0xbd778f98	-0.060439676
254	0x3e14ea65	0.1454254
255	0xbbaa6000	-0.0051994324

layers.0.W2.weight f4 [64, 25]
0	0x3d2a9070	0.041641653
1	0xbead354b	-0.33829722
2	0xbe8ab534	-0.27091372
3	0xbda1fe56	-0.07909839
4	0xbe3de0b8	-0.18542755
5	0xbe8085ac	-0.25101984
6	0x3dfcc6b7	0.12342589
7	0xbda04403	-0.07825472
8	0xbe22fac3	-0.1591597
9	0xbe04f197	-0.12982784
10	0xbe75813b	-0.23975079
11	0x3e1fd1a3	0.15607314
12	0xbdf1f2fe	-0.11813925
13	0xbe29951f	-0.16560791
14	0xbe46fab4	-0.19431573
15	0x3d1c6864	0.038185492
16	0xbdad0f23	-0.08450153
17	0xbd24aaa8	-0.040201813
18	0xbddc99f2	-0.1077155
19	0xbe2d1740	-0.169034
20	0x3d981dd7	0.074275665
21	0x3dbf2ae9	0.09334356
22	0xbe5edc3d	-0.21763702
23	0xbe0a5fa8	-0.13513052
24	0xbe1bc0cd	-0.15210266
25	0xbe0b657d	-0.13612933
26	0x3e250378	0.16114604
27	0xbb4d1e75	-0.0031298671
28	0x3dd4ccc1	0.10390616
29	0xbd0f86f8	-0.035040826
30	0xbe2d3bc9	-0.16917337
31	0xbdf4bb30	-0.11949766
32	0x3e101ec8	0.14074242
33	0xbe62a588	-0.22133458
34	0x3cda676c	0.026660644
35	0x3d2fd145	0.042924184
36	0x3d71c07c	0.059021458
37	0x3d13cb4d	0.036082555
38	0xbdd807b8	-0.10548347
39	0x3dd09903	0.10185435
40	0xbe7f18d4	-0.24911815
41	0xbe2479b4	-0.16062051
42	0x3dcc0c9a	0.09963341
43	0x3dd62681	0.10456563
44	0xbdcb9d7c	-0.09942147
45	0xbd0418b6	-0.03225013
46	0xbe1f9f7a	-0.15588179
47	0x3d8be491	0.06830705
48	0xbda392a7	-0.07986956
49	0xbbddbbc0	-0.0067667663
50	0x3e3a34dd	0.18184228
51	0x3e81990c	0.25312078
52	0xbe374d59	-0.179006
53	0xbdc9d14d	-0.09854374
54	0x3e0ac761	0.1355262
55	0x3ea2c8a3	0.317937
56	0xbe50a559	-0.20375575
57	0x3ac55c70	0.0015057456
58	0x3d84202e	0.0645145
59	0x3e27c5b8	0.16384017
60	0x3dbda262	0.09259488
61	0x3e114481	0.14186288
62	0x3db1418d	0.08655081
63	0x3e420306	0.18946466
64	0x3e0bcabd	0.13651557
65	0x3e89c18d	0.2690548
66	0x3e624bcf	0.22099231
67	0xbe13007a	-0.1435565
68	0xbe53519a	-0.20636597
69	0xbd3d0ce9	-0.04615489
70	0xbdfb30c2	-0.12265159
71	0xbdcd046f	-0.10010611
72	0x3eb19f6b	0.3469194
73	0x3e704a35	0.23465808
74	0xbe15f7de	-0.14645335
75	0x3d674a25	0.056467194
76	0x3e32442f	0.17408822
77	0xbe6c511e	-0.23077819
78	0x3e56ed8f	0.20989059
79	0x3cfb4940	0.030674577
80	0x3deac23e	0.1146283
81	0x3e4be051	0.19909789
82	0x3e0e6204	0.13904577
83	0x3d5d8eaf	0.05409115
84	0x3e05e39b	0.13075106
85	0x3e16178d	0.14657421
86	0x3d057b54	0.032588318
87	0xbd9af888	-0.07566935
88	0x3dbad59c	0.09122774
89	0xbe44eaa3	-0.19230132
90	0x3ce68c8d	0.028143192
91	0x3bb915c7	0.005648348
92	0x3db597ca	0.08866842
93	0xbe4526ad	-0.19253035
94	0xbd805fa9	-0.06268246
95	0x3e178533	0.14796905
96	0x3d6aa2a5	0.057284016
97	0x3d8e2812	0.069412366
98	0xbdb9134d	-0.090368845
99	0xbd0d102c	-0.03443925
100	0x3d3cbe71	0.046080057
101	0x3e8947f4	0.26812708
102	0x3dbd4368	0.09241372
103	0x3e3e2aa7	0.18570958
104	0x3e0d3555	0.13789876
105	0xbda0441c	-0.07825491
106	0xbdabb187	-0.0838347
107	0x3d71f474	0.05907102
108	0x3dc4c39c	0.09607622
109	0x3e7d6044	0.24743754
110	0xbb413685	-0.002948196
111	0x3e334dd9	0.17510165
112	0x3b18b04b	0.0023298438
113	0x3e42d0fe	0.19025037
114	0xbd8c301f	-0.06845116
115	0x3d8c46f1	0.068494685
116	0x3e459de7	0.19298516
117	0x3e7acff8	0.24493396
118	0x3ea1f3b7	0.31631252
119	0xbceeaa59	-0.029133962
120	0x3d7bae6d	0.061445642
121	0x3b9ad1a9	0.0047247005
122	0x3df24019	0.11828632
123	0xbdd22039	-0.10260052
124	0xbd7054e0	-0.058674693
125	0x3da21351	0.079138406
126	0xbe6b3b16	-0.22971758
127	0xbe8dbf96	-0.2768523
128	0x3db0b433	0.0862812
129	0x3ce09958	0.02741687
130	0xbd017280	-0.031603336
131	0x3e32d577	0.17464243
132	0xbe376d78	-0.17912853
133	0xbe3164db	-0.1732363
134	0xbe4d03d9	-0.20020999
135	0x3c89fd09	0.01684429
136	0xbd511058	-0.051040977
137	0x3dbf888f	0.09352218
138	0xbc37fd30	-0.011229798
139	0x3b112b8b	0.0022151198
140	0xbe0b7555	-0.13618977
141	0x3dda0d91	0.10647119
142	0x3e1b4cf6	0.15166077
143	0xbdfcfaae	-0.12352501
144	0xbd94faa0	-0.072743654
145	0xbe2dc5b3	-0.16969948
146	0x3cd0dde1	0.025496425
147	0xbe694444	-0.22779948
148	0xbe1412a6	-0.14460239
149	0x3e4ca169	0.19983448
150	0xbe746eb7	-0.2387036
151	0x3d8e4d24	0.06948307
152	0xbd8147c5	-0.06312517
153	0x3e6584fa	0.22414008
154	0xbdcfde1d	-0.101497866
155	0x3e08c982	0.13358119
156	0x3cc5add8	0.024130747
157	0xbd5b4fd2	-0.05354292
158	0x3dbfd22e	0.093662605
159	0xbe74ab66	-0.23893508
160	0xbddd2f1d	-0.10800002
161	0x3e45c9d1	0.19315268
162	0xbddd7a1e	-0.10814308
163	0xbe139f15	-0.14416154
164	0xbd8b29a9	-0.067950554
165	0xbe0d50d4	-0.13800365
166	0xbdb75dc4	-0.08953431
167	0xbe3dc190	-0.1853087
168	0x3c87c7fb	0.01657485
169	0xbe50d44d	-0.20393486
170	0xbd0fd2ae	-0.03511303
171	0x3d674a62	0.05646742
172	0xbcbda48f	-0.023149757
173	0xbd7160e5	-0.058930296
174	0x3cefa398	0.029252812
175	0xbd4c144c	-0.049824044
176	0xbd4654d3	-0.04842074
177	0xbdf43a53	-0.11925187
178	0xbe3e11a4	-0.18561417
179	0xbdd8dd80	-0.10589123
180	0x3e15742d	0.14595099
181	0xbe05f171	-0.13080384
182	0x3da0470e	0.078260526
183	0x3e11a071	0.1422136
184	0xbc160699	-0.009156846
185	0xbe1f39d1	-0.15549399
186	0xbe0ac28e	-0.13550779
187	0xbdf43ab0	-0.11925256
188	0xbdc62054	-0.09674135
189	0xbe6742f8	-0.2258414
190	0xbc02f627	-0.007993258
191	0x3db5b2e3	0.088720106
192	0x3dc51787	0.09623628
193	0x3de0b52f	0.10972058
194	0x3cac8fa8	0.021064594
195	0x3d976cfc	0.07393834
196	0x3dc9b67f	0.098492615
197	0x3d94c26e	0.07263647
198	0xbd922933	-0.071367644
199	0xbe243a98	-0.16037977
200	0xbd8337a4	-0.06407097
201	0xbec3241e	-0.38113493
202	0xbe990f7b	-0.29894623
203	0x3d1fc683	0.039007675
204	0x3da598ba	0.08085771
205	0x3e82e9c2	0.25568968
206	0xbda60f67	-0.081084065
207	0xbe908e0c	-0.28233373
208	0xbeb79cd7	-0.35861847
209	0xbe8aa155	-0.27076212
210	0x3e4da9a6	0.20084247
211	0xbe041add	-0.12900873
212	0x3ed6a2d6	0.4192111
213	0x3e43c4cc	0.19118041
214	0xbe9994b9	-0.2999628
215	0x3c1270fc	0.00893807
216	0xbcbea1d5	-0.023270527
217	0x3e561f2c	0.20910329
218	0xbe0ffde3	-0.14061694
219	0x3d2d6f9a	0.04234276
220	0x3e69955e	0.22810885
221	0xbd53d856	-0.051719986
222	0xbd8b4ad9	-0.068013854
223	0xbe077335	-0.13227542
224	0xbd5440b4	-0.05181952
225	0xbd9c2ec9	-0.07626111
226	0xbe4a7ef8	-0.19774997
227	0xbdc4b4f6	-0.09604828
228	0x3de8227b	0.11334702
229	0x3e29fcf3	0.16600399
230	0x3dfc0c4f	0.12307035
231	0xbda9bee7	-0.08288365
232	0x3b9c052a	0.004761358
233	0xbb15e40c	-0.0022871522
234	0xbda8bf69	-0.082396336
235	0x3edd64fc	0.43241107
236	0xbdeec6b3	-0.116589926
237	0x3e7a2a84	0.24430281
238	0xb9ec7c00	-0.00045105815
239	0xbe0eb333	-0.13935547
240	0x3ecb7d7b	0.39744172
241	0x3dedb044	0.116058856
242	0x3df60967	0.12013512
243	0x3db7fc89	0.08983714
244	0x3e052215	0.13001283
245	0xbd0bd29a	-0.034136392
246	0xbd704ffa	-0.05867002
247	0xbcadba13	-0.021206891
248	0xbe421ae5	-0.18955572
249	0xbd5d2cf8	-0.053997964
250	0xbe80ef70	-0.25182676
251	0x3d7c89f7	0.06165501
252	0x3d67665b	0.0564941
253	0x3c81b900	0.015835285
254	0xbe129cc3	-0.14317612
255	0xbe1b18c0	-0.1514616

layers.1.W1.weight f4 [64, 64]
0	0xbd293f48	-0.041320115
1	0xbe4a1dee	-0.1973798
2	0xbe625820	-0.2210393
3	0xbe01c808	-0.12673962
4	0xbd5ca6cd	-0.05387001
5	0xbd076c9c	-0.033062562
6	0x3d275799	0.040855024
7	0xbce8de13	-0.028426206
8	0x3c07c4e0	0.008286685
9	0x3d3841de	0.04498469
10	0x3c9e8464	0.019350238
11	0xbc0cd60d	-0.008595956
12	0x3cdb47af	0.02676758
13	0xbdd9e10c	-0.106386274
14	0xbda6802f	-0.08129918
15	0x3c464ebe	0.012103735
16	0xbe143dd0	-0.14476705
17	0xbca02b2a	-0.019551832
18	0xbb15f4db	-0.002288154
19	0xbcfe7908	-0.031063572
20	0xbe1a5d34	-0.15074617
21	0xbd693e94	-0.056944445
22	0xbe0f5876	-0.13998589
23	0xbe2e74f3	-0.170368
24	0x3d6c2d95	0.057660658
25	0xbe47f561	-0.19527198
26	0xbe14717e	-0.14496419
27	0xbdde6f14	-0.1086103
28	0xbd593aaf	-0.05303448
29	0x3de1555a	0.11002608
30	0xbd800a13	-0.062519215
31	0xbd93f1cb	-0.07223853
32	0xbdac156b	-0.08402523
33	0x3cea5be7	0.028608276
34	0x3e117879	0.14206113
35	0xbc0e2e2e	-0.008678002
36	0xbd39f53e	-0.045399897
37	0x3cd5f678	0.026118502
38	0xbe0bd0cf	-0.13653873
39	0xbc0017a3	-0.007818135
40	0xbe03b4d7	-0.12861954
41	0x3db6e834	0.08931008
42	0xbe21a7d0	-0.15786672
43	0xbc5eff02	-0.013610603
44	0xbe22b5d8	-0.1588968
45	0x3c7fd141	0.015613855
46	0x3b0eaa65	0.0021769044
47	0x3d253c52	0.04034073
48	0xbdc11464	-0.09427717
49	0x3d4bdef7	0.049773183
50	0xbe3fa25a	-0.18714276
51	0xbe0292e5	-0.12751348
52	0x3cddb3ea	0.027063329
53	0x3c42b738	0.011884503
54	0xbe1f33ed	-0.15547152
55	0xbe2a69b4	-0.16641885
56	0xbdac5a55	-0.08415667
57	0x3d465e6b	0.048429888
58	0x3d84a5f0	0.064769626
59	0x3d25c373	0.040469598
60	0x3c93a04c	0.018020771
61	0xbc884629	-0.016635017
62	0xbe57e69e	-0.21084067
63	0x3db60686	0.08887963
64	0xbd8ebb40	-0.06969309
65	0xbd961a87	-0.073292784
66	0xbdce91fa	-0.100864366
67	0xbe0d02c9	-0.13770594
68	0x3cc6b138	0.024254426
69	0xbcfd2780	-0.030902624
70	0x3c6a8640	0.014314234
71	0xbd561098	-0.05226192
72	0x3bd0af60	0.0063685626
73	0xbd9bc455	-0.07605807
74	0xbb9e6480	-0.004833758
75	0x3b462238	0.0030232798
76	0x3dbb0346	0.09131484
77	0x3dd860f6	0.10565369
78	0xbdd0dcb6	-0.10198347
79	0xbdd86634	-0.10566369
80	0xbc990a78	-0.01868175
81	0xbc1c3c20	-0.009535819
82	0x3d8d4bc8	0.0689922
83	0x3df0fce6	0.117669865
84	0x3d037af8	0.032099694
85	0xbdb5d386	-0.088782355
86	0xbc67d010	-0.014148727
87	0x3da58ff8	0.080841005
88	0x3d3ce788	0.046119243
89	0xbe0f10c6	-0.13971242
90	0x3bef1340	0.007295996
91	0xbdf72f4a	-0.120695665
92	0xbd4e50ac	-0.050369903
93	0x3db30c1a	0.087425426
94	0xbd5e18e8	-0.05422297
95	0x3d9c4dc8	0.07632023
96	0xbdd0d008	-0.10195929
97	0x3d727e64	0.059202567
98	0x3d743a10	0.059625685
99	0x3da5e3fa	0.08100124
100	0x3d0bd2d8	0.034136623
101	0xbd2dd993	-0.042443823
102	0xbde72934	-0.11287156
103	0xbd8d424c	-0.06897411
104	0xbe0c7124	-0.13715035
105	0x3dd391ea	0.10330565
106	0xbd31b46c	-0.043384954
107	0x3b479380	0.0030452907
108	0xbdf0aad8	-0.11751336
109	0xbc918061	-0.017761411
110	0xbd2e88a8	-0.042610794
111	0xbe1aeaf8	-0.15128696
112	0x3c7d7770	0.015470371
113	0xbe2a7402	-0.16645816
114	0xbc49c7c0	-0.0123156905
115	0xbdd10f80	-0.102080345
116	0x3da1d818	0.07902545
117	0xbe1a2edb	-0.15056936
118	0x3ca73ec8	0.020415679
119	0x3d7d83c4	0.06189324
120	0xbdcc8c28	-0.0998767
121	0x3da5b9a8	0.08092052
122	0x3d4ecf8b	0.050490897
123	0xbe02ffe3	-0.12792926
124	0xbd27485a	-0.040840484
125	0x3d1b42b0	0.037905395
126	0x3dd4053e	0.10352562
127	0x3d3dd7a5	0.046348233
128	0xbe3b0f84	-0.18267637
129	0xbe352980	-0.17691612
130	0xbe24c622	-0.16091207
131	0xbe009930	-0.12558436
132	0xbd5d71c2	-0.054063566
133	0xbdb686d8	-0.08912438
134	0x3d4f0cbf	0.050549265
135	0xbe202920	-0.15640688
136	0xbd22437e	-0.039615147
137	0xbdf8effb	-0.12155148
138	0xbe12215e	-0.14270541
139	0x3d52d0ae	0.051468544
140	0xbcb1df7d	-0.021713013
141	0xbdc0a4c2	-0.09406425
142	0xbce778a4	-0.028255768
143	0xbe30fbdd	-0.17283578
144	0xbdeb8cab	-0.1150144
145	0xbb08a7e3	-0.0020852021
146	0xb9b6623f	-0.00034786944
147	0x3c871fd7	0.016494675
148	0xbd79eac4	-0.061014906
149	0xbd9630d1	-0.0733353
150	0xbe16de9f	-0.1473336
151	0x3d356d05	0.044293422
152	0xbe10a297	-0.14124523
153	0xbd3b8a87	-0.045786407
154	0xbda89e2a	-0.082332924
155	0x3d3405c0	0.043950796
156	0x3d00867c	0.031378254
157	0xbd9df77f	-0.07713222
158	0xbe31a94b	-0.17349736
159	0x3c4ea0c5	0.012611573
160	0xbe087de7	-0.13329278
161	0xbda81bd7	-0.08208435
162	0xbc217a20	-0.009855777
163	0x3d960100	0.073244095
164	0xbde2c4ac	-0.110726684
165	0xbe1d0888	-0.15335286
166	0xbe34f6aa	-0.1767222
167	0xbd558639	-0.052129958
168	0xbd606b04	-0.054789558
169	0xbe1f46e0	-0.1555438
170	0x3cba9e33	0.022780513
171	0xbdb160bc	-0.08661029
172	0xbe07d038	-0.13263023
173	0x3c756375	0.014977326
174	0x388b74a2	6.649761e-05
175	0x3c92da01	0.017926218
176	0x3d718408	0.058963805
177	0xbe2c04d5	-0.16798718
178	0xbdca2085	-0.09869484
179	0xbd1ac089	-0.037781272
180	0x3bc7add3	0.0060937195
181	0x3d79f6db	0.061026435
182	0x3cd1bbe3	0.025602287
183	0xbdf10eae	-0.11770378
184	0xbde4ecd4	-0.11177984
185	0x3db088c8	0.08619839
186	0xbe2ee940	-0.17081165
187	0xbe1fe000	-0.15612793
188	0x3b9d149d	0.004793717
189	0xbe221bd9	-0.15830936
190	0xbd9ac70c	-0.075574964
191	0xbc932d60	-0.017965972
192	0x3dd1b958	0.1024043
193	0xbd2a3b21	-0.041560296
194	0xbd0a3144	-0.03373839
195	0xbc8dbfc2	-0.017303351
196	0x3de64ddc	0.11245319
197	0xbdbe0c80	-0.09279728
198	0xbd7a4ee0	-0.061110377
199	0xbe3162aa	-0.17322794
200	0xbd82b7f2	-0.06382741
201	0x3d2c4d30	0.0420658
202	0x3d6f331c	0.05839835
203	0xbd29556a	-0.041341223
204	0xbdf11f54	-0.117735535
205	0xbe057bf1	-0.13035561
206	0x3d5a3600	0.053274155
207	0x3da0c866	0.07850723
208	0xbd1e4938	-0.038644046
209	0xbd87aff8	-0.0662536
210	0x3df2bbc4	0.1185222
211	0xbe1f6131	-0.1556442
212	0xbe1d4b88	-0.15360844
213	0x3dba8d08	0.09108931
214	0xbe2f536d	-0.17121668
215	0x3d9ab228	0.07553512
216	0xbd8d1e32	-0.06890525
217	0xbd499b91	-0.049220625
218	0xbe21b92a	-0.1579329
219	0x3dd382da	0.10327692
220	0x3cfe99f7	0.031079276
221	0xbd4b1658	-0.049581856
222	0x3b446cc0	0.0029972047
223	0xbd4139c8	-0.047174245
224	0xbdfaae26	-0.122402474
225	0xbdd11a27	-0.10210066
226	0x3d27a7c8	0.040931493
227	0xbd9fe000	-0.078063965
228	0xbc4b4b3b	-0.012408073
229	0xbd9f05c5	-0.07764772
230	0xbdadacac	-0.084802
231	0xbd9f15f8	-0.07767862
232	0xbd0ad480	-0.033894062
233	0xbe2f529b	-0.17121355
234	0x3cef3fa8	0.029205158
235	0xbb61ce66	-0.0034455298
236	0xbd07086a	-0.03296701
237	0xbb384811	-0.0028119127
238	0xbcd13390	-0.025537282
239	0xbdf0c0ed	-0.11755548
240	0xbdb32324	-0.08746937
241	0xbd7b3cd3	-0.061337303
242	0x3dabff36	0.08398287
243	0x3d8b59b6	0.068042204
244	0xbe199d0c	-0.15001315
245	0x3d091378	0.033465832
246	0xbdcffb29	-0.10155327
247	0x3d4b8e35	0.049696166
248	0xbe10f0b5	-0.14154322
249	0x3d441ef3	0.047881078
250	0x3d43e1e1	0.047822837
251	0x3d8d9782	0.069136634
252	0x3d48d607	0.049032237
253	0xbc88023e	-0.016602632
254	0xbd249f41	-0.04019094
255	0xbe519a67	-0.20469056

layers.1.W2.weight f4 [64, 64]
0	0xbdb45409	-0.08805091
1	0xbc564909	-0.013078936
2	0xbe823793	-0.25433025
3	0xbe3b9d2a	-0.18321672
4	0x3cbdec08	0.023183838
5	0x3ba855ff	0.0051372047
6	0xbc64ebde	-0.013972251
7	0xbe27958c	-0.16365641
8	0xbc8e7cc0	-0.01739347
9	0x3df72443	0.12067463
10	0x3dfbda40	0.12297487
11	0xbdd5cffc	-0.104400605
12	0xbd20333f	-0.039111372
13	0xbe2daee8	-0.16961253
14	0xbdbff16e	-0.09372221
15	0xbd5d7601	-0.054067615
16	0xbdc4c881	-0.096085556
17	0xbe29ed1b	-0.16594355
18	0x3d2ec6aa	0.04266993
19	0x3c76216a	0.015022615
20	0xbda01791	-0.07816995
21	0xbdc6cfc9	-0.097076006
22	0xbd39ae3d	-0.045332182
23	0x3d840b4e	0.06447469
24	0xbdaacae2	-0.08339478
25	0xbda59806	-0.08085637
26	0xbc1d5bef	-0.009604438
27	0x3c64f4b1	0.013974355
28	0x3c8739b1	0.016507002
29	0x3c60e72a	0.013726989
30	0x3b018cfb	0.0019767869
31	0xbd24882f	-0.040168937
32	0xbd1f8de5	-0.03895368
33	0xbe62e9fc	-0.2215957
34	0x3e1ecca9	0.15507759
35	0xbb89becf	-0.0042036544
36	0xbd0b2d0d	-0.03397851
37	0xbccf3bf9	-0.025297152
38	0xbd9dd03b	-0.077057324
39	0xbe196486	-0.14979753
40	0xbdbea463	-0.09308698
41	0xbdff2571	-0.12458313
42	0x3dc7cd63	0.09755971
43	0xbbf08f70	-0.007341318
44	0xbc8d4f6b	-0.017249784
45	0xbe405a16	-0.18784365
46	0xbded5344	-0.11588147
47	0xbca261a9	-0.019821959
48	0xbd291c26	-0.04128661
49	0x3ac663df	0.0015135965
50	0xbb9d995f	-0.004809543
51	0xbe2d16f8	-0.16903293
52	0x3d3680c0	0.04455638
53	0xbd9a5157	-0.075350456
54	0xbda797f2	-0.08183278
55	0x3cd7233b	0.026261916
56	0x3d001c33	0.031276893
57	0x3ddb378d	0.10703955
58	0x3d71e9bf	0.05906081
59	0xbe36b2d0	-0.17841649
60	0x3c9bcde2	0.019019071
61	0xbe2fe1f9	-0.17176045
62	0xbd6e2dd5	-0.058149178
63	0xbd1341dd	-0.035951484
64	0x3dc543ac	0.09632048
65	0xbcb4187a	-0.021984328
66	0x3d0cd74a	0.034385003
67	0xbd68a2a4	-0.05679573
68	0xbdcd9ad8	-0.100393
69	0xbda8604a	-0.08221491
70	0xbae68f00	-0.0017590225
71	0xbe277f3c	-0.1635713
72	0x3dd966ce	0.106153116
73	0xbe016189	-0.12634863
74	0xbdc23e82	-0.09484579
75	0x3d903998	0.07042235
76	0xbda423b2	-0.08014621
77	0xbd648c3c	-0.0557978
78	0x3b0a2240	0.0021077543
79	0xbc3b8cae	-0.011447115
80	0xbdc4dba9	-0.09612209
81	0x3d8907e0	0.06690955
82	0xbda3e272	-0.080021754
83	0x3cc6cfb0	0.024268955
84	0xbdfbde6c	-0.12298283
85	0xbde5db88	-0.11223513
86	0xbbe743bf	-0.0070576365
87	0x3d762010	0.06008917
88	0xbd64a21c	-0.055818662
89	0xbbf3c240	-0.007438928
90	0xbdac0858	-0.08400029
91	0x3d8f026c	0.06982884
92	0x3c5fa240	0.013649523
93	0xbda19e04	-0.07891467
94	0xbce1c909	-0.027561681
95	0xbdf2f628	-0.11863357
96	0x3d8f66ca	0.07002027
97	0x3d8388d8	0.06422585
98	0x3dda5988	0.10661608
99	0xbd937b70	-0.07201278
100	0xbdd028fe	-0.10164069
101	0xbdd93eae	-0.10607658
102	0xbd0453fe	-0.032306664
103	0xbdb34480	-0.087533
104	0xbe14a991	-0.1451781
105	0xbd472514	-0.048619345
106	0x3de01664	0.10941771
107	0x3d06e074	0.0329289
108	0xbde7d1ec	-0.11319336
109	0xbde08612	-0.10963072
110	0xbe19f220	-0.1503377
111	0xbd89ef54	-0.06735101
112	0x3b81f4c0	0.003965944
113	0xbdaaf34e	-0.08347188
114	0xbe185ef0	-0.14879966
115	0xbcc9e430	-0.024644941
116	0xbd3440df	-0.04400718
117	0x3d263516	0.04057797
118	0x3d39cefc	0.04536341
119	0xbd951488	-0.07279307
120	0xbe2aaf6f	-0.16668485
121	0x3cc7ada8	0.024374798
122	0xbd8dd041	-0.06924487
123	0x3cb42479	0.021990048
124	0xbe0d1871	-0.13778855
125	0xbbc6c700	-0.006066203
126	0xbdbabb34	-0.091177374
127	0xbde97839	-0.11399884
128	0xbe1c9454	-0.15290958
129	0xbdcefc2c	-0.10106692
130	0xbd7d7e1d	-0.06188785
131	0x3d3b361c	0.0457059
132	0x3d85d13c	0.06534049
133	0x3d573061	0.052536372
134	0xbb58c13a	-0.0033074156
135	0xbd8d1d41	-0.06890345
136	0x3e376f9f	0.17913674
137	0xbde87b14	-0.113516
138	0xbe3e8c8a	-0.18608299
139	0xbe0e0360	-0.13868475
140	0x3d5864de	0.05283057
141	0x3d4c320d	0.04985242
142	0xbd3438a1	-0.043999318
143	0xbe22529b	-0.15851824
144	0xbe3cd9e0	-0.18442488
145	0xbc32cb67	-0.010912753
146	0xbe0892ec	-0.13337296
147	0x3c9cc343	0.019136077
148	0xbdeaa990	-0.11458123
149	0x3dd5c1d6	0.10437362
150	0x3bcd13ac	0.0062584486
151	0x3b4dd79a	0.0031409026
152	0x3ccbaa54	0.024861492
153	0xbe3493e0	-0.17634535
154	0xbd5e5197	-0.05427703
155	0xbe178513	-0.14796858
156	0xbda3e28c	-0.08002195
157	0x3cfee0d4	0.031113066
158	0xbe098710	-0.13430429
159	0x3d8c478b	0.06849583
160	0xbd75fe7f	-0.06005716
161	0xbe032d63	-0.12810282
162	0xbdd1feb5	-0.1025366
163	0xbdcbc739	-0.09950108
164	0xbd0beb30	-0.03415984
165	0xbd84aa88	-0.06477839
166	0x3d23fdc8	0.040036947
167	0x3de48e24	0.11159924
168	0xbd03e7a8	-0.032203346
169	0xbdb1011f	-0.08642792
170	0x3d81bbd4	0.063346535
171	0xbd401237	-0.04689237
172	0xbca47c49	-0.020078795
173	0xbe01bbc8	-0.12669289
174	0x3bf6f270	0.007536225
175	0xbd114993	-0.035470556
176	0x3bab9162	0.005235837
177	0xbd8f2609	-0.069896765
178	0x3ce5a40b	0.028032323
179	0x3e2d3cda	0.16917744
180	0xbd711425	-0.058857102
181	0x3d90c09f	0.070679896
182	0xbe42422f	-0.1897056
183	0xbd29b748	-0.041434556
184	0xbe1d1637	-0.15340506
185	0xbcf7f681	-0.03026891
186	0xbd46fdf0	-0.048582017
187	0xbd1cba97	-0.038263883
188	0xbdc65d82	-0.09685804
189	0x3c2214ba	0.009892637
190	0xbdc6b70a	-0.09702881
191	0xbdd39c1e	-0.10332511
192	0x3de96a0a	0.113971785
193	0xbe45e052	-0.19323853
194	0x3bff7b84	0.0077967066
195	0xbe45e42c	-0.19325322
196	0x3cf6893f	0.03009474
197	0xbd590125	-0.052979607
198	0xbe3060c2	-0.1722441
199	0xbde7d03f	-0.11319017
200	0x3dccbe5c	0.09997246
201	0x3bf82faf	0.0075740437
202	0x3da487b2	0.08033694
203	0xbdfa8617	-0.12232607
204	0x3de2230a	0.110418394
205	0xbe22b904	-0.1589089
206	0xbc0f5c60	-0.008750051
207	0xbde97f1f	-0.114011995
208	0x394b7eb3	0.00019406788
209	0xbcb00efb	-0.021491518
210	0xbdf5b4fa	-0.11997409
211	0x3d4abb65	0.04949512
212	0xbd7d233a	-0.061801173
213	0x3dbeafd9	0.09310884
214	0xbe17ac62	-0.14811853
215	0xbd4bd05f	-0.049759265
216	0xbdc400ba	-0.09570451
217	0x3d9071e9	0.07052977
218	0xbe287844	-0.16452128
219	0x3d9356ec	0.071943134
220	0xbe12c3ca	-0.143325
221	0x3d1d0f35	0.03834458
222	0xbda1c89f	-0.078995936
223	0xbc328972	-0.010897027
224	0xbde5628b	-0.11200436
225	0xbdf03da0	-0.11730504
226	0xbacb2f00	-0.0015501678
227	0xbc78e27a	-0.015190715
228	0x3ca1fdab	0.019774279
229	0xbccc641b	-0.024950078
230	0xbe13d9f4	-0.14438611
231	0x3df08cc6	0.117456004
232	0xbdde932a	-0.10867913
233	0xbe004c98	-0.12529218
234	0x3d3f61e4	0.046724215
235	0xbc0f0b32	-0.0087306965
236	0x3d8277e4	0.063705236
237	0xbd9f3d10	-0.077753186
238	0x3cde5b5d	0.027143175
239	0xbd4acc0f	-0.04951101
240	0xbda74d08	-0.081689894
241	0x3da5daf4	0.080984026
242	0xbb4c210d	-0.003114763
243	0xbd091a58	-0.03347239
244	0xbdc98911	-0.098405965
245	0xbddd33e1	-0.10800911
246	0xbbec5b7c	-0.007213054
247	0x3d069bb2	0.032863326
248	0xbe60984b	-0.21933095
249	0x3bf4067c	0.007447062
250	0xbe393515	-0.18086655
251	0xbe15195c	-0.14560455
252	0x3da0fa09	0.078601904
253	0xbd6f0aa0	-0.058359742
254	0xbe1d64c6	-0.15370473
255	0x3c8493cf	0.016183762

classifier.0.weight f4 [64, 64]
0	0x3e0baa73	0.1363924
1	0x3dc47586	0.09592728
2	0x3d2ac97e	0.041696064
3	0x3c7f83e2	0.015595408
4	0x3d971ec0	0.07378912
5	0xbe15dab4	-0.1463421
6	0xbcf5d271	-0.030007573
7	0x3d41383b	0.047172766
8	0xbc9d946a	-0.019235808
9	0x3d70dc18	0.058803648
10	0xbe20138c	-0.15632457
11	0xbd45047e	-0.048099987
12	0xbde7cd18	-0.113184154
13	0x3dfb7909	0.12278945
14	0xbcc93deb	-0.024565658
15	0xbe001b87	-0.12510501
16	0xbe18f6a9	-0.14937843
17	0x3d096df4	0.033552125
18	0x3e0974b4	0.13423425
19	0x3e18d845	0.1492625
20	0x3e3b48e9	0.18289532
21	0x3dc8fb19	0.09813518
22	0xbd34b33f	-0.044116255
23	0xbccde7b9	-0.025134908
24	0xbd1adc8e	-0.037807994
25	0x3d998fa8	0.074981034
26	0xbe15d014	-0.14630157
27	0x3d13b797	0.036063757
28	0xbe142d37	-0.14470373
29	0x3d9c01b9	0.07617516
30	0x3da30d61	0.07961536
31	0xbce27fb6	-0.027648788
32	0x3dcc11f5	0.099643625
33	0x3ca2c167	0.019867612
34	0x3c6619ca	0.0140442345
35	0x3c014f20	0.0078924
36	0xbdfd1a1c	-0.123584956
37	0xbc78f40b	-0.015194903
38	0xbb5b0cbc	-0.0033424338
39	0xbd4fe3e7	-0.050754454
40	0xbaa8a700	-0.0012867153
41	0x3dbf8738	0.09351963
42	0x3e33b9f3	0.17551403
43	0x3bcb9b7d	0.006213604
44	0x3d5ec152	0.054383583
45	0xbcb719b6	-0.022351127
46	0x3d310b11	0.043223444
47	0xbd49c424	-0.04925932
48	0x39759bd5	0.00023423073
49	0x3d9f8b94	0.07790294
50	0x3daa622a	0.083195046
51	0xba7cd800	-0.00096452236
52	0xbd9c3ccb	-0.07628783
53	0x3c9da3ba	0.01924311
54	0xbe2fcfbe	-0.17169091
55	0xbce16302	-0.02751303
56	0xbda9bccc	-0.08287963
57	0x3e00ef8f	0.12591384
58	0xbd28ee7e	-0.04124307
59	0xbe1795c3	-0.14803223
60	0x3c49df41	0.012321294
61	0x3d968cda	0.07351084
62	0x3cde2132	0.027115438
63	0xbe17ded6	-0.14831099
64	0xbe11392e	-0.14181969
65	0x3cd1fd59	0.0256335
66	0xbca80f14	-0.020515002
67	0x3d8f4a87	0.06996637
68	0x3e0b9a0c	0.13632983
69	0x3d1ce0d6	0.038300358
70	0x393d83de	0.00018073569
71	0xbbeb0500	-0.007172227
72	0x3dea5342	0.114416614
73	0xbe2d5529	-0.16927017
74	0xbe3ae7e7	-0.18252526
75	0xbe1275f1	-0.14302804
76	0x3cbde25a	0.023179222
77	0xbd1e901b	-0.03871165
78	0xbe04cc26	-0.12968501
79	0x3d0e42ff	0.03473186
80	0x3de7fe0d	0.11327753
81	0xbdeedce8	-0.11663228
82	0xbcb36bfb	-0.021902075
83	0xbd98bcfe	-0.074579224
84	0xbd192bf5	-0.037395436
85	0x3dd230fa	0.10263248
86	0x3dc5fb2e	0.09667049
87	0x3cdfb1a0	0.027306378
88	0xbbf45758	-0.0074567012
89	0x3dc08654	0.09400621
90	0xbb8c1207	-0.00427461
91	0xbda2e154	-0.07953134
92	0xbd52def2	-0.05148215
93	0x3defd652	0.117108
94	0xbd73196c	-0.059350416
95	0xbd98f020	-0.07467675
96	0xbe00e812	-0.12588528
97	0xbd038105	-0.032105464
98	0xbd871ac0	-0.06596899
99	0xbc51c1aa	-0.012802521
100	0xbd8cff7d	-0.06884668
101	0x3db337b2	0.087508574
102	0xbc894d54	-0.016760506
103	0x3e1f8490	0.15577912
104	0x3d224772	0.039618917
105	0x3de704ce	0.11280213
106	0xbd01f134	-0.03172417
107	0xbdac3107	-0.08407789
108	0x3df2867b	0.11842056
109	0xbc753afd	-0.014967677
110	0x3de5dd68	0.112238705
111	0x3d4f586f	0.050621446
112	0xbe172e9f	-0.14763878
113	0xbe3c9af5	-0.18418486
114	0xbda0a4dc	-0.078439444
115	0xbc997810	-0.018734008
116	0xbd8c6d08	-0.068567336
117	0x3d9bc326	0.07605581
118	0xbe056d40	-0.13029957
119	0xbd90d8b2	-0.07072581
120	0x3de10d8c	0.10988912
121	0x3cd299c0	0.02570808
122	0x3de1cc5a	0.11025305
123	0x3b243d78	0.0025061052
124	0xbcc0d3a7	-0.023538424
125	0xbdfd85da	-0.12379046
126	0x3c94ffdb	0.018188408
127	0xbd9071e3	-0.07052972
128	0xbd6a7444	-0.057239786
129	0xbdbb59f8	-0.091480196
130	0x3d98764b	0.074444376
131	0xbe1817a7	-0.14852773
132	0x3e2246bb	0.15847294
133	0x3d0be46e	0.034153394
134	0xbcf3416f	-0.029694287
135	0xbc5a616a	-0.013328889
136	0xbd5aeea5	-0.053450245
137	0xbd0ef6b8	-0.034903258
138	0x3cbf8001	0.023376467
139	0xbdc7f36c	-0.09763226
140	0xbd6ec6ad	-0.05829494
141	0xbcc9a1be	-0.024613257
142	0xbd3003e6	-0.042972468
143	0xbcda1fb9	-0.026626455
144	0xbdce54c4	-0.100747615
145	0x3e129070	0.14312911
146	0xbe230943	-0.15921502
147	0xbdf490d3	-0.119416855
148	0xbe18db3b	-0.1492738
149	0x3e10cfb7	0.14141737
150	0xbb3b5be7	-0.0028588714
151	0x3c8c56bf	0.017131208
152	0x3c7efd08	0.015563257
153	0x3d40db80	0.04708433
154	0x3d01037b	0.03149746
155	0xbcbd234d	-0.023088122
156	0xbdaf65ed	-0.08564363
157	0xbe04a341	-0.12952901
158	0xbd533130	-0.05156058
159	0x3be968eb	0.007123103
160	0xbd0cf8de	-0.034417026
161	0x3d45f8b1	0.048332874
162	0xbe2f393a	-0.17111674
163	0x3ad0a0cd	0.0015917063
164	0xbb8ca05d	-0.0042915777
165	0x3ddf72b2	0.10910548
166	0xbb4214f5	-0.0029614542
167	0xbda99637	-0.08280604
168	0xbe2e6bbb	-0.17033283
169	0x3af94f64	0.0019020853
170	0x3da06ecc	0.07833633
171	0xbe0c1330	-0.13679194
172	0xbcbe1a83	-0.023206001
173	0x3d6aba2b	0.05730645
174	0xbd5f8462	-0.05456961
175	0xbdb38f72	-0.087675944
176	0xbd5f8bc2	-0.054576643
177	0xbd37cc03	-0.044872295
178	0xbd10db0c	-0.03536515
179	0x3d386a8d	0.04502349
180	0x3d2e15e8	0.04250136
181	0xbcf68ef2	-0.030097459
182	0xbdf8b41f	-0.1214373
183	0xbd44dadc	-0.048060283
184	0xbcce92e4	-0.025216527
185	0x3d8316bd	0.06400821
186	0xbcc61e3d	-0.02418434
187	0x3d468ab0	0.048472106
188	0x3d5443df	0.05182254
189	0x3d20bff4	0.03924556
190	0xbe2372df	-0.15961789
191	0xbda547ed	-0.080703594
192	0xbd97cb2a	-0.07411797
193	0x3db7534a	0.08951433
194	0xbd7a3e3c	-0.061094508
195	0x3c158ec3	0.009128275
196	0xbc3e57b0	-0.011617586
197	0xbe3b14e2	-0.18269685
198	0xbd4d1b82	-0.05007506
199	0xbd8078d8	-0.06273049
200	0xbe0e5698	-0.1390022
201	0xbc87b439	-0.016565429
202	0xbe23c8e2	-0.159946
203	0xbe29f775	-0.16598304
204	0xbe196967	-0.14981614
205	0xbe31bac8	-0.17356408
206	0xbdae966a	-0.08524783
207	0xbe01ed44	-0.12688166
208	0x3d2dde17	0.04244813
209	0x3be0fc4b	0.006866013
210	0xbaec3530	-0.0018021222
211	0x3d3ef80b	0.04662327
212	0xbe273256	-0.16327795
213	0xbe0a66ca	-0.13515773
214	0x3d39a2ef	0.0453214
215	0x3cfdcc12	0.030981097
216	0xbd251329	-0.040301476
217	0x3c213f9e	0.009841828
218	0xbce54892	-0.027988706
219	0xbd8e5e9a	-0.069516376
220	0xbdd0b10a	-0.101900175
221	0xbc84c329	-0.01620634
222	0xbe43d8c7	-0.19125663
223	0x3d814c09	0.06313331
224	0xbe2e6ae2	-0.1703296
225	0xbe1e6869	-0.15469517
226	0x3dc268b0	0.09492624
227	0xbe07c045	-0.13256939
228	0xbdf81551	-0.12113441
229	0xbcf2e278	-0.029649004
230	0xbe2d3cb7	-0.16917692
231	0xbd872915	-0.06599633
232	0xbc926960	-0.017872512
233	0xbdae4c4f	-0.085106485
234	0xbd78661e	-0.06064426
235	0xbe137923	-0.14401679
236	0xbda79416	-0.08182542
237	0xbc73f060	-0.014888853
238	0xbe3c1906	-0.1836892
239	0xbe1c856d	-0.15285273
240	0x3d143486	0.036182903
241	0xbe369e12	-0.17833737
242	0xbdae5e23	-0.08514049
243	0xbd9699e8	-0.07353574
244	0x3d8343a2	0.06409384
245	0x3d02d47d	0.031940926
246	0x3d463aed	0.04839604
247	0xbdfdd43a	-0.12393995
248	0xbe2d3c28	-0.16917479
249	0xbda31856	-0.07963626
250	0x3df1427a	0.117802575
251	0xbd3a0c4e	-0.04542189
252	0xbe037ef7	-0.12841402
253	0xbe305454	-0.17219669
254	0x3d3619ac	0.044458076
255	0xbd0f4f35	-0.034987647

classifier.0.bias f4 [64]
0	0xbde7b4d1	-0.11313785
1	0xbc58c491	-0.013230459
2	0xbba9bba7	-0.0051798406
3	0xbe209d8f	-0.15685104
4	0xbd9547f5	-0.07289115
5	0xbd712d36	-0.058881007
6	0xbddccc88	-0.10781199
7	0xbe05c694	-0.13064033
8	0x3e921282	0.28529745
9	0xbe9ee69c	-0.31035316
10	0xbe3955f1	-0.1809919
11	0x3e0560e8	0.13025248
12	0xbe1cb0bd	-0.15301795
13	0xbe02e390	-0.1278212
14	0xbcbe0839	-0.02319728
15	0xbdba00b3	-0.090821646
16	0xbdbf27cf	-0.09333765
17	0xbc702a58	-0.014658533
18	0x3f0d7a3a	0.5526463
19	0xbdfb4cd5	-0.12270514
20	0xbe536c13	-0.20646696
21	0xbe19897c	-0.14993852
22	0xbcffa069	-0.03120442
23	0xbe2a9682	-0.16658977
24	0xbe8857e1	-0.26629546
25	0xbe1e2b5f	-0.15446232
26	0xbdbee337	-0.093206815
27	0xbd3c2861	-0.045936946
28	0x3ebc7174	0.36805308
29	0xbdd36f24	-0.10323933
30	0xbe4851c0	-0.19562435
31	0xbcffd664	-0.03123016
32	0xbde8b917	-0.11363428
33	0xbc07214c	-0.008247685
34	0xbd800a2d	-0.06251941
35	0x3e267d4d	0.16258736
36	0xbe1db3d2	-0.15400627
37	0xbd14ad60	-0.036298156
38	0xbe3b514f	-0.18292736
39	0xbd769898	-0.06020412
40	0xbddcb421	-0.10776544
41	0xbc00c272	-0.007858859
42	0x3deb3ce9	0.11486227
43	0xbbdb7934	-0.006697798
44	0x3e181532	0.14851835
45	0xbee75c2e	-0.45187515
46	0xbe85d7fe	-0.2614135
47	0x3e6a9a49	0.22910418
48	0x3ea77133	0.32703552
49	0xbdfaf618	-0.1225397
50	0xbdb27c81	-0.087151535
51	0x3eaa2ce6	0.3323738
52	0xbd29fcde	-0.04150092
53	0x3cdaa83b	0.026691547
54	0x3eae95de	0.34098715
55	0xbe38b452	-0.18037537
56	0x3e6d585b	0.23178236
57	0xbd10f39b	-0.03538857
58	0xbe5ca96a	-0.21549001
59	0xbe8fc9e4	-0.28083718
60	0xbe6a095c	-0.22855133
61	0x3e436841	0.19082738
62	0xbe09854c	-0.13429755
63	0xbc92f791	-0.017940314

classifier.3.weight f4 [2, 64]
0	0x3e0cc25c	0.13746017
1	0x3de7c75d	0.113173224
2	0x3c15e369	0.009148457
3	0xbbc4e88e	-0.006009168
4	0x3d25fa41	0.040521864
5	0x3e498e39	0.1968316
6	0xbd065864	-0.03279914
7	0x3c33005c	0.010925379
8	0xbda16bb8	-0.07881874
9	0xbe09d34a	-0.13459507
10	0xbde231fe	-0.110446915
11	0xbdf6a858	-0.12043828
12	0x3d426181	0.04745627
13	0xbdc794d0	-0.097451806
14	0x3e5e7089	0.21722616
15	0xbd08abee	-0.03336709
16	0xbd9a3d35	-0.075312056
17	0x3c978664	0.0184967
18	0xbd43cb50	-0.047801316
19	0x3c1e669b	0.009668018
20	0x3d70f33e	0.058825724
21	0x3c690f36	0.014224818
22	0xbcf7bf09	-0.03024246
23	0xbdf83117	-0.12118738
24	0xbe347d9d	-0.17626043
25	0x3daeb1ff	0.08530044
26	0xbc36c910	-0.0111563355
27	0x3bb1466d	0.0054100067
28	0x3debf274	0.11520854
29	0x3ce3e78d	0.027820373
30	0x3cfe22b1	0.031022402
31	0xbcc3caed	-0.023900473
32	0xbe1ac7a9	-0.15115227
33	0xbb9d3317	-0.00479735
34	0xbc27c96d	-0.010240895
35	0x3ae4ab9d	0.0017446164
36	0x3d280062	0.04101599
37	0xbd57cb8f	-0.052684363
38	0xbd704658	-0.058660835
39	0xbda01800	-0.07817078
40	0xbbeb18f9	-0.007174608
41	0x3d8acffe	0.067779526
42	0xbdb55c14	-0.08855453
43	0x3d09312e	0.033494167
44	0x3d218175	0.0394301
45	0xbda961a0	-0.082705736
46	0xbc2a02d7	-0.010376654
47	0xbd528432	-0.051395603
48	0xbe0754c6	-0.13215932
49	0xbd07b57a	-0.033132054
50	0xbce8508a	-0.028358717
51	0xbe0ec62a	-0.13942781
52	0x3d7b46a6	0.061346672
53	0xbc762029	-0.015022316
54	0xbcd54e9b	-0.026038459
55	0xbd9d2e4a	-0.076748446
56	0xbe0762f0	-0.13221335
57	0x3d7e1601	0.062032703
58	0xbd8c4768	-0.06849557
59	0xbd19d000	-0.03755188
60	0x3d4d027a	0.05005119
61	0x3c18be87	0.009322769
62	0xbe16a4ee	-0.14711353
63	0x3d6adc69	0.057339106
64	0xbe69e299	-0.22840346
65	0x3d8ef31d	0.06979964
66	0x3c405de3	0.011741134
67	0xbd3bb610	-0.045827925
68	0x3d1f21d0	0.038850605
69	0xbe4cce67	-0.20000611
70	0xbd89e402	-0.06732942
71	0x3d9b19eb	0.07573303
72	0xbc6af36a	-0.014340261
73	0x3a046150	0.0005049901
74	0x3da1582d	0.07878146
75	0x3ddf1c59	0.10894079
76	0x3dce5cdd	0.10076306
77	0xbd38e52f	-0.04514044
78	0xbe66ccc4	-0.2253905
79	0xbe463e35	-0.19359668
80	0xbc027ffa	-0.007965082
81	0x3c7bc209	0.015366086
82	0xbb019f35	-0.0019778733
83	0x3d025ab7	0.031824794
84	0xbd72a301	-0.059237484
85	0x3dc160de	0.09442304
86	0xbcad6fc4	-0.021171458
87	0x3d203447	0.039112356
88	0xbd88940b	-0.06668862
89	0xbc174f0c	-0.009235155
90	0x3d35c660	0.04437864
91	0xbc928bc1	-0.017888905
92	0xbd2c124f	-0.042009648
93	0xbcb609bc	-0.022221439
94	0xbd7c95c2	-0.061666258
95	0xbd8682ad	-0.06567893
96	0x3af67d8f	0.001880573
97	0xbcaf5f6c	-0.021407805
98	0x3c40ac0f	0.011759772
99	0x3cacc025	0.021087715
100	0x3dd4a7bf	0.103835575
101	0x3cdba187	0.02681042
102	0x3d82828a	0.063725546
103	0x3c2f8fe0	0.010715455
104	0x3ca18b0d	0.019719625
105	0xbc796ef5	-0.015224208
106	0x3d9b64de	0.07587598
107	0x3d1e3cbc	0.03863214
108	0x3d4cbaca	0.049982823
109	0x3d95ffef	0.07324206
110	0xbd96ddbe	-0.07366513
111	0xbbfeebe6	-0.007779586
112	0xbce51235	-0.027962783
113	0x3d3ec74c	0.046576783
114	0xbd1a4167	-0.03766003
115	0xbcd4f132	-0.025993917
116	0x3d2afac4	0.041743055
117	0x3e13a5ee	0.14418766
118	0x390f80fa	0.0001368559
119	0x3cad8450	0.021181256
120	0x3b132215	0.0022450734
121	0x3cd334e0	0.025782049
122	0x3c2932e5	0.010327076
123	0x3e1e9df6	0.15489945
124	0x3d5e0763	0.054206263
125	0x3de1ccdb	0.11025401
126	0xbcd7e650	-0.026354939
127	0xbd956ce4	-0.0729616

classifier.3.bias f4 [2]
0	0xbe88e936	-0.26740426
1	0x3e558c3b	0.20854275
