kgnn_interpretation/old_claude2/trained_2gnn.pt (torch, 61372 bytes, 8 tensors)

layers.0.W1.weight f4 [64, 15]
-0.23155843 -0.5130487 -0.16375355 0.7227925 -0.07694355 0.7630609 1.0020411 -0.45575398
-0.016953591 0.05495663 0.11562409 -0.0028068987 -0.048400287 -0.23451088 0.004307142 0.07825803
-0.06503569 -0.17244144 -0.1556696 -0.15796739 -0.231286 -0.13763252 0.008981811 -0.001381593
-0.075897634 -0.35357577 -0.175 -0.16550839 -0.0030185182 -0.109087504 -0.24065083 0.30586785
-0.22939795 -0.10822249 0.18845609 -0.10981998 -0.014667898 -0.50337195 0.17612347 0.0655554
0.17586564 0.072191425 0.5244188 -0.44721058 0.19349454 0.115660295 0.14497375 -0.0069062533
0.29190636 -0.0025284588 -0.19636181 -0.22121763 -0.26063645 0.038100734 -0.19179383 0.08280942
-0.30004898 0.101543315 -0.1671772 -0.1800446 -0.018144857 -0.21665497 0.18676637 -0.1042537
-0.18940625 -0.12340348 -0.17863084 -0.15069059 -0.3708621 -0.0132097 -0.33136913 0.15956412
0.14865614 0.3012456 -0.34059656 0.03541543 -0.2612995 0.005186863 0.5875867 -0.036414266
0.25968948 -0.112875335 -0.57399523 -0.054176237 -0.12012379 0.23298661 0.061887976 0.30325332
0.002284556 -0.015597767 -0.050148603 0.20902108 -0.37661377 -0.21688846 -0.15477873 -0.27533016
-0.12708898 -0.23591706 -0.172799 -0.25739676 0.20197062 0.21634193 0.06652232 -0.096721165
-0.20412898 -0.2960818 -0.2512648 0.055485174 -0.1417631 -0.16599011 -0.020145506 -0.08598311
-0.06899741 -0.101544045 -0.08132343 -0.15083113 -0.123627156 -0.21012932 0.22446917 -0.16623989
-0.036816336 -0.17489368 -0.11657116 0.03931057 0.118958086 -0.2643797 -0.09219689 0.17026867
-0.024904327 0.012372768 0.14279944 -0.09186345 -0.06196917 -0.17945729 -0.11495878 0.042265035
0.11267719 -0.16102289 -0.20704582 -0.17644374 -0.25481072 -0.19923633 -0.17901164 0.025620563
-0.12436316 -0.15213041 -0.20713332 -0.092949934 -0.29050297 -0.03457058 -0.03643283 -0.23847386
-0.17664137 -0.14888315 -0.061085552 -0.24898121 -0.28363848 -0.20871687 -0.18601547 0.08671089
-0.18030186 -0.17338778 -0.07481246 0.091084406 0.026379151 0.09839761 0.07564183 -0.33745152
0.0228993 0.15640476 -0.18858375 -0.15215123 0.1430725 -0.18854865 -0.21544845 -0.29255283
-0.13719447 0.032144297 0.043979816 -0.049914524 -0.24598426 -0.22772866 -0.087081335 0.36656868
0.14896044 -0.15033224 -0.086982265 -0.28294253 -0.10674308 -0.006699058 0.041360646 0.085314706
-0.23705396 0.08336835 -0.19526933 -0.012347442 0.45977902 0.08337252 0.47337675 -0.21999875
-0.3991612 0.39199945 -0.13744265 -0.13226408 -0.027943803 0.33073723 0.74391526 0.23659363
0.27863288 -0.29298198 -0.07806452 0.04355578 -0.17389643 -0.07224345 0.1743792 0.007759394
0.011649489 -0.16477874 -0.29387203 -0.24277343 -0.12342295 -0.14485136 0.07473637 -0.15298134
-0.20570469 0.17327894 -0.03983472 0.10523659 -0.12499738 -0.10546568 0.05780264 -0.17203149
-0.19802874 -0.15599054 -0.1915253 -0.23782542 0.023840481 0.083331995 -0.0970116 -0.064850084
-0.20833094 0.14941831 -0.07310649 0.13597676 -0.03264086 -0.21763135 0.05912034 -0.27138492
0.36883318 -0.20947346 -0.1712722 -0.18033832 -0.19693771 -0.081343114 0.09728141 -0.1074041
00000000: a71d 6dbe 2957 03bf 03af 27be ee08 393f
00000010: 9494 9dbd f657 433f e242 803f 9658 e9be
00000020: 42e2 8abc 341a 613d 53cc ec3d f2f3 37bb
00000030: 613f 46bd 9f23 70be ed22 8d3b bf45 a03d
00000040: 6f31 85bd 7d94 30be da67 1fbe 34c2 21be
00000050: 3dd6 6cbe 8aef 0cbe 7228 133c 9216 b5ba
00000060: 3870 9bbd e207 b5be 3333 33be 087b 29be
00000070: 55d2 45bb 4569 dfbd 2c6d 76be b69a 9c3e
00000080: 4ce7 6abe c1a3 ddbd a2fa 403e 4ce9 e0bd
00000090: a051 70bc fcdc 00bf b659 343e e941 863d
000000a0: 1f16 343e 19d9 933d 4f40 063f c9f8 e4be
000000b0: 6f23 463e 4edf ec3d 0074 143e da4d e2bb
000000c0: c074 953e 80b4 25bb 1213 49be e086 62be
000000d0: 2472 85be 840f 1c3d 9a65 44be fc97 a93d
000000e0: 05a0 99be f1f5 cf3d 8030 2bbe 9d5d 38be
000000f0: 86a4 94bc cdda 5dbe af3f 3f3e f782 d5bd
00000100: b6f3 41be f7ba fcbd 01eb 36be a24e 1abe
00000110: a3e1 bdbe 7f6d 58bc 37a9 a9be c764 233e
00000120: 5139 183e dd3c 9a3e ac62 aebe c50f 113d
00000130: 0cc9 85be 8ff6 a93b 156c 163f 2027 15bd
00000140: 05f6 843e 2f2b e7bd 5af1 12bf e7e7 5dbd
00000150: 7603 f6bd 0b94 6e3e 3f7e 7d3d 0544 9b3e
00000160: 7db8 153b c78d 7fbc 9f68 4dbd 9f09 563e
00000170: 85d3 c0be 0218 5ebe 517e 1ebe 13f8 8cbe
00000180: 9d23 02be 3e94 71be 39f2 30be 82c9 83be
00000190: 63d1 4e3e bd88 5d3e db3c 883d bf15 c6bd
000001a0: 3007 51be 0998 97be c8a5 80be 6c44 633d
000001b0: 592a 11be 50f9 29be 3008 a5bc ea17 b0bd
000001c0: 844e 8dbd 53f6 cfbd e68c a6bd 7a73 1abe
000001d0: 3c30 fdbd 242c 57be 3fdb 653e ca3a 2abe
000001e0: bacc 16bd 5417 33be dcbc eebd 1f04 213d
000001f0: 4ca0 f33d c75c 87be b9d1 bcbd e95a 2e3e
00000200: 2904 ccbc 26b7 4a3c 043a 123e e822 bcbd
00000210: 62d3 7dbd a7c3 37be 826f ebbd 1a1e 2d3d
00000220: 4cc3 e63d 2fe3 24be d203 54be abad 34be
00000230: 8d76 82be 9c04 4cbe d44e 37be 37e2 d13c
00000240: 1db2 febd 13c8 1bbe c21a 54be 895c bebd
00000250: cebc 94be e199 0dbd 973a 15bd 7e32 74be
00000260: 7ae1 34be d374 18be d834 7abd eef4 7ebe
00000270: 1039 91be e0b9 55be d77a 3ebe 7b95 b13d
00000280: 0da1 38be 918c 31be 4637 99bd 768a ba3d
00000290: 1719 d83c b084 c93d 1bea 9a3d 72c6 acbe
000002a0: 5097 bb3c 9228 203e 191c 41be 88cd 1bbe
000002b0: 9981 123e e612 41be 859e 5cbe 7cc9 95be
000002c0: b57c 0cbe bda9 033d 2e24 343d 2c73 4cbd
000002d0: 4ce3 7bbe b431 69be b357 b2bd e4ae bb3e
000002e0: 1689 183e b2f0 19be c223 b2bd d8dd 90be
000002f0: 1e9c dabd c683 dbbb c869 293d 7ab9 ae3d
00000300: 46be 72be 07bd aa3d aff4 47be ed4c 4abc
00000310: 2868 eb3e 36bf aa3d 705e f23e 5a47 61be
00000320: db5e ccbe 27b4 c83e c4bd 0cbe 3c70 07be
00000330: 67ea e4bc 6456 a93e 3b71 3e3f 9a45 723e
00000340: f8a8 8e3e bc01 96be 4be0 9fbd 8c67 323d
00000350: e811 32be 60f4 93bd 7690 323e 8442 fe3b
00000360: 80dd 3e3c c2bb 28be 6576 96be 9999 78be
00000370: 2cc5 fcbd ea53 14be 620f 993d 24a7 1cbe
00000380: 40a4 52be 0970 313e bb29 23bd 4886 d73d
00000390: a0fe ffbd 64fe d7bd 76c2 6c3d 0629 30be
000003a0: 0cc8 4abe fcbb 1fbe 351f 44be 8288 73be
000003b0: 1d4d c33c f7a9 aa3d 05ae c6bd 1fd0 84bd
000003c0: b554 55be 1d01 193e dbb8 95bd 7e3d 0b3e
000003d0: 6cb2 05bd c1da 5ebe 2b28 723d f7f2 8abe
000003e0: b4d7 bc3e 3680 56be fb61 2fbe 9caa 38be
000003f0: 0aaa 49be 3897 a6bd 7a3b c73d aef6 dbbd

layers.0.W2.weight f4 [64, 15]
-0.26670414 0.47198 -0.28156728 -0.2182925 0.20489421 0.07787818 0.04791221 -0.33983156
0.6666474 -0.0962953 0.17709461 -0.20110342 0.2356894 0.020012945 0.12418467 0.05938989
0.049646918 -0.3154239 0.22609544 -0.1753622 0.019356161 -0.18041998 -0.1749749 -0.19098398
-0.1718003 -0.16861826 0.40447727 0.10454113 0.09844207 0.14445451 0.060274232 0.49735805
0.0452114 0.020529985 0.053136587 -0.22518313 -0.2079939 0.04865719 -0.205923 -0.09575813
0.16519023 -0.06649524 0.3262515 -0.0320816 0.20678133 0.22383778 -0.010751025 -0.271937
-0.20890224 -0.14149821 -0.1005107 -0.019434497 -0.04152067 -0.15011466 0.07262607 0.04531851
0.115315594 0.018653018 -0.09876436 0.10733265 -0.15145092 0.18525578 0.01455323 0.23721477
-0.18909442 0.16598663 0.21669051 -0.23064467 0.11231557 0.050631423 0.0028275847 0.07287854
-0.09027189 -0.22519688 0.06526753 0.11245745 -0.19563553 -0.9472881 -0.22055934 0.22221217
0.25003728 0.070296824 -1.0882121 0.32910094 -0.104563646 0.2611083 -0.072778374 0.34252706
-0.2764202 -0.05808057 -0.034479335 0.0066226963 0.10431011 -0.135616 -0.009402737 0.04824528
-0.068574786 0.045143604 -0.019730207 -0.33005545 -0.070608556 -0.16872086 -0.009898514 -0.07525763
-0.2561163 -0.10855239 -0.024730101 -0.07613729 0.2372281 -0.056338772 0.16587141 0.06396043
-0.21795423 0.0006182034 0.15392374 -0.16888806 -0.16689329 0.25273773 0.1548895 -0.14404762
0.12836844 -0.016278118 -0.27498224 0.019399375 0.08342251 -0.07744956 0.08982313 -0.25044852
0.19471416 0.20276675 0.108522534 -0.009439322 -0.028161552 -0.26675117 -0.064517036 -0.014110131
0.27084363 -0.2268502 0.1736691 0.17522544 -0.2344932 0.08216196 0.12144174 0.10993631
0.3168012 0.3745887 -0.076721326 0.37411734 0.15155467 -0.24382445 -0.31096655 -0.019929998
0.022130344 -0.12827657 0.028436601 -0.0003748238 0.06535211 -0.24438156 0.07643478 0.05534023
-0.17915344 0.002501279 0.0007163882 0.029172882 0.24053407 -0.029892921 0.33845684 0.15253843
-0.09825316 -0.07497367 0.01762861 -0.19662073 -0.06950642 -0.273471 -0.035105694 0.12017927
-0.11310579 -0.28722316 -0.33721972 0.11880177 0.22118573 -0.30866578 0.16127044 -0.19006577
0.016186833 0.24021733 0.19587463 -0.28282905 0.16199203 0.16820942 -0.060691796 0.11804462
-0.04242618 -0.109987095 -0.13049737 -0.022096016 0.015772052 0.020573348 -0.14527227 -0.116232485
0.087827 -0.2263956 -0.11681559 -0.025643174 -0.10461286 0.04619503 0.12305184 0.13819367
-0.02293104 -0.16295925 0.07476602 -0.05415711 -0.056451626 -0.1701796 0.06051898 -0.24625784
0.06800386 0.019880814 -0.30941105 -0.16128553 -0.24248335 0.13389197 0.17454267 -0.0029110424
0.24239859 -0.03066888 -0.19609866 -0.14582965 0.09147173 0.25313362 -7.4744225e-05 0.19788262
0.24823196 -0.036890157 -0.30447015 0.29662853 -0.16546527 0.14121136 -0.0125751905 -0.22882028
0.051080283 0.027730096 -0.46350834 -0.093606964 0.02662164 0.20109734 -0.079377994 0.15253887
-0.146983 0.13841301 0.21352677 -0.22622223 -0.10634393 0.06461863 -0.24060367 -0.17387964
00000000: 728d 88be 5da7 f13e 9629 90be 1288 5fbe
00000010: cacf 513e 987e 9f3d 983f 443d 67fe adbe
00000020: 67a9 2a3f 7836 c5bd 4a58 353e 0eee 4dbe
00000030: 9058 713e 30f2 a33c 8854 fe3d d042 733d
00000040: 915a 4b3d 3e7f a1be 9085 673e 2692 33be
00000050: d090 9e3c 04c0 38be 9f2c 33be 4e91 43be
00000060: 6bec 2fbe 44aa 2cbe a517 cf3e a919 d63d
00000070: ff9b c93d e2eb 133e 1de2 763d b7a5 fe3e
00000080: 972f 393d 802e a83c c0a5 593d 6896 66be
00000090: 5afc 54be c34c 473d 7bdd 52be d71c c4bd
000000a0: a127 293e a82e 88bd 700a a73e ff67 03bd
000000b0: 7cbe 533e bb35 653e 1125 30bc 543b 8bbe
000000c0: 78ea 55be e8e4 10be 8ed8 cdbd 1835 9fbc
000000d0: 9411 2abd a8b7 19be fabc 943d e79f 393d
000000e0: 952a ec3d 37ce 983c f844 cabd 38d1 db3d
000000f0: f315 1bbe b1b3 3d3e ac70 6e3c 6ee8 723e
00000100: f8a1 41be 66f8 293e 1ee4 5d3e 1e2e 6cbe
00000110: b505 e63d e562 4f3d 004f 393b 5841 953d
00000120: 78e0 b8bd 039a 66be fcaa 853d 1750 e63d
00000130: ae54 48be 7981 72bf 4fda 61be 968b 633e
00000140: e304 803e c8f7 8f3d 894a 8bbf eb7f a83e
00000150: 7725 d6bd fdaf 853e d40c 95bd b55f af3e
00000160: f386 8dbe e4e5 6dbd 343a 0dbd 3403 d93b
00000170: 8aa0 d53d ecde 0abe f00d 1abc d89c 453d
00000180: f070 8cbd 80e8 383d 3ea1 a1bc 07fd a8be
00000190: 389b 90bd 29c5 2cbe 602d 22bc ac20 9abd
000001a0: ad21 83be b750 debd c896 cabc deed 9bbd
000001b0: eceb 723e 7cc3 66bd 32da 293e b0fd 823d
000001c0: 652f 5fbe ee0e 223a 2f9e 1d3e fef0 2cbe
000001d0: 13e6 2abe d766 813e 5a9b 1e3e 3881 13be
000001e0: 0473 033e b059 85bc 79ca 8cbe 70eb 9e3c
000001f0: 6cd9 aa3d e09d 9ebd 30f5 b73d ca3a 80be
00000200: 2663 473e 16a2 4f3e 1041 de3d 63a7 1abc
00000210: 0eb3 e6bc 9c93 88be 8221 84bd 2e2e 67bc
00000220: 04ac 8a3e 6b4b 68be 50d6 313e 4c6e 333e
00000230: fc1e 70be 8844 a83d 72b6 f83d 4a26 e13d
00000240: c433 a23e 17ca bf3e 1220 9dbd 4f8c bf3e
00000250: 2631 1b3e 1ead 79be 0237 9fbe 3c44 a3bc
00000260: b24a b53c ef5a 03be e0f3 e83c 0084 c4b9
00000270: 54d7 853d 293f 7abe d789 9c3d 70ac 623d
00000280: 0074 37be 80ec 233b 00cc 3b3a f8fb ee3c
00000290: 904e 763e 00e2 f4bc 374a ad3e 0933 1c3e
000002a0: f438 c9bd cc8b 99bd e069 903c f256 49be
000002b0: 6259 8ebd 6404 8cbe fdca 0fbd 8d20 f63d
000002c0: 02a4 e7bd ea0e 93be 10a8 acbe 584e f33d
000002d0: 837e 623e 7109 9ebe 1424 253e 9aa0 42be
000002e0: 409a 843c 88fb 753e 5c93 483e f8ce 90be
000002f0: 3de1 253e 173f 2c3e f697 78bd 61c1 f13d
00000300: 13c7 2dbd ea40 e1bd 1aa1 05be b402 b5bc
00000310: 6434 813c 7089 a83c 41c2 14be 4c0b eebd
00000320: a4de b33d 40d4 67be 033d efbd a211 d2bc
00000330: 443f d6bd 0037 3d3d 9a02 fc3d a482 0d3e
00000340: e0d9 bbbc cade 26be ed1e 993d d9d3 5dbd
00000350: d239 67bd 9043 2ebe c0e2 773d 042b 7cbe
00000360: 9c45 8b3d 17dd a23c 206b 9ebe 0928 25be
00000370: 8e4d 78be fa1a 093e 50bb 323e 30c7 3ebb
00000380: 5637 783e 4e3d fbbc 16ce 48be 5e54 15be
00000390: 8855 bb3d bb9a 813e 00c0 9cb8 bea1 4a3e
000003a0: 8530 7e3e 221a 17bd 83e3 9bbe b2df 973e
000003b0: ba6f 29be b699 103e 2c08 4ebc dd4f 6abe
000003c0: 8f39 513d 3a2a e33c f750 edbe 02b5 bfbd
000003d0: a015 da3c 76ec 4d3e ee90 a2bd 2633 1c3e
000003e0: b682 16be 24bc 0d3e c3a6 5a3e cda6 67be
000003f0: d9ca d9bd c656 843d cf60 76be 810d 32be

layers.1.W1.weight f4 [64, 64]
0.052674245 -0.065572016 -0.07674927 0.010409736 -0.060176656 -0.082003206 -0.017282736 0.035846315
-0.02683339 0.028708883 0.02399559 -0.02304328 -0.016073143 -0.01646538 -0.04682216 0.0487085
0.050555136 -0.016466625 -0.06480387 0.053239506 -0.15573438 0.030198205 0.007624206 0.021571625
-0.0676141 -0.15182029 0.030529015 -0.1144176 -0.026987895 0.015931793 -0.2082043 -0.049770318
-0.10187547 0.030513428 -0.13700098 0.018890128 -0.004393024 0.009990957 0.0620993 -0.04110412
-0.1721901 0.036419507 -0.046129912 -0.078994095 -0.17816006 -0.08612144 -0.11889588 0.06262151
0.030686518 0.029613929 0.02685165 -0.13569969 -0.111232504 -0.10660903 -0.10535371 0.03818401
-0.017502096 0.042360652 -0.052749302 -0.17116731 -0.09480491 0.028911253 0.017798452 -0.021016903
-0.06633323 -0.17381382 -0.119427174 -0.07635515 -0.29304823 -0.05496796 0.017148543 -0.06409282
-0.024340695 -0.14462394 -0.010929284 -0.06821724 -0.2104606 -0.04872175 0.009857403 -0.095755965
0.07776144 -0.12343739 -0.1789623 -0.19336748 -0.12587532 -0.07340959 -0.037923265 0.042053066
-0.14724064 -0.060996264 -0.0963391 0.0172123 -0.0059765363 0.08446535 0.18460402 -0.10392845
-0.02598843 -0.26954243 -0.08492356 -0.19485286 0.046413988 0.015269395 -0.08979282 -0.01262302
-0.05780704 -0.3178662 -0.111064084 -0.4052222 -0.0138513185 -0.121433906 -0.16159959 -0.08031305
0.015199026 0.090040304 -0.11098886 -0.15928738 -0.030243093 -0.060989052 -0.036695622 -0.16636278
0.1034467 0.08270773 -0.14725867 -0.016331624 -0.15883937 -0.023020824 -0.12705027 0.0033777806
-0.090134755 0.067813985 0.03881197 -0.14163204 -0.11768299 -0.050695572 -0.0904823 0.036695838
-0.14020272 -0.0044208686 -0.10796867 -0.121559694 -0.06571272 0.0048998133 -0.058861274 -0.17571688
-0.12697348 -0.057847112 -0.17156698 -0.03958237 -0.011045878 -0.07852271 -0.10533144 -0.056346513
-0.15487367 -0.13169953 -0.058437176 0.055475876 -0.09402694 0.061957434 -0.0491938 -0.088862374
-0.11899306 0.10356063 0.12171595 -0.0026254058 0.07942122 0.046653952 0.062089697 0.008788732
-0.17458756 -0.117458835 -0.09594254 0.039098203 -0.16370825 -0.15100667 -0.060587853 -0.17079803
0.00016842782 -0.037543282 -0.07315005 0.026257062 -0.04745561 -0.09077835 0.095234394 0.051732678
-0.014340058 -0.08973476 -0.06270863 -0.039668128 0.017685395 0.006646596 -0.1107861 -0.11817083
-0.1955967 -0.09949154 -0.04862605 -0.14278473 -0.14435099 -0.06359685 -0.14813408 -0.2001857
-0.17316322 -0.08700233 0.049986374 -0.023746058 -0.10731081 -0.043956302 -0.01034108 -0.074633904
-0.17994507 -0.14420933 -0.15359674 -0.05081883 -0.17116472 -0.08728895 -0.11726662 0.06361449
0.03021236 -0.019376252 -0.047717452 -0.14057724 -0.021262715 -0.12010873 -0.15370585 -0.085430525
-0.106440715 -0.14281636 -0.022250714 0.044876795 -0.14853355 -0.025191724 -0.079258315 -0.062207244
-0.08241854 0.01812535 -0.04358751 -0.13627842 -0.116366744 -0.007422656 -0.03647648 -0.014496269
-0.08775071 -0.12617196 -0.09970706 -0.14811473 -0.07327314 -0.016613849 0.032566432 -0.12059678
-0.04801324 0.032772608 -0.019078208 -0.04601059 -0.048753854 -0.09239393 -0.17236191 -0.08194252
00000000: f3c0 573d 9f4a 86bd b92e 9dbd 998d 2a3c
00000010: cc7b 76bd 4cf1 a7bd 8694 8dbc 96d3 123d
00000020: b3d1 dbbc e42e eb3c 6692 c43c 43c5 bcbc
00000030: d3ab 83bc 68e2 86bc 98c8 3fbd 9082 473d
00000040: e712 4f3d 04e5 86bc e4b7 84bd ab11 5a3d
00000050: d578 1fbe 3a62 f73c 7ad4 f93b fab6 b03c
00000060: 4379 8abd c776 1bbe fc17 fa3c c653 eabd
00000070: b815 ddbc 6483 823c 8233 55be f6db 4bbd
00000080: 16a4 d0bd 4cf7 f93c fc49 0cbe 78bf 9a3c
00000090: 5bf3 8fbb 1cb1 233c d65b 7e3d cb5c 28bd
000000a0: 9a52 30be 9f2c 153d b8f2 3cbd a8c7 a1bd
000000b0: 976f 36be 7060 b0bd af7f f3bd b53f 803d
000000c0: 4b62 fb3c e998 f23c fef7 db3c dcf4 0abe
000000d0: decd e3bd d655 dabd b0c3 d7bd d666 1c3d
000000e0: 8e60 8fbc 5d82 2d3d a70f 58bd 7c46 2fbe
000000f0: 1429 c2bd 4bd7 ec3c 0fce 913c a42b acbc
00000100: b7d9 87bd 40fc 31be 3c96 f4bd 1760 9cbd
00000110: 6b0a 96be 1526 61bd 1a7b 8c3c 1943 83bd
00000120: 2366 c7bc 4c18 14be bd10 33bc 7bb5 8bbd
00000130: fc82 57be 7590 47bd f280 213c b41b c4bd
00000140: 6441 9f3d becc fcbd e541 37be 2002 46be
00000150: 76e5 00be c457 96bd 6d55 1bbd d63f 2c3d
00000160: 40c6 16be 38d7 79bd 6f4d c5bd cf00 8d3c
00000170: d2d6 c3bb 2bfc ac3d d608 3d3e 70d8 d4bd
00000180: b0e5 d4bc 7701 8abe 67ec adbd 8287 47be
00000190: 981c 3e3d 7c2c 7a3c 4ce5 b7bd c9d0 4ebc
000001a0: 13c7 6cbd 5cbf a2be 9175 e3bd 4979 cfbe
000001b0: a4f0 62bc 57b2 f8bd 5d7a 25be 2b7b a4bd
000001c0: 5605 793c 0d67 b83d 214e e3bd 3b1c 23be
000001d0: 5dc0 f7bc a8cf 79bd 264e 16bd 015b 2abe
000001e0: dddb d33d ac62 a93d faca 16be e6c9 85bc
000001f0: caa6 22be 2b96 bcbc 7719 02be c15d 5d3b
00000200: 9298 b8bd 0fe2 8a3d 4df9 1e3d fd07 11be
00000210: c803 f1bd 29a6 4fbd c94e b9bd 604e 163d
00000220: 4d91 0fbe efdc 90bb ae1e ddbd 4af4 f8bd
00000230: 6494 86bd 9d8e a03b 8518 71bd 20ef 33be
00000240: 5605 02be 18f1 6cbd 41af 2fbe 2021 22bd
00000250: c5f9 34bc 84d0 a0bd 03b8 d7bd 9acb 66bd
00000260: 3497 1ebe 3edc 06be d25b 6fbd ac3a 633d
00000270: 3291 c0bd 14c7 7d3d 707f 49bd 7afd b5bd
00000280: a2b2 f3bd 9817 d43d 3646 f93d 000f 2cbb
00000290: 98a7 a23d 3718 3f3d c451 7e3d 9dfe 0f3c
000002a0: 15c7 32be 428e f0bd 867d c4bd 7025 203d
000002b0: 23a3 27be 7ea1 1abe f82a 78bd aee5 2ebe
000002c0: 009c 3039 fcc6 19bd b2cf 95bd 0d19 d73c
000002d0: d060 42bd 00ea b9bd 400a c33d a5e5 533d
000002e0: 90f2 6abc dcc6 b7bd 626d 80bd 0c7b 22bd
000002f0: f6e0 903c b0cb d93b d3e3 e2bd 8c03 f2bd
00000300: 804a 48be 38c2 cbbd 1c2c 47bd 2936 12be
00000310: bfd0 13be 113f 82bd 76b0 17be 7bfd 4cbe
00000320: b351 31be 472e b2bd 83be 4c3d 1887 c2bc
00000330: c5c5 dbbd 860b 34bd a26d 29bc a9d9 98bd
00000340: 8543 38be 9cab 13be 7748 1dbe 6827 50bd
00000350: ce45 2fbe 8dc4 b2bd 7b29 f0bd 5048 823d
00000360: e97f f73c f2ba 9ebc 6073 43bd 7bf3 0fbe
00000370: 252f aebc 91fb f5bd 1165 1dbe 33f6 aebd
00000380: 97fd d9bd 743e 12be 2147 b6bc bbd0 373d
00000390: 2e19 18be e05e cebc 2f52 a2bd 06cd 7ebd
000003a0: 0dcb a8bd 9d7b 943c d188 32bd 928c 0bbe
000003b0: b051 eebd c039 f3bb 5d68 15bd c281 6dbc
000003c0: a5b6 b3bd 3933 01be 3733 ccbd 63ab 17be
000003d0: 3a10 96bd c419 88bc 6164 053d 72fb f6bd
000003e0: 88a9 44bd 923c 063d e749 9cbc 9a75 3cbd
000003f0: 1fb2 47bd 0739 bdbd a47f 30be 7bd1 a7bd

layers.1.W2.weight f4 [64, 64]
-0.03977071 -0.15395539 -0.024938516 -0.15771274 -0.060604 -0.12751006 -0.13113947 -0.13324216
-0.12058256 -0.13440302 -0.12841587 -0.105612986 -0.1742685 0.039960667 -0.018047545 -0.18439515
-0.18487586 -0.123946905 -0.011837135 0.054348823 -0.079598434 0.014233548 -0.12774035 -0.08604051
-0.07945503 -0.12169862 -0.05941239 -0.02749032 0.016084963 -0.15677059 -0.09769154 -0.05535666
-0.04679516 -0.038974088 -0.15292004 0.036952972 -0.17297632 -0.103475474 0.002235748 -0.031174913
-0.12030178 -0.17856514 0.026031787 -0.0028067231 0.0003203641 -0.040115736 -0.15303946 -0.10422455
0.029051583 -0.12126834 -0.11764909 0.008472813 -0.114265166 -0.039673556 -0.060768276 -0.02199908
-0.047351345 -0.15927473 -0.15486352 -0.01479184 -0.101008125 0.007913092 -0.05357036 -0.102801345
0.03606714 -0.08488088 0.045836996 -0.017592872 -0.01923851 -0.09639702 0.079034224 0.09581751
0.0641328 -0.03869057 -0.038583104 -0.01313445 -0.07463501 -0.0912646 -0.0066599897 0.01927802
-0.15623905 0.07077804 0.027085748 0.037429243 -0.020296196 0.09995172 0.0684717 -0.052710615
-0.08892776 -0.08262033 -0.12997603 0.11243045 0.14508258 0.08274291 -0.013561755 -0.066733435
-0.04474928 -0.06655547 0.016872086 -0.006525102 0.123173006 0.010917329 -0.034030642 0.04478717
0.067735225 -0.03676857 0.06923666 -0.25667816 0.09494569 -0.03895834 0.014264992 -0.02865992
-0.051021814 -0.08074307 -0.17260596 0.038903456 0.10435829 0.023043232 -0.240773 0.1428937
-0.06939666 -0.10937429 -0.10982618 0.09955904 -0.06591244 0.011442269 -0.10312581 0.040374164
-0.118655756 -0.095508374 0.011315125 0.06457927 0.0558487 -0.0063820006 -0.051147323 0.093947604
0.054929394 0.0005292884 -0.018842986 -0.025446897 0.012719706 0.026916524 -0.02022724 -0.16098127
-0.07383877 -0.16910152 -0.093156 -0.049199607 -0.10858299 -0.17054448 -0.08129524 -0.002389566
-0.06439387 -0.07654435 -0.03535087 -0.026404098 -0.12370966 -0.057361096 -0.050950006 -0.17259204
-0.115278244 -0.047360376 -0.0086811185 0.06665653 -0.003383249 0.029773666 -0.014256519 -0.09955564
-0.11812446 -0.034297645 -0.15861459 0.01750657 -0.0258965 -0.15303014 -0.08189699 -0.16584416
0.068888694 0.07393345 -0.10274066 0.051871985 -0.13382712 0.049572676 -0.04810518 0.036522433
0.08686228 0.0026085412 -0.025296055 -0.06999681 -0.054668546 0.10673198 -0.09643906 -0.09606322
0.05540446 -0.12384691 -0.13145328 -0.04597561 0.006842291 -0.00032611418 -0.16278812 -0.04060964
-0.11677622 -0.012662964 -0.08933553 0.021406937 -0.15974788 -0.094934925 -0.05252253 -0.08574274
-0.14268932 0.06351293 -0.13292845 -0.034704782 -0.1994152 -0.06426687 -0.024726434 -0.10036894
-0.0054778853 -0.16679822 -0.042505994 0.024703892 -0.112766005 0.14138368 -0.053597204 -0.028097952
-0.040702898 -0.038697384 -0.13094637 -0.18545601 0.060849383 -0.10308845 -0.054143023 0.055194806
0.032446433 0.07749932 -0.16397008 -0.0013331622 -0.19772263 -0.008261445 0.04948948 -0.12462454
-0.04124439 -0.08513672 -0.07596411 0.021461675 -0.17409559 -0.06757325 -0.010948379 -0.14299187
0.054476425 0.051731646 -0.14998077 0.051775906 -0.08477954 0.12939785 -0.18750055 -0.010552202
00000000: 9de6 22bd 7ba6 1dbe dc4b ccbc 737f 21be
00000010: e63b 78bd ff91 02be 6d49 06be a270 08be
00000020: fdf3 f6bd f2a0 09be 737f 03be 9f4b d8bd
00000030: 7173 32be ccad 233d 72d8 93bc 15d2 3cbe
00000040: 1950 3dbe e0d7 fdbd 8bf0 41bc df9c 5e3d
00000050: 8104 a3bd d433 693c 5ece 02be 0236 b0bd
00000060: 52b9 a2bd 203d f9bd 685a 73bd 6133 e1bc
00000070: 9dc4 833c 7888 20be 8112 c8bd aabd 62bd
00000080: 48ac 3fbd 4ba3 1fbd 1297 1cbe 005c 173d
00000090: b420 31be f3ea d3bd a185 123b 8862 ffbc
000000a0: c860 f6bd c8d9 36be 9d40 d53c 00f1 37bb
000000b0: 8bf6 a739 6650 24bd 60b6 1cbe ae73 d5bd
000000c0: 96fd ed3c 895b f8bd 02f2 f0bd 8ed1 0a3c
000000d0: db03 eabd bd80 22bd 28e8 78bd 6a37 b4bc
000000e0: 7cf3 41bd ea18 23be 8b94 1ebe 7959 72bc
000000f0: 59dd cebd eaa5 013c 986c 5bbd 8389 d2bd
00000100: 23bb 133d 07d6 adbd 93bf 3b3d ed1e 90bc
00000110: 149a 9dbc cd6b c5bd b2dc a13d f83b c43d
00000120: 0f58 833d 017a 1ebd 5109 1ebd e031 57bc
00000130: 3dda 98bd efe8 babd 0b3c dabb f0ec 9d3c
00000140: 21fd 1fbe 14f4 903d eee2 dd3c 684f 193d
00000150: 3544 a6bc 7db3 cc3d e43a 8c3d 16e7 57bd
00000160: c21f b6bd d934 a9bd 7018 05be f041 e63d
00000170: 8790 143e 1d75 a93d 2032 5ebc 8aab 88bd
00000180: 054b 37bd 3c4e 88bd 5437 8a3c 86d0 d5bb
00000190: 2142 fc3d 99de 323c b763 0bbd c072 373d
000001a0: c4b8 8a3d a49a 16bd f3cb 8d3d 526b 83be
000001b0: e372 c23d c892 1fbd b7b7 693c 35c8 eabc
000001c0: 40fc 50bd 9f5c a5bd 9ebf 30be 3b59 1f3d
000001d0: cdb9 d53d 29c5 bc3c 338d 76be ba52 123e
000001e0: d61f 8ebd a1ff dfbd 8cec e0bd 9ce5 cb3d
000001f0: 1afd 86bd 5b78 3b3c a033 d3bd 615f 253d
00000200: ca01 f3bd e599 c3bd 1363 393c 2342 843d
00000210: 9bc1 643d 1a20 d1bb db7f 51bd 9a67 c03d
00000220: a5fd 603d f1bf 0a3a 9b5c 9abc 0376 d0bc
00000230: 5066 503c 0b80 dc3c 99b3 a5bc 46d8 24be
00000240: c838 97bd f328 2dbe 93c8 bebd 8785 49bd
00000250: c260 debd 36a3 2ebe 1e7e a6bd 449a 1cbb
00000260: efe0 83bd 49c3 9cbd 13cc 10bd 684d d8bc
00000270: 7d5b fdbd 78f3 6abd f4b0 50bd f8bb 30be
00000280: 0017 ecbd f4fc 41bd 403b 0ebc 3883 883d
00000290: 80b9 5dbb e7e7 f33c 2d94 69bc d4e3 cbbd
000002a0: 3deb f1bd b07b 0cbd dd6b 22be f069 8f3c
000002b0: e624 d4bc efb3 1cbe 9cb9 a7bd 0dd3 29be
000002c0: 8415 8d3d 6c6a 973d b269 d2bd b877 543d
000002d0: fa09 09be b80c 4b3d f009 45bd 8c98 153d
000002e0: dae4 b13d 0ff4 2a3b ac39 cfbc 7d5a 8fbd
000002f0: 20ec 5fbd 4c96 da3d d881 c5bd cbbc c4bd
00000300: c9ef 623d 73a3 fdbd b09b 06be ec50 3cbd
00000310: 4c35 e03b 4efa aab9 eeb1 26be 4b56 26bd
00000320: 5f28 efbd 5278 4fbc 8cf5 b6bd 9a5d af3c
00000330: f394 23be 3e6d c2bd dd21 57bd e499 afbd
00000340: 261d 12be 1113 823d 651e 08be 9a26 0ebd
00000350: 8033 4cbe 599e 83bd 178f cabc 3b8e cdbd
00000360: d57f b3bb 27cd 2abe c41a 2ebd d15f ca3c
00000370: ddf1 e6bd e2c6 103e be88 5bbd ad2d e6bc
00000380: 15b8 26bd 2681 1ebd ce16 06be 2ee8 3dbe
00000390: 343d 793d 0a20 d3bd 13c5 5dbd f313 623d
000003a0: 8de6 043d f7b7 9e3d c6e7 27be 80bd aeba
000003b0: cd77 4abe 035b 07bc 7bb5 4a3d 273b ffbd
000003c0: e1ef 28bd 295c aebd 1293 9bbd 65d0 af3c
000003d0: 1d46 32be d863 8abd d460 33bc 766c 12be
000003e0: ac22 5f3d 90e4 533d 8f94 19be f912 543d
000003f0: e5a0 adbd df80 043e 2500 40be 25e3 2cbc

classifier.0.weight f4 [64, 64]
0.052712858 -0.114785634 -0.046865255 -0.02017847 0.049575396 -0.020159097 -0.07077043 -0.019450856
-0.18317968 -0.14555907 -0.11261625 -0.1732104 -0.154459 -0.15618943 -0.024170648 -0.022185322
-0.06306569 -0.08894659 -0.05668468 0.015476085 -0.15417723 0.028751431 -0.005689015 -0.103688896
0.087702125 -0.060158566 -0.11733908 0.052592725 -0.023110025 0.034278303 -0.093975544 -0.16716845
0.04018719 -0.052823696 -0.0006915213 -0.09245482 0.059121996 -0.09876801 -0.055645756 0.034857422
-0.093620576 0.04730679 -0.014086432 0.0015649144 0.0634596 -0.090468824 -0.08915578 0.018549027
-0.123313494 -0.15221983 0.021451196 -0.16911952 -0.11925532 -0.029766634 -0.041647695 -0.13583452
-0.091678746 0.02018348 -0.14105146 0.011644858 -0.013385966 -0.10479872 -0.11907537 -0.09284153
0.10278466 -0.00826805 -0.09920548 -0.009752557 0.08861114 -0.03390771 0.043810565 0.12040104
0.114522636 -0.070657015 -0.08193084 -0.10740421 -0.024306148 -0.08140503 0.058233812 0.011273429
0.10068519 -0.11595869 -0.10504046 -0.023261204 0.0012051302 0.10524283 -0.01045078 0.12698403
-0.06727077 0.020410616 -0.048131317 -0.0531255 -0.048210654 -0.108052656 -0.015344411 -0.04214853
-0.08092934 -0.08541905 -0.12054174 -0.028010577 -0.20218208 0.11238687 -0.03355424 0.09807442
-0.08961728 0.012754694 -0.117480054 0.05627404 -0.017907392 -0.05422141 0.054507583 0.015914127
-0.07807015 -0.1344649 -0.0022031784 -0.032217324 0.10936749 0.16281512 0.06384078 -0.10998075
0.040632874 0.016829934 0.098396815 -0.11357062 -0.045446515 0.003112644 -0.073063426 0.020553026
0.028318066 0.023041427 -0.06445557 -0.0017593353 -0.09095386 0.07770413 -0.1544537 -0.11332396
0.04338114 -0.06408766 -0.021474523 0.06402373 0.06745783 0.018193828 -0.16567564 -0.07124363
-0.03862316 -0.1740043 0.104535565 0.082026854 -0.11003017 -0.02608706 -0.1247929 -0.004209557
-0.030728774 -0.09561373 0.066828445 -0.07927915 -0.038863733 0.08654651 -0.11101713 -0.115287066
0.015178334 -0.13397834 -0.0050272676 -0.037580177 0.08391003 -0.05703874 -0.05691442 -0.14046839
0.03172362 -0.0782136 -0.016853333 0.09559442 -0.15269361 -0.15719987 0.01275216 -0.10134596
-0.14404808 0.030368809 -0.16857016 -0.10928051 -0.15611713 -0.019249178 -0.041506477 -0.00014743823
4.7093552e-05 -0.052779015 -0.08982498 0.058243636 0.0051982403 -0.022527259 -0.10292874 -0.1747991
-0.061055303 -0.11500204 0.03621596 -0.10179031 0.0130542815 0.11583619 -0.16292916 0.031935677
0.0015329868 -0.0961389 -0.123652816 -0.18422031 0.068369895 -0.05706301 -0.070815004 -0.04872386
-0.2799779 0.0552326 -0.07921241 -0.11916366 -0.23436035 0.025250196 -0.059319153 -0.12144937
-0.09864509 0.07351385 -0.10487838 0.05096194 -0.116593994 -0.06934503 0.0006054789 0.01873526
0.015674427 0.017193891 0.106126115 0.12005922 -0.09694657 0.022396827 0.053444132 -0.2428741
0.083601296 -0.00888136 0.051012278 -0.08296226 0.10000664 -0.023173647 0.028326303 -0.1111999
-0.059216533 -0.22191559 -0.006664648 -0.19129585 -0.06176682 -0.2294011 -0.26896727 -0.0022874186
-0.11141451 -0.10966788 -0.16328906 -0.24433146 -0.014225125 -0.040016375 -0.18156706 -0.25872833
00000000: 70e9 573d bb14 ebbd c8f5 3fbd 524d a5bc
00000010: 920f 4b3d b124 a5bc 16f0 90bd 6757 9fbc
00000020: 7493 3bbe 700d 15be 59a3 e6bd 115e 31be
00000030: 802a 1ebe 1ff0 1fbe 8601 c6bc febd b5bc
00000040: 9628 81bd a129 b6bd 322e 68bd 688f 7d3c
00000050: a3e0 1dbe 1f88 eb3c eb6a babb d85a d4bd
00000060: 2c9d b33d d468 76bd 794f f0bd 786b 573d
00000070: 3c51 bdbc 6867 0c3d 4076 c0bd 352e 2bbe
00000080: 539b 243d a95d 58bd 3547 35ba f458 bdbd
00000090: e829 723d e246 cabd ceec 63bd a8c6 0e3d
000000a0: 25bc bfbd c4c4 413d c7ca 66bc d01d cd3a
000000b0: 1bf7 813d b847 b9bd 4e97 b6bd 21f4 973c
000000c0: c98b fcbd 84df 1bbe 6bba af3c ab2d 2dbe
000000d0: 223c f4bd 28d9 f3bc c696 2abd 3418 0bbe
000000e0: 11c2 bbbd d357 a53c cb6f 10be 13ca 3e3c
000000f0: d050 5bbc b6a0 d6bd cadd f3bd b323 bebd
00000100: c480 d23d b776 07bc 3e2c cbbd 30c9 1fbc
00000110: c279 b53d d0e2 0abd b572 333d d294 f63d
00000120: d88a ea3d a0b4 90bd 5bcb a7bd bdf6 dbbd
00000130: b01d c7bc aeb7 a6bd 9486 6e3d 30b4 383c
00000140: 0934 ce3d c07b edbd 741f d7bd 488e bebc
00000150: 76f5 9d3a 8e89 d73d c039 2bbc 1a08 023e
00000160: 42c5 89bd 2a34 a73c 5825 45bd 209a 59bd
00000170: 8978 45bd b64a ddbd 2067 7bbc f0a3 2cbd
00000180: 48be a5bd 2ff0 aebd 96de f6bd 7076 e5bc
00000190: d208 4fbe 162b e63d 2c70 09bd 3edb c83d
000001a0: 4489 b7bd 10f9 503c 6299 f0bd 9c7f 663d
000001b0: 86b2 92bc 4517 5ebd 5843 5f3d 585e 823c
000001c0: 3ee3 9fbd 2bb1 09be 3363 10bb 50f6 03bd
000001d0: 10fc df3d 02b9 263e f4be 823d 963d e1bd
000001e0: a86e 263d eede 893c 4584 c93d b797 e8bd
000001f0: 2026 3abd 80fd 4b3b 47a2 95bd d25e a83c
00000200: 4afb e73c 60c1 bc3c 4801 84bd 7f99 e6ba
00000210: 0446 babd 5823 9f3d 1c29 1ebe 6416 e8bd
00000220: 6cb0 313d 6440 83bd 57eb afbc e01e 833d
00000230: 5527 8a3d 390b 953c e0a6 29be 2ee8 91bd
00000240: 5233 1ebd 2f2e 32be be16 d63d b2fd a73d
00000250: 7f57 e1bd 88b4 d5bc 6c93 ffbd 53f0 89bb
00000260: e9ba fbbc 22d1 c3bd 5add 883d 1b5d a2bd
00000270: 942f 1fbd 4c3f b13d f35c e3bd a01b ecbd
00000280: 8cae 783c 9e31 09be c7bb a4bb aced 19bd
00000290: 06d9 ab3d 74a1 69bd 181f 69bd f2d6 0fbe
000002a0: a0f0 013d 742e a0bd 0010 8abc 02c7 c33d
000002b0: b75b 1cbe 01f9 20be 70ee 503c 788e cfbd
000002c0: 5781 13be 02c8 f83c a89d 2cbe 76ce dfbd
000002d0: 2bdd 1fbe 74b0 9dbc b202 2abd a699 1ab9
000002e0: 5186 4538 cf2e 58bd 29f6 b7bd e190 6e3d
000002f0: 0056 aa3b 168b b8bc 4ecc d2bd 89fe 32be
00000300: 2015 7abd 3186 ebbd 3057 143d 7077 d0bd
00000310: a0e1 553c 863b ed3d e7d6 26be fcce 023d
00000320: 80ee c83a 79e4 c4bd b03d fdbd 40a4 3cbe
00000330: 8405 8c3d e7ba 69bd 7507 91bd ac92 47bd
00000340: 4359 8fbe 943b 623d 1e3a a2bd 140c f4bd
00000350: 29fc 6fbe 80d9 ce3c a4f8 72bd 73ba f8bd
00000360: 7006 cabd 6e8e 963d 7aca d6bd 78bd 503d
00000370: d5c8 eebd c404 8ebd 00b9 1e3a b07a 993c
00000380: a867 803c 34da 8c3c a658 d93d 9ce1 f53d
00000390: ec8b c6bd 8d79 b73c 3ce8 5a3d fdb3 78be
000003a0: 2837 ab3d 2083 11bc 40f2 503d 1ee8 a9bd
000003b0: 48d0 cc3d a9d6 bdbc 900c e83c c6bc e3bd
000003c0: 098d 72bd d73d 63be 1f63 dabb 0fe3 43be
000003d0: 34ff 7cbd 1fe8 6abe 14b6 89be 84e8 15bb
000003e0: 4a2d e4bd 8e99 e0bd 3f35 27be 0732 7abe
000003f0: 8010 69bc 36e8 23bd b7ec 39be 0a78 84be

classifier.0.bias f4 [64]
-0.14269258 -0.21015951 0.03842204 -0.17207111 0.060784463 0.27073407 0.015078076 -0.0032703704
0.12421188 -0.0074788556 -0.14899656 0.04058683 -0.1254337 0.13300087 -0.07046413 0.0790195
-0.039813206 0.009448133 -0.113922834 -0.20334153 0.028326143 -0.16252877 -0.027138615 -0.41888797
-0.20671579 0.26265392 -0.17288655 -0.0058863787 -0.68377036 -0.06738387 -0.064466774 -0.08489116
-0.64958024 -0.005757651 -0.100331664 -0.039091796 -0.044863075 0.020651732 -0.07588264 0.47229904
-0.54516596 -0.6649849 0.040230684 -0.5990146 -0.07245969 -0.13621554 -0.30335277 -0.023256842
-0.0491789 -0.37832284 -0.114428915 -0.029291451 0.007893513 -0.15953094 0.034835905 -0.48566505
0.13500439 -0.3755713 0.033934966 -0.16268039 -0.7577689 -0.08708636 0.03319435 -0.09014126
00000000: 011e 12be 0e34 57be 6e60 1d3d 6933 30be
00000010: 21f9 783d a89d 8a3e 090a 773c b653 56bb
00000020: cc62 fe3d 3011 f5bb 8e92 18be 603e 263d
00000030: b171 00be 6131 083e 7f4f 90bd fad4 a13d
00000040: 2c13 23bd 58cc 1a3c 6050 e9bd c338 50be
00000050: 3a0c e83c f16d 26be cd51 debc 7c78 d6be
00000060: 4ead 53be 937a 863e 2c09 31be 86e2 c0bb
00000070: 930b 2fbf 8e00 8abd 2807 84bd 6bdb adbd
00000080: e44a 26bf adaa bcbb b07a cdbd b81e 20bd
00000090: 58c2 37bd d22d a93c 5c68 9bbd 2ed1 f13e
000000a0: ff8f 0bbf 733c 2abf eec8 243d 0559 19bf
000000b0: bf65 94bd 167c 0bbe 0e51 9bbe 2285 bebc
000000c0: d06f 49bd 88b3 c1be b559 eabd a0f4 efbc
000000d0: cb53 013c 145c 23be 18b0 0e3d 17a9 f8be
000000e0: 973e 0a3e e24a c0be 64ff 0a3d b095 26be
000000f0: 25fd 41bf 555a b2bd ccf6 073d fb9b b8bd

classifier.3.weight f4 [2, 64]
0.0063441778 -0.0014124656 0.0038329782 0.02701363 0.0021336374 0.08612504 0.034961574 0.0008943669
-0.06806669 -0.017597051 -0.0889567 -0.01243199 0.08151653 0.082862645 -0.13870361 0.029208397
-0.018110786 -0.05520917 0.05049811 -0.08536804 0.0408573 0.008327541 0.069853656 0.105336
0.013953151 0.18207933 -0.042364817 -0.14134452 -0.09173445 0.034576252 -0.045667112 -0.08368744
-0.06337021 -0.14311907 0.10190067 0.032274924 -0.07859934 -0.009446585 0.010714884 0.24802913
-0.02882061 -0.0027869109 -0.010864671 -0.13761188 -0.10963496 0.04319048 -0.11924678 -0.082058825
0.09406105 -0.10366095 -0.054571945 -0.025366828 -0.055995442 0.047457848 -0.050215904 -0.069269314
0.038952824 -0.024275135 0.013469701 0.14388007 -0.13335209 0.02108427 -0.03496707 0.0014083611
-0.026914291 -0.025705205 0.09004051 -0.1885259 0.09853323 -0.060663186 0.10643837 -0.12073259
-0.027148664 -0.059609443 -0.010584148 0.031397443 -0.021736745 -0.05900054 -0.05399228 0.04374918
-0.12766191 -0.05751138 0.008853144 0.05512009 0.05849698 -0.0038453855 0.008496547 0.10163058
0.075919494 -0.23618324 0.025886016 -0.06438827 0.079689205 -0.03261468 -0.0036026835 -0.102789745
0.01811422 -0.033267308 -0.0987463 -0.030059803 0.020554679 -0.06478276 0.042432792 -0.074654624
0.10763147 0.112050734 0.069316566 -0.0014391944 -0.05520455 -0.01421903 0.14090861 -0.054459836
-0.051810384 -0.0014951575 -0.047765292 0.019459829 -0.14695017 0.13422975 -0.08428099 0.04536137
-0.050382055 0.11006468 -0.005592659 0.04444585 -0.04981238 -0.07605068 -0.0029680515 -0.026938744
00000000: d2e2 cf3b 7b22 b9ba b432 7b3b b04b dd3c
00000010: 7fd4 0b3b 5362 b03d de33 0f3d f273 6a3a
00000020: 8c66 8bbd b127 90bc ee2e b6bd 8caf 4bbc
00000030: 23f2 a63d e4b3 a93d 5208 0ebe 7346 ef3c
00000040: 125d 94bc 0323 62bd 1bd7 4e3d 70d5 aebd
00000050: fc59 273d 3d70 083c 6f0f 8f3d 67ba d73d
00000060: c29b 643c 0173 3a3e bb86 2dbd 9ebc 10be
00000070: 45df bbbd d49f 0d3d 700d 3bbd 5264 abbd
00000080: 3ec8 81bd ce8d 12be 4cb1 d03d b632 043d
00000090: b1f8 a0bd d9c5 1abc 7b8d 2f3c 59fb 7d3e
000000a0: 3319 ecbc 9ba4 36bb bc01 32bc 21ea 0cbe
000000b0: 4b88 e0bd 80e8 303d a837 f4bd 750e a8bd
000000c0: 14a3 c03d 314c d4bd d586 5fbd 18ce cfbc
000000d0: 7a5b 65bd 2963 423d 31af 4dbd 12dd 8dbd
000000e0: ff8c 1f3d a6dc c6bc 05b0 5c3c 4c55 133e
000000f0: 738d 08be ebb8 ac3c a139 0fbd c298 b83a
00000100: 5c7b dcbc b993 d2bc 2967 b83d ef0c 41be
00000110: cacb c93d f679 78bd 5cfc d93d a642 f7bd
00000120: e066 debc 0829 74bd 2269 2dbc 9b9a 003d
00000130: 4211 b2bc 8daa 71bd 0227 5dbd 5732 333d
00000140: ceb9 02be 0e91 6bbd c70c 113c 9ac5 613d
00000150: 889a 6f3d dd02 7cbb 1a35 0b3c b223 d03d
00000160: ae7b 9b3d 05da 71be e90e d43c ffdd 83bd
00000170: 1834 a33d f896 05bd 001b 6cbb 6e83 d2bd
00000180: 4664 943c 4d43 08bd 803b cabd fa3f f6bc
00000190: 4962 a83c d3ac 84bd 02ce 2d3d 86e4 98bd
000001a0: e36d dc3d db7a e53d d8f5 8d3d 5aa3 bcba
000001b0: 2b1e 62bd eff6 68bc 594a 103e 4711 5fbd
000001c0: 2037 54bd 29f9 c3ba 8aa5 43bd 386a 9f3c
000001d0: 1b7a 16be 8673 093e 839b acbd d8cc 393d
000001e0: 6a5d 4ebd 9769 e13d a042 b7bb da0c 363d
000001f0: 1108 4cbd 75c0 9bbd a483 42bb a4ae dcbc

classifier.3.bias f4 [2]
0.2546421 -0.33128867
00000000: 7360 823e ab9e a9be
