checkpoints/mutag_1gnn.pt (torch, 91317 bytes, 10 tensors)

layers.0.W1.weight f4 [64, 7]
000000 a2 1a 2b be 88 4f 2e bf 85 ff 8d be af 01 a9 be
       -0.16709378 -0.68090105 -0.27734008 -0.33009097
000010 ee 97 e6 bd 95 5d 3a 3f 4d a9 c8 3f a5 77 c4 be
       -0.11259447 0.72799045 1.5676666 -0.38372532
000020 04 3f c0 bd 3f bc 3c be 9d 25 85 be a1 ba 51 3f
       -0.09387019 -0.18431185 -0.2600526 0.819254
000030 aa 72 0e bd 8c c3 af be 3e 72 b6 be 5c d3 30 3f
       -0.03477732 -0.34328878 -0.35634035 0.6907251
000040 87 18 f4 bd 6f 00 9a bc 93 58 69 be 55 ca 6c be
       -0.11918741 -0.018799035 -0.22787695 -0.23124059
000050 ca 58 ad be 20 3d e6 bd d5 35 13 3f 3c e1 41 3e
       -0.33856803 -0.112421274 0.57504016 0.18933576
000060 20 22 0f 3f 15 0f ab be aa bf 68 be 99 52 74 bd
       0.55911446 -0.33409944 -0.22729364 -0.059649084
000070 92 36 29 3e 08 85 f8 bc a2 42 41 be 88 dc c9 3e
       0.16524723 -0.030336872 -0.18873075 0.39426064
000080 b3 0f 17 be d0 82 7a be d0 b9 a1 3f 5b f4 2d be
       -0.14752083 -0.24463964 1.263483 -0.16987745
000090 da bc 37 3d d6 9e 21 bf f8 16 de bd 37 a0 c3 bd
       0.044857837 -0.6313299 -0.10844225 -0.09552043
0000a0 5b 7b 73 bc 5b ef 86 be 8e fd be be cd 2b 9d be
       -0.014860953 -0.2635449 -0.37302822 -0.3069748
0000b0 2f 13 3c 3f ab 01 c5 bd a8 99 c9 bc fa 21 8b 3e
       0.7346677 -0.09619459 -0.024609402 0.2717436
0000c0 70 25 8b 3d 26 3d 2e 3d e2 b9 32 3d 41 b3 e1 be
       0.0679425 0.042538784 0.043634303 -0.44082072
0000d0 b2 01 b5 be cb 2d 20 3e a8 05 3e be a9 c8 9b bd
       -0.35352856 0.15642469 -0.18556845 -0.07606632
0000e0 a0 e8 13 bf a1 f1 dc bd c3 2f d3 be ff d9 00 bf
       -0.5777683 -0.107882746 -0.41247377 -0.50332636
0000f0 0a 4e ae 3f 00 06 e1 be e4 90 1e 3e 2a bc b1 3e
       1.3617566 -0.4394989 0.15484959 0.3471387
000100 8a 94 fd be cb 4e 35 bf 51 9d 3b be 11 d2 ec bd
       -0.4952739 -0.70823354 -0.1832173 -0.115635045
000110 65 3a b8 be c6 5f 30 3e 59 8a fc be 88 54 ee 3e
       -0.35982051 0.17224035 -0.493243 0.46548867
000120 88 b1 0c 3e b5 99 4c bd 30 70 94 be 9c 24 f1 3c
       0.13739598 -0.049951274 -0.28991842 0.029436402
000130 c2 f8 36 be c5 7b 63 be c9 96 69 bc 2b 83 72 be
       -0.17868331 -0.22215183 -0.014257141 -0.23682849
000140 49 25 1a be d2 81 7b 3f 9a 95 a1 be 4b 4b a0 3f
       -0.15053286 0.98244965 -0.3155945 1.2522978
000150 46 58 01 bf ce b5 4e 3e 6f 74 b5 3e 65 ce 2e 3d
       -0.5052532 0.2018654 0.35440394 0.042677302
000160 6b 96 b6 bd 9a 00 9f be 75 3f a3 bd fe 1c 1a be
       -0.08915409 -0.31055146 -0.07971088 -0.15050122
000170 27 9c c0 be cd f5 93 bd b8 02 68 be 96 4c ec 3e
       -0.37619135 -0.07224617 -0.22657287 0.4615218
000180 10 81 3e be 76 90 52 be 10 2c 90 be 4b 8a 5c bf
       -0.18603921 -0.2056292 -0.28158617 -0.8614852
000190 44 a7 01 3d 8c f4 b1 be d0 49 e6 3e 0e 38 82 be
       0.031653658 -0.34756887 0.4497819 -0.2543339
0001a0 e5 ea cc 3e 39 30 fe be a1 df b7 be 9e a6 73 3d
       0.4002296 -0.49646166 -0.35912803 0.05948507
0001b0 40 33 dd be 12 d2 ac 3c 1f 66 8e be db 1f 0d 3e
       -0.43203163 0.021096263 -0.27812287 0.13781683
0001c0 de a7 92 be 74 31 8d bd ac 30 a4 bd dc 42 05 be
       -0.28643698 -0.06894198 -0.08017096 -0.13013786
0001d0 a0 50 39 be 77 7d 9d be bb 84 83 3e 70 d7 fa be
       -0.18097162 -0.30759785 0.25687203 -0.4899249
0001e0 7a 74 58 be e9 74 98 be 4e f5 7d bd 8e 07 ad 3f
       -0.21138182 -0.29776695 -0.06200152 1.351793
0001f0 16 91 a1 bd c4 18 be 3e 36 cf 08 3f 78 53 c0 3e
       -0.07889001 0.3712827 0.5344118 0.37563682
000200 0f 7b 9f bd 7a 37 36 3f cc 0f 12 bc 67 38 6d bd
       -0.077871434 0.711784 -0.008914899 -0.057915118
000210 06 e6 67 3c b9 a3 93 3b b3 29 0f be f8 9f 2d be
       0.014153963 0.0045056012 -0.1398075 -0.16955554
000220 86 69 46 3e 71 e9 74 be d5 2d 9b be 38 3e 84 be
       0.19376191 -0.23917176 -0.30308405 -0.2582872
000230 27 3b ee be 31 8f c1 be 5e 3a a8 be 61 5f fe 3e
       -0.46529505 -0.3780456 -0.3285703 0.49682143
000240 9d 6c 39 be d2 30 93 be 9f 3e 9b be ff 68 8c 3d
       -0.18107839 -0.28748184 -0.30321214 0.06855964
000250 bb b4 8c be 8a 75 80 be 98 07 78 3d f0 1f 33 be
       -0.27481636 -0.25089675 0.060554117 -0.17492652
000260 fb 61 b5 3d 70 bb c1 3e 9e 8b e3 be 43 3d cc be
       0.08856579 0.37838316 -0.44442457 -0.3989049
000270 b8 f0 c0 be ba d7 c7 be dd bf 37 3f 06 3f b0 bd
       -0.37683654 -0.39031774 0.71777135 -0.08605771
000280 b1 a6 cf bd df f3 81 be 61 a1 bb 3d 7e 95 9d 3b
       -0.10139216 -0.2538137 0.0916164 0.0048090806
000290 82 0f 54 3e f7 40 82 3e 84 09 1a 3e 83 df bf be
       0.20709041 0.2544019 0.15042692 -0.37475213
0002a0 48 c3 9d be b6 09 36 be e2 d1 43 bd 70 12 64 be
       -0.3081305 -0.17777142 -0.04780758 -0.22272658
0002b0 6d d4 8e 3f f5 ce 6d be 02 ec 8c be f7 e0 a8 be
       1.1158577 -0.23223479 -0.2752381 -0.32984135
0002c0 a6 94 10 3e f7 79 ae 3d c4 5a 54 3e f8 94 20 3b
       0.14119205 0.08519357 0.2073775 0.0024502855
0002d0 f0 c2 92 be 4c b9 b4 be 45 2c 80 be 5c 21 d8 3d
       -0.2866435 -0.3529762 -0.25033775 0.10553238
0002e0 07 42 6e 3e e7 fa a1 be bd b9 7a 3e 2d 76 76 be
       0.23267375 -0.31636736 0.24484916 -0.24068518
0002f0 81 18 5f be 6d 70 c6 bd 8c ac 6a 3d 80 5c 10 3e
       -0.21786691 -0.09689412 0.05729346 0.14097786
000300 7d ab b1 be f0 59 2e 3e 91 7c 88 be 3c f0 a6 3d
       -0.34701148 0.17026496 -0.26657537 0.0815129
000310 ec 63 2a 3f b4 ea ad 3b f3 13 96 3e 1b e3 a4 be
       0.6655872 0.00530752 0.29312095 -0.32204518
000320 f2 d4 13 be b3 fe f8 3c 2e a5 a8 bd 1e 0b 3d be
       -0.14436701 0.030394888 -0.082346305 -0.18461272
000330 17 ac 8c be aa 91 6a 3c 72 e4 d5 ba 60 67 8f 3f
       -0.27475044 0.014316956 -0.0016318692 1.1203423
000340 fd 7f 59 be 87 16 9d be be 3c 98 3e 34 1f 9c 3e
       -0.2124023 -0.3068125 0.29733843 0.30492556
000350 0b 0d 8c be 55 95 d8 bd 07 47 b3 3c 2d a6 f6 3c
       -0.273537 -0.10575358 0.021884454 0.030108536
000360 ff b2 8b 3c e1 d6 88 3e 5a f4 66 3e 10 bb e7 be
       0.017053125 0.2672644 0.2255415 -0.45259905
000370 44 02 39 be 0d bd 44 be 28 2a f1 3d 28 57 e1 bd
       -0.1806727 -0.19212742 0.11775619 -0.11002952
000380 9e 6b 06 bf 48 dd 9f 3e 75 24 de bd 0c bb 0d be
       -0.5250796 0.31223512 -0.108467974 -0.13840884
000390 e0 b0 63 3f cd 5b b5 be a5 78 a2 3e 4d 47 16 bf
       0.88941765 -0.354216 0.3173267 -0.58702546
0003a0 64 6f a2 be e2 33 06 be fb 96 0b bf 24 81 0e 3e
       -0.3172561 -0.13105729 -0.5452725 0.1391645
0003b0 4b e9 c0 be 63 a1 e6 3e 56 13 6d bc ad c6 86 bd
       -0.37677988 0.45045003 -0.014469942 -0.06580863
0003c0 15 40 b3 be 2e f9 0c be a9 c7 73 bd c7 c8 0b 3f
       -0.35009828 -0.1376693 -0.059516583 0.54603237
0003d0 5b b6 43 bd d9 6d a7 be 03 e4 96 bd 01 dd b8 be
       -0.04778133 -0.32700995 -0.073677085 -0.36106113
0003e0 c5 ed a1 3e 00 27 16 be 67 a4 20 bd 96 0d ed bd
       0.31626716 -0.14663315 -0.039219286 -0.11574857
0003f0 49 e9 c4 3e af 31 88 be 91 4e 81 3d 3f fd 20 bc
       0.38459232 -0.26600406 0.063138135 -0.009826004

layers.0.W2.weight f4 [64, 7]
000000 b1 b5 f3 bc a5 8c 16 bf 4e c6 1e be fc 89 99 be
       -0.029749723 -0.58808357 -0.15505335 -0.29988086
000010 4d 20 89 be 1b ac 6b 3d 58 4d b5 be 33 7b 45 3e
       -0.26782456 0.05753718 -0.3541057 0.19285278
000020 63 38 35 3e 5a 2f e2 be 08 74 ce be 23 5d 9f 3e
       0.17697291 -0.4417675 -0.403229 0.31125745
000030 f5 c2 ba be 61 76 d4 be ed 3f 14 bf 51 b2 90 3e
       -0.36476865 -0.41496566 -0.57910043 0.28261045
000040 b1 16 2e be d6 7a a0 3e 82 c7 c7 3c ed 9a 9b 3d
       -0.17000844 0.31343716 0.024387125 0.07597909
000050 2a f8 96 3e ea dc c8 be b7 8e 90 be f9 20 66 be
       0.2948621 -0.39231044 -0.28233883 -0.22473516
000060 9c bc 10 3f 78 96 8f be a2 6c f5 3e 09 30 be be
       0.56537795 -0.28044486 0.47934443 -0.37146023
000070 75 59 f4 bd 5c a3 91 be 99 d3 0a be cf 88 e5 bd
       -0.11931125 -0.28444946 -0.1355728 -0.11207735
000080 5a 4f dc be c7 8d b8 bd 5a 10 3a be 11 44 62 be
       -0.4302929 -0.09011417 -0.181703 -0.22096278
000090 7a 89 c5 3e 80 cd 80 3e 5e fb 18 be a0 b8 8c be
       0.3858145 0.25156784 -0.14939639 -0.27484608
0000a0 76 aa 61 3e 88 d2 4b be 6e 66 bb bd ad 39 46 bf
       0.22037682 -0.1990453 -0.09150396 -0.77431756
0000b0 25 b3 73 bd 5d e1 88 3e 66 e1 57 3d 31 6e 61 be
       -0.059497017 0.2673444 0.05270519 -0.22014691
0000c0 bc 44 ee 3d 18 d4 fa be 75 5b b2 3e f5 f6 a7 be
       0.11634204 -0.4898994 0.348354 -0.328056
0000d0 9a 82 f4 bd 0e db ba be 22 6d 18 be 2e 06 f4 3d
       -0.11938973 -0.3649525 -0.14885381 0.11915241
0000e0 f3 ca ac 3e 5c 97 5d be c7 7e 72 3e 2b bf 2c 3f
       0.33748588 -0.2163977 0.23681174 0.674792
0000f0 c1 60 ba 3f 18 61 19 be c9 53 b7 3f c7 3d 54 be
       1.4560777 -0.14978445 1.4322444 -0.20726691
000100 5c 7b 35 3f 39 ad 97 bd 25 08 63 3d d8 b1 38 be
       0.70891356 -0.074060865 0.05542769 -0.18036592
000110 f4 4f a2 be 00 1e ea bd d4 82 87 be d8 86 72 3e
       -0.31701624 -0.11431503 -0.26467 0.23684251
000120 a0 91 9a 3e f2 20 a8 be 62 ef d2 3d 90 d2 fb bc
       0.30189228 -0.32837635 0.10299565 -0.030740052
000130 03 ce 30 3e ad 44 5d 3d 4b 97 ed be 83 c1 65 3d
       0.17266087 0.054020572 -0.4640449 0.05609275
000140 2a 20 dd bd e8 c5 93 3f 05 2f f3 be f8 84 50 be
       -0.107971504 1.1544771 -0.4749681 -0.20363224
000150 ed 57 9d be ab de c3 bd db 94 86 3e fa b6 0c 3e
       -0.30731145 -0.09563955 0.26285443 0.13741675
000160 ff 4c 99 3e 2c f4 10 be bc 40 02 3e f7 f9 a9 3d
       0.29941556 -0.14155644 0.12720007 0.0829963
000170 f5 11 ec be fe 54 96 bd 03 9b f5 be c0 d5 1a 3f
       -0.4610745 -0.0734043 -0.47969827 0.60482407
000180 3c 74 15 bf 10 0f 04 bf 19 15 08 3e 4a 17 9a be
       -0.58380485 -0.51585484 0.13289298 -0.30095893
000190 22 71 93 3e 57 f0 af be 8e 27 81 be e8 7c 59 be
       0.2879725 -0.34363052 -0.2522549 -0.21239054
0001a0 20 ab dd 3e d4 b8 b5 3e 19 32 bb be 3e 74 46 3e
       0.4329462 0.35492575 -0.3656166 0.1938028
0001b0 1d 46 b7 be cb 11 9c 3e 03 06 9d be 56 ca ae be
       -0.3579568 0.30482325 -0.3066865 -0.34138745
0001c0 b2 f7 ae be 93 6a 55 be db 18 42 3e 8f 3c f4 3d
       -0.34173352 -0.20841436 0.18954794 0.11925613
0001d0 48 14 fa 3d 95 0a 24 be d0 eb aa bb 0a 93 ca 3e
       0.122108996 -0.16019662 -0.0052160993 0.39565307
0001e0 0e 22 e9 be 53 21 14 be c0 f0 b1 bd ff 99 35 3f
       -0.45533794 -0.14465837 -0.086884975 0.70938104
0001f0 de ca e0 be 75 ab 88 3f 8c e7 3d be e9 9a 41 be
       -0.43904775 1.0677325 -0.1854536 -0.1890675
000200 99 af ce be 65 e4 bd be fd 1b 63 be 08 ec 7c 3e
       -0.40368345 -0.37088314 -0.22178645 0.24699414
000210 ba 3f b5 be 0f 9e 1c bf 6f 9f 39 3c 1f dd 01 bc
       -0.35400182 -0.6117868 0.011329516 -0.0079262545
000220 c4 4b 1b 3e 0b 90 67 be c6 ac 29 be d0 b2 69 bd
       0.15165621 -0.22613542 -0.16569814 -0.057055295
000230 20 58 d5 bb 96 9b 84 be 57 16 ff 3c e6 dd 19 3d
       -0.0065107495 -0.25899953 0.031138582 0.037565134
000240 01 07 44 bd 2f 9f 56 3d dd 66 19 be ce 24 3e be
       -0.047858242 0.052397903 -0.14980645 -0.18568727
000250 94 ee 0d 3e ab 63 9f be a6 a2 de be 8d 3f 73 be
       0.13860542 -0.31130728 -0.43483466 -0.23754711
000260 e2 4f fd 3d fd b2 8b bd 65 b0 bc 3e e5 53 e2 be
       0.12368752 -0.06821249 0.36853328 -0.4420463
000270 90 cd ce 3d de 90 e9 be 43 54 1c 3f ff 23 e5 bd
       0.10097802 -0.45618337 0.61066073 -0.11188506
000280 c6 fd e8 be ec 18 92 be 5f 45 26 be a4 70 82 be
       -0.45506114 -0.2853464 -0.162374 -0.25476563
000290 a9 0c bd 3e 4f 43 9b bd 01 ba 19 3e 5b cb ac be
       0.3692372 -0.075811975 0.15012361 -0.33748898
0002a0 1a fd 54 3d e0 e7 82 be aa 92 be be 91 69 5d be
       0.05199919 -0.25567532 -0.3722127 -0.21622302
0002b0 9c 46 84 3f 6a 09 a7 bd ab b2 58 be 77 a8 9f be
       1.0334048 -0.081560925 -0.21161906 -0.31183216
0002c0 23 c1 a8 bc f1 7c 36 3e f1 cd 14 3e 2b 6f 54 3e
       -0.020599907 0.17821099 0.14531685 0.20745532
0002d0 06 86 af bd 76 06 57 3e 25 43 1f 3e 5b cf 37 be
       -0.08570485 0.20998558 0.15552957 -0.17950194
0002e0 44 62 19 3e ed 37 5b be a2 2b 0a 3f 3b 92 d8 be
       0.14978892 -0.21408053 0.5397283 -0.42299065
0002f0 f9 6d c9 be 07 b0 77 be 64 d6 21 be 31 49 5e 3d
       -0.39341715 -0.24188243 -0.1580444 0.05426902
000300 b6 f1 5c be 5b c5 41 3e d4 b4 0a be f4 50 2c 3e
       -0.2157658 0.18922941 -0.13545543 0.16827756
000310 95 c8 ba be 7f 67 ea be 11 8e 37 bf 83 ce aa be
       -0.36481157 -0.45782086 -0.7170115 -0.3336068
000320 c3 f1 a6 3f 40 82 a0 be 4f 88 f7 bd 8d b1 09 be
       1.304253 -0.31349373 -0.12086546 -0.13446636
000330 c8 f9 8e be ce db 15 bc 8f f4 bc be b0 76 8a be
       -0.27924943 -0.009146644 -0.36905333 -0.27043676
000340 dc 59 af be 97 23 ea bd a4 9c 33 be 06 cd 37 3d
       -0.34248245 -0.114325695 -0.17540222 0.04487326
000350 4f 62 8b bd 27 9c a7 3e af 6f 1d be a1 fb b2 3e
       -0.0680586 0.32736322 -0.15374635 0.34957603
000360 9f 01 85 be ec d4 33 bf 3b 8f d7 3e e1 d2 c1 be
       -0.259778 -0.7024677 0.42101464 -0.378562
000370 09 f4 44 3e 1e 5d 81 3e 9e 49 15 3e 70 94 b5 3e
       0.19233717 0.25266355 0.14578864 0.3546481
000380 52 59 a9 3e 8c 3b a4 be 9d 7d d8 be 3b 4b 2f be
       0.33075958 -0.3207668 -0.42283335 -0.17118542
000390 87 8a 28 3f 07 35 bb be c4 20 85 be 6d 43 8e 3e
       0.65836376 -0.36563894 -0.2600156 0.27785817
0003a0 34 9e 22 be 92 61 7b bd 3a 87 c1 be 59 3b 97 3f
       -0.15880662 -0.061372347 -0.37798482 1.1814986
0003b0 cc 17 3e be b2 44 19 3f 0b 22 77 bc 5b e0 0a be
       -0.18563765 0.59870446 -0.0150838 -0.13562147
0003c0 bd fd 06 be 03 e6 07 3f ef 9d c5 bd ce a0 c1 3e
       -0.13182731 0.53085345 -0.09649264 0.37817997
0003d0 32 00 02 be d5 b0 92 bd 5a c5 a1 3c df 22 bb bd
       -0.12695387 -0.07162634 0.019747425 -0.091375105
0003e0 2c 06 57 3e b3 21 f4 3d 53 36 43 3e c2 83 b0 3e
       0.20998448 0.1192049 0.19063692 0.34475523
0003f0 95 64 fc bd 2d 07 aa be c9 75 e6 be 31 b6 f9 3e
       -0.12323872 -0.332086 -0.45011738 0.48771814

layers.1.W1.weight f4 [64, 64]
000000 28 4b 31 be fd 61 2f bd 8c 90 92 3c 0b 95 ad 3d
       -0.17313826 -0.04281806 0.017891191 0.08475693
000010 8a e1 c8 3c 4d 07 c7 bd 62 56 3c be 19 1c 23 bc
       0.024521608 -0.097181894 -0.18392327 -0.0099554295
000020 bc 74 c3 3c 7d ad 1d be 8a d4 a5 3c 77 2e 74 3d
       0.023859374 -0.15398212 0.020242948 0.059614625
000030 21 60 c8 bc 7f 0e fd bd f7 c0 5f 3d 26 6e a6 3b
       -0.0244599 -0.123562805 0.054627385 0.0050790487
000040 55 ea 35 3d 82 1e 06 be 33 a9 5a 3d e4 01 04 be
       0.04441293 -0.13097575 0.053384017 -0.12891346
000050 e2 52 82 3d 19 e4 d3 bd 8c 0b e2 3c 96 b7 35 bc
       0.06363465 -0.103462406 0.027593397 -0.011091134
000060 24 e2 83 bc 8f da 66 bc b3 68 87 3b 25 16 b9 bd
       -0.016099043 -0.014090194 0.004132354 -0.09037427
000070 86 02 2c be 1c e0 ca bd 74 37 22 3d 57 9d 32 3d
       -0.16797838 -0.09906027 0.039603665 0.043607082
000080 2e 83 38 bc b5 36 c7 bd b6 1e 3b 3d 4f a1 db 3c
       -0.011261744 -0.097272314 0.045683585 0.026810316
000090 c0 10 f0 bb 1d 0f eb bd b1 a4 1c be 7b 5b 25 bc
       -0.0073262155 -0.11477492 -0.152972 -0.010092611
0000a0 2a 01 d6 bd 78 68 91 3d 6b f1 36 be 7d 9c 96 3c
       -0.10449441 0.07100004 -0.17865531 0.018385166
0000b0 d0 da a3 3d 96 75 df 3c c0 71 b2 bc b0 2d 31 be
       0.080007195 0.027277749 -0.021782756 -0.17302585
0000c0 0e fb 8f 3d 9f 29 91 bd e4 e2 19 be 5b f1 ab 3d
       0.07030307 -0.07088017 -0.15027958 0.08395644
0000d0 4f 0c e6 3c 5d 5d 2d bd b3 97 c2 3d 9a 75 b1 bd
       0.028082041 -0.042325366 0.095015906 -0.08665009
0000e0 72 53 23 be 95 47 d2 bc df 3e 84 bd a7 df 1b bc
       -0.159498 -0.025668899 -0.06457304 -0.009513772
0000f0 33 f6 26 be 29 bf 3d bd 20 c3 d4 bd a8 7b 15 be
       -0.16304855 -0.046324883 -0.1038878 -0.14597952
000100 fb d3 3f be 9d 7b 18 be 66 62 15 bd ea fb 07 be
       -0.18733208 -0.14890905 -0.036470793 -0.13279691
000110 9a 0b 6c 3d 5e 0d 85 bd c7 74 72 3f 6a 92 eb bd
       0.05762825 -0.0649669 0.9470944 -0.11502536
000120 64 d2 14 be e2 77 4a bd e7 4f b4 bd ce 84 06 be
       -0.14533383 -0.049430735 -0.08804303 -0.13136598
000130 e2 31 e8 3c 8a 20 4c be 1f 2a 29 be 83 16 3b be
       0.028344098 -0.19934288 -0.16519974 -0.18270306
000140 a8 ec ff 3d 94 8a b8 be e7 51 dd bd 57 2f fe bd
       0.124963105 -0.36043227 -0.10806637 -0.12411373
000150 30 66 06 bd c5 c7 d1 bd 8e 75 89 be 77 3f 06 3d
       -0.032812297 -0.10243181 -0.268475 0.03277537
000160 f8 f5 27 be 19 cc 1a bd 51 84 24 be b2 c8 04 3e
       -0.16402423 -0.0377923 -0.160661 0.12967184
000170 f5 b7 c8 3e 7e db 18 3e af c9 a8 bc 0b 17 22 bd
       0.39202848 0.1492748 -0.020603983 -0.039572757
000180 26 a1 60 be fd d9 86 be 70 c0 bc 3c df b5 ee bd
       -0.21936473 -0.26338187 0.02304098 -0.11655783
000190 61 5c 9e be aa 2b 86 bd d1 bc 13 be ff 76 dd bd
       -0.30929855 -0.06551297 -0.14427496 -0.10813712
0001a0 c9 58 29 be 9b 7c 0d be 33 fb 04 3d 93 e1 42 be
       -0.16537775 -0.13817064 0.032466125 -0.19031362
0001b0 fe ec fb 3d 90 34 94 3e 9e fa f2 bc 68 57 54 be
       0.12301062 0.28946352 -0.02966052 -0.20736468
0001c0 09 91 e7 bd 4a 63 f3 bd 0d 5d 89 bd 9f e5 92 bd
       -0.1130696 -0.11884172 -0.06707201 -0.07172703
0001d0 e5 71 6a bd 81 25 8b be af 4a 72 bd bc 8b 83 bd
       -0.057237525 -0.2717705 -0.059153255 -0.064231366
0001e0 2e 49 89 3d c4 a9 15 be a9 c6 9c be dc 1a 00 3d
       0.06703411 -0.14615542 -0.30620316 0.031275615
0001f0 39 f5 30 3d 32 61 e9 3b ef 22 3a 3d 9a 52 2f 3e
       0.043202613 0.0071221823 0.04544347 0.17121354
000200 5d b9 43 be fe c8 b7 3d ab 31 ab 3e 77 c6 34 bf
       -0.19113679 0.08973883 0.3343633 -0.70615333
000210 2f bd e0 bd b7 c0 1b bd f4 4a d1 be 1b c1 98 3d
       -0.10973584 -0.038025584 -0.40877497 0.07458707
000220 17 28 98 bd df 60 3a bf a9 40 d2 bd ab a0 81 bd
       -0.074295215 -0.72804064 -0.10266239 -0.06329473
000230 c0 b4 47 be 06 96 52 be e1 bf 0d bf 6b d6 d8 3c
       -0.19502544 -0.20565042 -0.5537091 0.02646943
000240 88 7e 9b 3d 88 ab 23 bd 54 fa bc be d6 8f 75 bc
       0.07592493 -0.039958507 -0.36909735 -0.014987906
000250 d5 e6 82 be 74 81 40 be 60 b6 16 be 32 e8 c2 3d
       -0.25566736 -0.18799382 -0.14718008 0.09516944
000260 f1 ad 41 be 27 65 f9 bd 89 ba d9 ba 53 4c 01 bd
       -0.1891401 -0.121774964 -0.0016611378 -0.03156693
000270 fa 9b cd bd 82 46 5b be 68 46 82 bd ed 9d 16 3e
       -0.10039516 -0.21413615 -0.06361085 0.14708681
000280 02 82 01 3e d0 e9 6b 3e 03 fe 83 be c3 da 20 be
       0.1264725 0.23038411 -0.25779733 -0.15708451
000290 34 46 6f be 2a 8e 65 3e 63 99 a9 3d e0 d6 fe be
       -0.23366624 0.22417513 0.08281209 -0.49773312
0002a0 c8 07 8d bd 60 4d 2f be 72 60 2e be 5c 78 57 be
       -0.0688625 -0.1711936 -0.17028978 -0.21042007
0002b0 b2 e6 8e 3d 94 2f 4b be 67 ca c0 3e 44 65 04 bf
       0.069775954 -0.19842368 0.3765442 -0.5171702
0002c0 e8 a4 7e be 10 b9 aa bd d2 b1 39 be 93 9d 1f bf
       -0.24867594 -0.08336079 -0.1813424 -0.62349814
0002d0 09 a9 9e be df 3e ec bc 87 c4 61 3d 35 b5 8e be
       -0.3098834 -0.028838573 0.055119064 -0.27872625
0002e0 f0 c7 31 3f a6 a2 b9 bd f3 9f 56 be 80 4b b9 bd
       0.69445705 -0.09064226 -0.20959453 -0.090476036
0002f0 b8 78 b9 3e 0d 15 f1 bd 59 24 ee bc 5e ec d3 3d
       0.36224914 -0.11771593 -0.029070066 0.10347818
000300 3b b4 5b 3e 82 c7 a2 bc ec df f1 3d db 74 8f 3d
       0.21455471 -0.019870523 0.11810288 0.0700471
000310 9a fd 4c bd ab 4f 7f bd 37 44 0e be 5e 86 3c bd
       -0.05004654 -0.062331837 -0.1389321 -0.04602658
000320 81 74 0d be 1d bc 57 be 20 dc d3 3d c1 6f 4a 3d
       -0.13813974 -0.21067853 0.1034472 0.049422983
000330 8d b1 a6 bd 95 fe 04 be e0 a8 db 3a 66 57 49 bd
       -0.08139334 -0.1298774 0.0016758703 -0.049155615
000340 f7 d2 ea 3d 4a bf ba bc e5 6c 03 be e0 b2 fb 3d
       0.114660196 -0.022796292 -0.12834509 0.12289977
000350 59 35 27 3d 9f 5b 39 be ef e4 50 be 3f 89 94 3d
       0.04082236 -0.18101357 -0.20399831 0.0725274
000360 d7 61 83 bc e0 a2 2e bd bf 83 76 bd 2d 97 23 3d
       -0.016037865 -0.0426358 -0.060184237 0.039939094
000370 cb 1c fc bc a8 80 c1 bd b2 65 bd bc b0 40 f6 bd
       -0.030775448 -0.09448367 -0.023119781 -0.12024057
000380 37 34 70 be 8e ff fc bd 23 04 29 bd bb 66 ad 3c
       -0.23457418 -0.12353431 -0.04126371 0.02116715
000390 2c 29 d8 bc 92 b9 da bc f2 c3 a3 bd 6f 7a 10 3e
       -0.02638682 -0.026699815 -0.07996358 0.14109205
0003a0 fd f4 86 bd e6 d7 31 3c d9 5a 0d 3d 3b b2 7a bd
       -0.065896966 0.010854697 0.034510467 -0.06120513
0003b0 8e 3f 65 3d 3d 54 6c bd 8a 19 dd 3b 4f c7 14 bd
       0.055968814 -0.057697523 0.0067474293 -0.036322888
0003c0 29 9b 5a bd c0 1f 40 be 4d 77 e5 bd 9e 5a 67 bc
       -0.05337063 -0.18762112 -0.112043954 -0.014120726
0003d0 b0 dc 13 3e 26 55 f6 bc 9d 5e 76 3d 06 bf 57 bc
       0.14439654 -0.030069899 0.060148824 -0.013168102
0003e0 8c 1e d3 3c 6b 57 25 3e 90 7a e9 bc c5 24 8b bd
       0.025771402 0.16146629 -0.028500825 -0.067941226
0003f0 ab 8a 9f 3d 7f 18 56 bc fa c5 66 bd f4 bd f9 3d
       0.07790121 -0.013067364 -0.05634115 0.12194434

layers.1.W2.weight f4 [64, 64]
000000 82 42 f5 bd 1b 59 03 bd c3 6f ad bb 48 08 73 3d
       -0.11975576 -0.0320674 -0.005292864 0.05933407
000010 f4 af ee bd 11 c7 8d bd 96 eb a6 bd c6 de 07 be
       -0.11654654 -0.069227345 -0.08150403 -0.13268575
000020 3d 31 09 3b e5 67 af bc a1 58 61 3c 98 b5 63 bd
       0.002093389 -0.021411845 0.013754041 -0.055593103
000030 49 12 45 bd a4 fb 61 bd c6 d9 a9 3c b1 b0 0a be
       -0.04811314 -0.055171624 0.020733725 -0.13543965
000040 af 9d 07 bd ba dd 99 3c d8 1b 3e 3d 98 a5 bf bd
       -0.033109363 0.018782485 0.046413273 -0.093577564
000050 a4 73 a1 3d a8 81 07 be f9 b9 6a 3c 17 dc 48 3d
       0.07883385 -0.13233054 0.014326566 0.04903802
000060 5f c7 3f bd 12 62 a1 3a be 15 2e be 17 5e c6 bd
       -0.046820994 0.0012312552 -0.17000481 -0.09685915
000070 7f 04 cf bd cc 91 2d be 72 9a f3 bd 90 64 50 bc
       -0.101082794 -0.16950148 -0.118946925 -0.0127192885
000080 75 f8 7e bd f7 e8 96 3d a5 ac 28 be 45 97 70 ba
       -0.062248666 0.07368653 -0.16472109 -0.00091778144
000090 e4 ca 07 3e df d5 91 3d 66 f9 c6 bd b0 f5 1c be
       0.1326099 0.07120871 -0.09715538 -0.15328097
0000a0 66 55 b3 bd 88 90 05 3d 61 71 a7 bc e2 69 a3 3d
       -0.08756523 0.03260854 -0.020439805 0.0797918
0000b0 c3 6e 0f be 8e a3 02 be 8f d6 e8 bb 90 b4 19 3b
       -0.14007096 -0.12757704 -0.0071056555 0.002345357
0000c0 ba 8d 06 be f3 ab 8a 3d f9 d1 9b bd d1 cd 1c be
       -0.13140002 0.06771078 -0.076084085 -0.15312888
0000d0 0d 2c ff ba e3 4e de bd 85 c5 eb bd f9 7d da bd
       -0.0019468084 -0.1085489 -0.11512283 -0.106685586
0000e0 c2 b1 f5 bc 71 d4 88 3c 24 d2 0f 3d 07 50 04 be
       -0.029991988 0.016702862 0.035112515 -0.12921153
0000f0 de 14 82 bd f7 90 8b 3d fc 1e e7 bd f0 57 da 3c
       -0.06351636 0.06814759 -0.11285207 0.02665326
000100 96 ba d5 bd d2 f0 25 be c7 71 38 be 12 23 93 3c
       -0.10435979 -0.16205147 -0.18012153 0.017961059
000110 1c 93 c3 bb 45 f6 6d bd 69 ac d7 bc 43 88 8e 3d
       -0.0059684645 -0.05809619 -0.026327329 0.069595836
000120 5d 26 85 bd 77 1a 46 3d ba 97 b6 bd f9 89 f9 39
       -0.06501458 0.048365083 -0.08915658 0.0004759578
000130 93 f7 83 3b 2e 8a fc bd 24 89 54 be 02 56 b3 be
       0.004027316 -0.12331043 -0.2075544 -0.35026556
000140 e7 38 f1 bd 97 34 89 bc 37 af 9d be 49 b5 8d bd
       -0.117784314 -0.01674871 -0.3079774 -0.06919343
000150 a2 e8 30 be 35 1e c8 bd 8b 5d 33 be 9e 73 d9 3d
       -0.17276242 -0.097713865 -0.17516153 0.10617755
000160 ca c2 cc bd 8e 9a 09 be 46 3a 70 be 45 1f 88 3c
       -0.099980906 -0.13437864 -0.2345973 0.016616473
000170 73 c5 b7 3d 1a c7 eb bc e3 85 07 be 61 90 2c 3e
       0.08973207 -0.028781462 -0.13234667 0.16851951
000180 05 ad c8 bd af cd 2f be 7c cc ce bd bd d3 9c 3d
       -0.09798626 -0.17168306 -0.10097596 0.07657573
000190 c9 24 09 be f4 a4 36 bd d7 35 37 3d e7 6a f5 3b
       -0.13392939 -0.044590905 0.04472908 0.0074895504
0001a0 07 35 d4 bd 3a e8 d7 bd a1 48 28 bd f8 b4 1d 3e
       -0.10361677 -0.105423406 -0.04108489 0.15401065
0001b0 42 4f af 3d ce 78 e6 bd e0 7f 50 3e e9 0b 30 be
       0.08560039 -0.112535104 0.2036128 -0.17192043
0001c0 eb 28 fb 3c 50 18 e9 3c fd bb 8e bd ee 3d 96 be
       0.03065916 0.028453976 -0.0696945 -0.29344124
0001d0 0e f3 77 3d 85 0b 8b 3d d3 49 9d 3c d3 88 8a bd
       0.06053453 0.067893066 0.019200241 -0.067643784
0001e0 ba 77 b3 3d 62 c7 9d bd da ef 64 be 6c 39 89 bd
       0.087630704 -0.07704045 -0.22357121 -0.067004055
0001f0 be c8 dc bd 98 18 1c 3c b4 a7 de 3b 92 46 9e be
       -0.10780476 0.009527348 0.006794894 -0.30913216
000200 91 e7 13 3a c6 63 4e be ae 3c c5 3c 78 c2 8c 3e
       0.0005642111 -0.20155248 0.024076786 0.27492118
000210 42 6c 31 be 54 a7 f8 3d 70 c8 65 bd c4 70 eb 3e
       -0.17326453 0.1214129 -0.056099355 0.4598447
000220 74 81 9e be 44 d2 d7 bd 62 1f 34 be d7 34 54 be
       -0.3095814 -0.10538152 -0.17590097 -0.20723282
000230 75 f8 a0 bd 6b 66 f2 bd 8b c5 83 be 02 9b 42 be
       -0.078598894 -0.11835941 -0.2573665 -0.19004443
000240 b9 34 0d be 61 39 b1 be 1b 16 9e 3e 17 04 e7 bd
       -0.13789643 -0.3461409 0.3087624 -0.11280077
000250 8d 3f 31 be c5 8b 90 bd 97 fb 96 be 3b 06 a8 bc
       -0.17309399 -0.07057909 -0.29488823 -0.020510783
000260 cb 1e 8b be 25 81 4b bb 31 dc 47 be 60 34 a2 bd
       -0.2717193 -0.0031052318 -0.1951759 -0.07920146
000270 85 5f 03 be a2 d0 19 be 3f 48 73 3e e1 80 0d 3f
       -0.12829407 -0.15020993 0.23758028 0.5527478
000280 78 b8 ed bd 1c 1b 96 be 60 84 78 be b7 24 12 be
       -0.1160745 -0.29317558 -0.24269247 -0.14271818
000290 ec 16 34 be e0 98 50 bd bd f4 7d bd bd e8 7d 3e
       -0.17586869 -0.050927043 -0.06200098 0.24795814
0002a0 cb 43 5a be 81 45 03 be e8 22 71 bb 6d cc e6 3d
       -0.21314923 -0.12819482 -0.0036794487 0.1126946
0002b0 75 17 2c be 56 9d 80 be d6 4e 5a 3e 89 c7 2b 3c
       -0.16805823 -0.25120038 0.21319136 0.010484585
0002c0 44 9f dd bc b2 d8 20 be 89 fc a9 bd 94 fd 9c be
       -0.027053483 -0.15707663 -0.083001204 -0.30662215
0002d0 a5 d1 22 3f 33 c3 7a bd 34 e5 27 3d ca 97 a1 3d
       0.6360114 -0.061221313 0.04099007 0.078902796
0002e0 19 f9 66 3f 8b 7a 3e bd 4b 68 26 bd 1b 8d a1 be
       0.9022384 -0.046503585 -0.040626805 -0.31552967
0002f0 78 c0 40 bd ab f1 54 be b5 4f 32 be 1d b7 1b 3f
       -0.047058553 -0.20795314 -0.17413218 0.60826284
000300 cc 31 15 bd 4d f1 7c bc a0 0f 0b 3e db a7 6e 3d
       -0.036424443 -0.01543839 0.13580179 0.05826555
000310 77 32 41 be bc 17 26 be 18 8d 41 bd 42 db 23 3d
       -0.18866907 -0.16219991 -0.047253698 0.040004022
000320 e7 d3 53 bd d9 e8 13 bc e8 6e e1 3d a7 e3 c1 bd
       -0.051715758 -0.009027683 0.11007482 -0.09467249
000330 9b 07 95 bd a1 1f cb bd 28 ad d0 bc f7 a0 bb bc
       -0.07276841 -0.09918142 -0.025473192 -0.022903902
000340 3a a6 6a 3d 82 8f 42 bd 9f c4 e6 bd 3e 22 d8 3d
       0.057287432 -0.04750014 -0.11267971 0.10553406
000350 4d c7 43 bd 0a 33 82 bd 81 a8 2c be 64 70 0c 3e
       -0.04779749 -0.06357391 -0.16861154 0.13714749
000360 66 47 9d bd 1e 92 ae bd 66 f0 b2 bd 53 9a ec 3d
       -0.07679634 -0.085239634 -0.087372586 0.115528725
000370 be b1 04 be 13 61 49 bd 88 5b 43 bd c6 3d 4a 3d
       -0.12958428 -0.049164843 -0.047694713 0.049375318
000380 2a b6 de bd 4a f1 2e be d1 47 db bd 61 92 a0 bd
       -0.10874589 -0.17084232 -0.10707057 -0.078404196
000390 d8 7d 6d be 6d ae f2 bd ec 99 6e 3d 1d af 3c bb
       -0.23192537 -0.11849675 0.05825226 -0.00287909
0003a0 50 68 d8 bd 3d f7 af 3c 6a 1e 35 3d e3 d5 e3 3c
       -0.10566771 0.021480197 0.04421846 0.02781195
0003b0 76 e0 f9 3b f6 d6 77 bb dc 7e 31 be ab aa 38 be
       0.007625635 -0.0037817336 -0.1733355 -0.18033855
0003c0 62 dc 65 bd 4d 1c 7f 3c 3b 03 22 be 64 e5 8a bd
       -0.056118377 0.015570712 -0.15821545 -0.06782034
0003d0 bb b0 2c bd f1 b6 ca bd 38 57 78 bd db d8 38 bd
       -0.04216073 -0.098981746 -0.060630053 -0.045128684
0003e0 91 48 47 bd 25 1e a2 bd b0 55 e8 bd 93 38 84 3d
       -0.04865319 -0.07915906 -0.113444686 0.06456103
0003f0 0d fb 94 3d a7 7c 94 bd 0c 9d cb bd 16 0c d1 bb
       0.07274447 -0.07250338 -0.09942064 -0.0063796146

layers.2.W1.weight f4 [64, 64]
000000 50 6f d7 bd 5c c4 8b bd 94 66 f7 bd 64 23 09 3e
       -0.10519278 -0.06824562 -0.12080112 0.13392407
000010 31 25 33 be fa d7 20 be 91 b2 24 be 17 a5 2b be
       -0.17494656 -0.15707389 -0.16083743 -0.16762196
000020 26 c0 72 bd b4 0d 04 3e 65 4e e0 bc db 69 e7 3d
       -0.05926528 0.12895852 -0.027381131 0.11299487
000030 9c 44 37 bd 00 20 1c bb c8 ea e7 bd b8 06 53 3d
       -0.044743165 -0.0023822784 -0.11324078 0.05152008
000040 e5 d6 78 3d 00 c9 3a ba 1c 1c 1e bd 18 96 bd 3c
       0.060751814 -0.0007125288 -0.038601026 0.02314286
000050 25 5a 82 3d 57 f6 76 bd 1a 1b a5 bd 16 62 8b bd
       0.0636485 -0.06029352 -0.0806181 -0.06805818
000060 35 31 e3 bc 5c 28 1f bb ba 88 29 be 95 af 8d bc
       -0.027733425 -0.002428553 -0.16556063 -0.017295638
000070 94 38 ec bc 68 1b 63 3d e4 a0 be ba f0 a2 df 3c
       -0.028835572 0.05544606 -0.0014543799 0.027299374
000080 29 6d 31 bd 64 2e 17 be ac 18 9a 3d b0 63 d7 bd
       -0.043316994 -0.1476379 0.07524237 -0.10517061
000090 4c 44 4b bd 84 6b 1c be e4 e9 04 be 75 c5 f1 bd
       -0.04962568 -0.15275389 -0.12979847 -0.1180524
0000a0 40 ff a7 3d 78 ea 86 bc b0 31 a2 3c 6b d0 a4 bd
       0.08202982 -0.016469225 0.019799083 -0.08047565
0000b0 58 26 3c 3d 16 70 89 3d 61 d4 9a 3c d5 aa ef bc
       0.045935005 0.06710832 0.018900098 -0.029256264
0000c0 3c b6 13 be c4 dd fa 3d 59 51 37 be 8b 39 17 be
       -0.14424986 0.1224933 -0.17902125 -0.14768045
0000d0 a2 b3 9a bd 5f 8c be bd 08 60 5e 3d 78 f6 0b bd
       -0.075537935 -0.093041174 0.0542908 -0.034170598
0000e0 60 a8 2b be 7a 2b f7 3d 39 ff 58 3d a1 01 b8 3a
       -0.16763449 0.12068839 0.052977774 0.0014038571
0000f0 02 e2 3a be c4 2a 20 3c 14 cd c7 bc bd a3 9a bd
       -0.18250278 0.009775821 -0.024389781 -0.07550762
000100 d3 b9 28 be 47 fc c3 3d ac 8c 58 be c2 be 72 be
       -0.16477136 0.095696025 -0.21147412 -0.23705581
000110 74 32 15 3d b8 af 38 bc f5 84 be bc 36 a2 25 bd
       0.03642507 -0.011272363 -0.023256758 -0.0404379
000120 fb 3d 87 bc a3 b5 b2 bd 35 82 a7 bd 81 5a 31 3d
       -0.016509047 -0.08726051 -0.08179132 0.043299202
000130 39 62 83 bd 16 92 73 3d ee 4a 9d 3b c9 18 1e be
       -0.06415219 0.05946549 0.004800192 -0.15439142
000140 d8 0b 45 bd 94 db 38 3e 9c 29 33 bc 24 05 13 bd
       -0.048107 0.18052512 -0.010935213 -0.035893574
000150 eb b0 96 bc 14 b7 f3 bd f4 3c 69 3d 89 d8 4a bc
       -0.018394908 -0.11900154 0.056942895 -0.012380728
000160 53 2c 0e be d9 c4 12 be 3b 2b 30 be 4d d3 c3 bd
       -0.13884096 -0.14332904 -0.17203991 -0.09561787
000170 42 81 00 3d 0c eb 57 bd c0 3b f4 bd eb eb ce bc
       0.03137327 -0.052714393 -0.11925459 -0.025258979
000180 53 58 16 be a5 bb ba bc 0f cf 9a 3d 3b d1 3d 3a
       -0.1468213 -0.022794554 0.075590245 0.00072409556
000190 c7 2c b4 3c 31 31 2f be 2d b6 47 bc 11 86 88 bc
       0.021994008 -0.17108609 -0.01218943 -0.01666549
0001a0 f8 ee fa bc d1 a3 dc bd 1a 68 a3 bd 45 12 99 bd
       -0.030631527 -0.10773433 -0.0797884 -0.07474188
0001b0 c2 15 2f be b9 27 8c be 68 f9 40 3d 76 a6 95 be
       -0.17098144 -0.27374056 0.047112852 -0.29228562
0001c0 03 95 04 3d 0d cb 9f 3e 02 13 e7 bd 65 d2 f6 bd
       0.03236867 0.31209603 -0.11282922 -0.12051848
0001d0 c0 fe 87 3b e3 5e a7 bd 98 d1 84 bc ae af 7b 3d
       0.0041502416 -0.08172395 -0.016213223 0.061446838
0001e0 db e8 92 bd e2 3c 27 3d 03 23 1a be 7a 93 3b bd
       -0.0717332 0.040829547 -0.15052418 -0.04579494
0001f0 db 06 2f bd 4d 74 81 3d 1c 0b ca bd 1d 33 13 bb
       -0.042731147 0.06321011 -0.098654 -0.0022460886
000200 80 ac c6 3b da 54 a1 be e6 1c ce be 0a d0 fd bd
       0.006063044 -0.3151005 -0.40256423 -0.12393196
000210 74 b1 48 3d 90 0e 64 bd a6 22 9b 3d c8 ef 52 bf
       0.048997357 -0.05567795 0.07574968 -0.8239713
000220 88 84 b7 bd e8 e5 f3 3d ac ef 40 bd bc 8d cb bd
       -0.08960825 0.119090855 -0.04710357 -0.09939143
000230 38 24 bb bd dc 48 7b 3d 78 36 8f bc 0e 6b d7 bd
       -0.091377676 0.06134878 -0.017482027 -0.10518466
000240 08 9c 93 bc 3e ef 33 be 7e 99 32 be c0 8b 7a bd
       -0.018018737 -0.17571732 -0.17441365 -0.061168432
000250 9e e6 c1 3d 23 30 bd 3d ec 93 95 3d 10 08 29 3c
       0.09467815 0.09237697 0.073036045 0.010316864
000260 f4 0d 56 bd dc 1b 85 be b4 d0 ab bd 3e f4 b8 bd
       -0.0522594 -0.25997818 -0.08389416 -0.090309605
000270 46 b9 dc bd 28 ec b5 3c 35 42 1b 3e cc e7 d0 3d
       -0.107775256 0.022207335 0.15161975 0.10200462
000280 00 0a 50 bb e0 35 95 bc c0 3b 2a bc 4c ba 49 3d
       -0.0031744242 -0.018214166 -0.010390222 0.049249932
000290 08 32 a2 bc 7e 2b c5 bd 60 a0 04 be e8 bd 1f 3f
       -0.019799247 -0.09627436 -0.12951803 0.6239915
0002a0 b8 26 c5 bd f8 7e bb bd 12 d0 0a bd 78 ca a0 bd
       -0.09626526 -0.09155077 -0.033889838 -0.07851118
0002b0 a4 16 44 3d a0 f8 64 bf 82 ae f7 3d a8 98 16 bf
       0.047873154 -0.8944187 0.120938316 -0.58826685
0002c0 d4 be 8e 3d 20 3e 65 3e 08 d6 80 be 82 09 ef bd
       0.06969991 0.2238698 -0.25163293 -0.11671735
0002d0 56 42 ed bd d6 45 f2 bd c0 57 1d bb 6c cb eb 3d
       -0.11584918 -0.118297264 -0.0024008602 0.11513409
0002e0 72 ed e3 3e 4a 4b a0 3d a4 05 3b 3e 4a e5 31 3f
       0.44517094 0.0782686 0.1826387 0.6949049
0002f0 80 66 47 bd bc 17 18 bd 74 2d ef bd 80 b7 8c 3d
       -0.048681736 -0.03713201 -0.11678591 0.06870937
000300 b7 cf 86 3b 4c 2c 00 bd b0 7f 10 3d c3 f6 ab 3b
       0.004114117 -0.031292245 0.035278022 0.005247922
000310 80 34 ec 3d 33 2b a8 bd 00 22 32 3e 09 8d d4 be
       0.11533451 -0.082113646 0.17395782 -0.4151385
000320 06 12 d9 3d c6 38 2b 3e 5e 25 92 3c 01 0b 34 be
       0.10599141 0.16720876 0.017840084 -0.17582323
000330 6b 9d 84 bd fb 6e 56 3d 2e af ef bd c7 cf 80 bc
       -0.064753376 0.052351933 -0.11703335 -0.015724076
000340 c9 8b 09 3e d3 be 6f be 6b 46 d7 3e ed 6f 46 bc
       0.1343223 -0.23412637 0.42045912 -0.012111646
000350 c9 3c 11 3d d6 84 88 3d 4f e3 35 3d 90 61 04 3e
       0.03545836 0.066659614 0.04440623 0.12927842
000360 89 b5 b7 bd dc 8e 87 3d 01 e6 b5 ba e0 e1 34 3e
       -0.08970172 0.06619045 -0.0013877751 0.1766429
000370 84 7a 8a 3d eb 6f 33 3c e2 eb ba 3d 34 20 79 bd
       0.06761649 0.010951976 0.09127022 -0.060821727
000380 eb 3b c8 3d 0a 0a 3a 3b ed ed 30 be ee b4 e4 3d
       0.097770534 0.0028387331 -0.17278261 0.11167322
000390 30 c6 f9 3d 00 43 05 be fd c5 93 bd 06 a8 ed bc
       0.121960044 -0.1301384 -0.07215498 -0.029010784
0003a0 a0 72 98 3d d2 46 85 3d f9 a0 fe 3d ec 23 af 3b
       0.07443738 0.065076485 0.12433047 0.0053448584
0003b0 26 e3 27 3e 1d 29 b1 be 4d 27 0e bd 1f bb 18 be
       0.16395244 -0.3460168 -0.03470545 -0.14915131
0003c0 c1 57 28 3e 77 9a 0c 3e ea f5 2f 3e cc c4 2d bd
       0.16439725 0.13730799 0.17183653 -0.04242401
0003d0 5f 8e df 3d db ce d7 3d de fe c9 bd 94 6f 7e 3d
       0.10915827 0.105375014 -0.09863065 0.062118128
0003e0 69 12 3f 3d 6a 5e b8 bc 2b f4 4f 3e e7 ae c6 3d
       0.046648417 -0.022505958 0.20307986 0.09701329
0003f0 00 c6 0d bd e6 b7 37 3d 39 83 26 3e af f7 33 3e
       -0.034612656 0.044853114 0.16260995 0.17574953

layers.2.W2.weight f4 [64, 64]
000000 f2 46 ea bc d1 13 ae bd ae 0f bc bd c3 d6 33 be
       -0.028598282 -0.084998734 -0.09182678 -0.17562394
000010 35 e7 5f bd 64 b3 1b be 87 bd 0b be fe 48 08 bd
       -0.054663856 -0.15205151 -0.13646518 -0.033272736
000020 d7 69 56 bd a8 29 52 3b a2 9c 26 bd a9 ca fb 3d
       -0.05234703 0.0032068286 -0.04067672 0.12294514
000030 fa d7 dd bd 48 99 36 bd 48 d1 b4 3c b6 7d f1 bc
       -0.1083221 -0.044579774 0.02207245 -0.029478889
000040 9b 0b 8a bc 3e 56 ae 3d 11 7b 8d bd 7c 16 2a 3d
       -0.016851237 0.08512543 -0.06908239 0.04152535
000050 f6 26 07 be 0e a3 9b bd bf 49 05 3d 92 ff f7 bd
       -0.13198456 -0.075994596 0.032541033 -0.12109293
000060 14 b2 11 be 93 24 2c be cd 05 34 3d 1a e5 97 bd
       -0.14228088 -0.16810827 0.043950845 -0.074167445
000070 fb f0 5e 3d c6 fa 89 bd 32 9b c0 bd e5 38 a7 3c
       0.054429036 -0.06737284 -0.09404601 0.020412872
000080 49 fb 3c be dc 3d 3a be 4c 6f ab bd 00 62 0b 3b
       -0.18455233 -0.1818766 -0.083708376 0.002126813
000090 cf 39 33 be 22 7c 68 be 2e 53 f2 3a 6a 48 af bd
       -0.17502521 -0.22703603 0.0018487924 -0.08558734
0000a0 00 4c b4 bc 70 4b e1 bd 56 1b b1 bd 33 a0 4b bd
       -0.022008896 -0.11000717 -0.08647792 -0.049713325
0000b0 fc 2c 0d bd ee c4 ae bd 09 b6 0b be 2d a1 0a be
       -0.03446673 -0.08533655 -0.1364366 -0.13538046
0000c0 cf 18 d6 3c 1b 6f 0a bc 1e 2e 4e bd 4f fd a7 bd
       0.026134877 -0.008449341 -0.05033695 -0.08202612
0000d0 04 e0 4d bd f7 0c 86 bd 22 81 c1 3d eb ae 0d 3d
       -0.050262466 -0.065454416 0.09448458 0.034590643
0000e0 4b 77 b0 bd b0 f6 cd bc 67 32 05 be 8a 10 f2 bd
       -0.08616503 -0.025142044 -0.13007508 -0.11819561
0000f0 15 b9 a6 bd 07 ef 05 3d 87 0b 2d bd 7c 0c 2b be
       -0.0814077 0.032698657 -0.04224732 -0.16703981
000100 44 cc bc bd 00 11 2c be c4 fa 8a ba fc 67 6d bd
       -0.09218648 -0.1680336 -0.0010603298 -0.057960495
000110 f4 f7 bb bd 32 b9 22 bc 9d 7d 35 be f2 0a 01 be
       -0.09178153 -0.009931849 -0.17723699 -0.12601832
000120 a2 f4 45 bd cf f4 f6 3c 8d a3 2b 3d 0f 87 83 bd
       -0.048329003 0.03014603 0.04190402 -0.06422245
000130 8d 72 3d be d0 e6 eb 3d 35 76 a9 3c 1e cf 57 3d
       -0.18500729 0.11518633 0.020686248 0.052687757
000140 77 ec bf bd 1f 26 db bd 3e 2b fd bd 3b c4 63 3d
       -0.09371274 -0.107006304 -0.123617634 0.05560706
000150 ea b2 ab bb c2 26 15 be 44 43 1c bd 69 5f a6 bc
       -0.005239834 -0.14565566 -0.038150087 -0.020309167
000160 44 7c bd bd f5 07 98 bc 4b 64 30 be 7c f5 fe bd
       -0.092522174 -0.018558482 -0.17225759 -0.12449166
000170 ae 32 a2 3c 46 5b 34 3e 56 b2 a6 bc d2 02 06 be
       0.019799557 0.17612943 -0.02034871 -0.13087013
000180 bf 91 6d bc 8c 38 07 be 34 5f 89 bd 85 f4 11 be
       -0.014500081 -0.13205165 -0.06707612 -0.14253433
000190 84 41 93 bd 20 34 f8 bd 2f db 0b be 5f 9f 45 be
       -0.071902305 -0.12119317 -0.1365783 -0.19299076
0001a0 40 50 11 bc 70 57 18 bd 42 65 1e be c8 c7 fe bd
       -0.008869231 -0.037192762 -0.15468314 -0.12440449
0001b0 88 c9 2f bd 91 6c e3 bb b3 06 bc bc 9d c7 47 be
       -0.042916805 -0.0069404324 -0.022952413 -0.1950974
0001c0 46 ba 01 be 03 2d 69 3d 1f 04 df bc db 98 dd bc
       -0.12668714 0.056927692 -0.027223645 -0.027050426
0001d0 80 06 52 bb 93 a0 19 be 2a a1 ff 3d 46 ef 06 bd
       -0.0032047331 -0.1500266 0.124819115 -0.032943033
0001e0 17 b2 cf 3c 3d cd 02 3d dd 91 2b be e0 69 64 3d
       0.025353475 0.03193401 -0.16754861 0.055765033
0001f0 44 f1 b5 bd 02 40 13 be 42 e3 48 3d 29 90 a1 bd
       -0.088839084 -0.14379886 0.049044855 -0.078888245
000200 20 ba a8 3c 80 a5 0f be 51 5e 89 bd 2a 57 a2 3d
       0.020596564 -0.14027977 -0.067074426 0.079267815
000210 fc 24 42 3d 50 34 ce 3d a8 4c 0e bd 8b bd 1d bf
       0.047398552 0.100685716 -0.034741074 -0.61617345
000220 b8 91 c8 3c a8 91 09 bd 00 58 87 38 d0 35 d0 bd
       0.024483547 -0.033586174 6.453693e-05 -0.10166514
000230 b4 97 e5 3d 58 ae 80 3d b0 07 39 bc 80 dd 4f 3b
       0.11210576 0.062832534 -0.011293337 0.0031717718
000240 7c 6d 5e bd 37 f8 25 bd f2 8c a1 be 28 be 89 bc
       -0.05430363 -0.04051992 -0.31552845 -0.016814306
000250 08 c9 a5 bd e2 2a 2b 3e 40 5e ba bd 64 ae ca 3d
       -0.08094984 0.16715577 -0.09100008 0.098965436
000260 8a 6a dd bd 9e d4 ff bd 00 c9 47 3b c4 05 fc bd
       -0.10811336 -0.124917254 0.0030484796 -0.12305787
000270 c2 77 ee 3d 50 21 ef 3d 01 c4 97 be b8 5a bf 3d
       0.11643936 0.11676276 -0.29641727 0.09343475
000280 1c e9 44 bd 68 80 fa 3c ba 6e b3 bd d0 a5 0a bc
       -0.048073873 0.030578807 -0.08761354 -0.008462384
000290 30 54 1c bd e0 09 fd bd 1f b9 9d bd 0f aa 54 bf
       -0.038166225 -0.12355399 -0.07701325 -0.8307199
0002a0 30 62 0a 3c eb 97 a6 3d a8 3c ce 3d 6c d0 67 3d
       0.008446261 0.08134445 0.10070163 0.05659525
0002b0 c0 b0 3d 3b b0 aa 76 3e 9e d9 87 3d 67 cb 17 bd
       0.0028944463 0.2408855 0.06633304 -0.037059214
0002c0 a0 a6 e9 bb 62 28 ed bd a6 5d 9c be 70 86 1b 3c
       -0.007130459 -0.11579968 -0.30540198 0.009492502
0002d0 36 8a a8 bd 48 8d f4 3c c8 08 b1 3d c8 d3 d9 bd
       -0.08229487 0.029852524 0.08644253 -0.10636097
0002e0 e7 41 9e 3d bc 32 7a bd 8e b3 51 be 71 6a 45 3e
       0.077274136 -0.06108354 -0.20478651 0.19278885
0002f0 d0 ca cb bc a2 8f c4 3d 00 4a d3 bd 68 c3 08 bd
       -0.024876982 0.09597708 -0.10316849 -0.03338948
000300 6c 68 52 3c 2b 97 f6 3d c3 4d 8f be 2c 67 a5 3d
       0.012842279 0.12040552 -0.27989015 0.08076319
000310 9f 23 61 bc 8e a4 47 3d d6 c5 0b 3d 98 ec 7d 3c
       -0.013741403 0.048740916 0.034124218 0.015498303
000320 d1 6f 06 bb 04 98 de 3b 4f d4 14 3e b0 7e 1e be
       -0.0020513425 0.006793024 0.14534114 -0.15478015
000330 7e 14 bd 3d 0d 7d 81 bd 00 de 31 bc 5f b0 0f 3e
       0.09232424 -0.0632268 -0.010856152 0.14032124
000340 ad 62 83 bd a1 3d 1e be 7f a5 4a be 2d 82 6e bd
       -0.06415305 -0.15453197 -0.19789694 -0.058229614
000350 70 3e 09 3e 32 a3 7a bd a9 68 ba bc 4d 3e 08 bd
       0.13402724 -0.06119079 -0.022754984 -0.03326254
000360 67 e8 38 bd a2 a4 99 3d 5f 70 6f 3d fd 4e 1f bd
       -0.04514351 0.07502104 0.058456775 -0.03889369
000370 9c 3c b3 bd 7d b1 b2 bc f4 a3 f3 3c b2 31 15 be
       -0.08751795 -0.021813149 0.029741265 -0.14569739
000380 8e d6 87 bd c9 36 82 bd 8a 9a 60 ba 85 12 1a 3e
       -0.0663272 -0.06358106 -0.000856795 0.15046127
000390 e3 73 6e 3a d1 82 a4 bc 7d 46 1e bd 5d 74 45 be
       0.0009096248 -0.02008191 -0.03864144 -0.1928267
0003a0 9f 6f d9 3d d9 6d 2e bd fb 41 c8 bc b3 e5 43 3d
       0.10616993 -0.042585228 -0.024445524 0.04782648
0003b0 75 c0 4a bd 29 9c 9b bd 4e 0c 12 3e f4 3e b8 3d
       -0.049499948 -0.075981446 0.14262506 0.08996382
0003c0 2d 81 0b 3d 9b 4f 3b 3c 5c 20 ac 3b 8e 01 1a bd
       0.03405874 0.011432554 0.005252881 -0.03759914
0003d0 de 79 0f be f8 00 19 3d 7b e2 da bc 56 97 c1 bd
       -0.14011332 0.03735444 -0.026719322 -0.09452693
0003e0 6f 56 fb 3c 64 b1 ef bc f2 ba 01 3e 65 f1 94 3c
       0.030680863 -0.029259391 0.1266897 0.018181512
0003f0 bd 88 03 3e a7 7b 7b bd 3a be ad 3d 02 7d c3 3d
       0.1284513 -0.06139722 0.084835485 0.09545328

classifier.0.weight f4 [64, 64]
000000 0f 74 1e bc f9 e7 f4 3d 01 12 9e be 5a 76 86 bb
       -0.009671225 0.11958308 -0.3087311 -0.004103464
000010 36 74 52 bd 03 a6 59 bd 05 9a b7 bd 36 3f f3 3d
       -0.05138036 -0.053136837 -0.08964924 0.11877291
000020 7e 08 29 3e 15 49 26 3e d4 f9 11 be 02 c9 db bb
       0.16507146 0.16238816 -0.14255458 -0.0067073116
000030 88 77 ce 3c 5c 29 d0 3c b8 bb a2 be 24 80 34 bd
       0.025203481 0.025410347 -0.31783843 -0.044067517
000040 fa 1d 26 bc 68 8f 3f 3c 70 20 33 bf 1e 12 b8 3d
       -0.010138983 0.011691906 -0.6997137 0.089878306
000050 fe f0 94 3d 71 33 6a 3e ef 93 7e 3e fe 0f 3e bc
       0.07272528 0.22871186 0.2486112 -0.0116004925
000060 98 93 21 be 22 97 cc 3b d9 76 05 3e 1b 8a 9e 3d
       -0.15778959 0.0062436024 0.13033618 0.07741185
000070 63 f7 d0 3d 55 d6 bf 3d 4f b7 5c 3d 2d 5d da 3d
       0.10203435 0.093670525 0.053885754 0.10662303
000080 7a 1c 8e be d1 47 02 bd 32 f7 a4 3c 2d e8 d9 3d
       -0.277561 -0.03180677 0.020137403 0.10639987
000090 9c da fe bc cd 52 ab 3c 83 40 cd 3d 26 fd 54 bd
       -0.0311101 0.020913506 0.1002207 -0.051999234
0000a0 bc 21 7b bd c9 42 22 bc b7 e3 26 bc be b5 05 3e
       -0.06131147 -0.009903618 -0.010186127 0.1305761
0000b0 41 f8 91 3d d0 63 0e be 6e bc 2d 3e 5c f8 a5 3e
       0.07127429 -0.13905263 0.16966411 0.32416046
0000c0 f5 5a e6 bd 66 5a f6 3d 67 04 8c be ec 4a 1a 3e
       -0.112478174 0.12028961 -0.2734711 0.15067643
0000d0 c8 55 a6 3d 62 44 84 bd 6d a4 3f bd 89 df 1e 3e
       0.0812183 -0.064583555 -0.046787668 0.1551496
0000e0 f1 41 b0 bd 71 de 98 3d f8 36 ee 3d f5 88 20 bd
       -0.08606327 0.07464302 0.11631578 -0.039193112
0000f0 45 1e 7a 3d 3f 69 c3 ba 88 5d fa bc 10 43 3d 3e
       0.061064024 -0.0014908685 -0.030562177 0.18482614
000100 89 6b b5 3e b5 06 06 3f ae 86 2a 3f ff 58 2f be
       0.35433605 0.52353984 0.66611755 -0.17123793
000110 e2 8c 0b 3e b2 49 61 bd b1 90 d1 3e e7 41 6f be
       0.13627961 -0.055001922 0.40930703 -0.23364983
000120 94 69 75 3d 7f 3d a6 bd 14 6e fa 3c 9b 6a 7e 3e
       0.05991514 -0.08117198 0.030570067 0.24845354
000130 66 d0 bf 3b 2b 58 08 3d 02 2b 0e 3f a2 45 02 bf
       0.0058537005 0.03328721 0.55534375 -0.508875
000140 9b a0 c4 3e 42 cb 5f bd 2f 1a 8e 3f 2b 49 9a bd
       0.38403782 -0.0546372 1.1101741 -0.07533487
000150 de 12 a0 3d 12 71 ea be f1 b4 09 3d 0f 13 6e 3f
       0.07816099 -0.4578939 0.033619825 0.9299783
000160 f4 d6 57 3e 80 b4 05 3f c6 1c 0b 3f 00 41 95 3f
       0.21078092 0.52228546 0.5434078 1.1660461
000170 f2 23 2a be b9 f6 44 3f 28 f1 16 3e ae 59 af 3d
       -0.16615275 0.7693897 0.14740431 0.08562027
000180 88 93 cd 3e db b2 0e bd ec bc 75 3d e1 e9 53 bd
       0.4015162 -0.03483854 0.059994623 -0.051736716
000190 df 70 a6 bc 40 11 3c be 86 94 10 3d 11 ea 49 3d
       -0.020317493 -0.18365955 0.035297893 0.04929549
0001a0 52 59 b1 bd 57 db c3 bd 8d f6 65 3d 38 61 b0 3e
       -0.086596146 -0.0956332 0.056143332 0.34449172
0001b0 b8 d6 20 3f e2 cd 14 be 8f 9c 5d 3f 76 39 0f bf
       0.62827635 -0.14531663 0.86567014 -0.55947053
0001c0 52 9d 50 3d 1f db 83 3f 86 54 49 3f 01 5f d8 3c
       0.050931282 1.0301245 0.786446 0.026412489
0001d0 ec 3d 1b be d2 55 a9 3f 01 00 08 3e f4 4d 68 bd
       -0.1516034 1.3229315 0.13281251 -0.056714967
0001e0 9e 8b 0e 3e f2 7f f4 3d 03 3f af 3a de 4b 4c 3f
       0.13920447 0.11938466 0.0013370219 0.79803264
0001f0 63 ed 8b 3d 5b e6 26 be fa f4 9f 3e 56 c4 7a 3e
       0.06832387 -0.16298811 0.3124159 0.24488959
000200 eb 6d 82 3c 21 72 b0 bd 38 3e c3 bc b3 b2 39 be
       0.015921554 -0.08615518 -0.02383338 -0.18134575
000210 bb 11 96 bc 7b 68 82 bd 63 97 1d be 27 e2 1f be
       -0.018319001 -0.06367584 -0.1538978 -0.15613614
000220 16 ff 2c 3c a4 b1 28 be 30 93 de 3c 7f 0c 5d 3d
       0.010558864 -0.16474015 0.027169794 0.053966995
000230 2c 5a 16 bd 92 35 2d 3c 00 29 9c bb 48 bd e6 bc
       -0.03670709 0.010571854 -0.00476563 -0.028166428
000240 fd 62 0c be 16 18 99 bd e6 2f fa bd 35 da 2b bd
       -0.13709636 -0.07475297 -0.12216167 -0.041956145
000250 38 bb ff bc 64 c3 04 bd 42 28 89 3d 2d c7 8c bd
       -0.031217203 -0.0324129 0.06697132 -0.06873927
000260 3c b3 1c 3d 6c c0 7b 3d d4 36 69 3d f4 4c 23 3d
       0.03825687 0.061462805 0.056937054 0.03986831
000270 f0 f2 e4 bd d9 09 6b bd 86 31 c8 bd 36 d6 c4 bc
       -0.11179149 -0.05738244 -0.09775071 -0.024027925
000280 fd db 5b 3c c7 f7 20 bd df 51 cd bd 70 7f 1f bd
       0.0134191485 -0.0392988 -0.10025381 -0.038939893
000290 da 61 bd bd 18 e8 df bd 90 a4 b0 bc d7 92 92 bd
       -0.09247179 -0.1093294 -0.021562845 -0.07156914
0002a0 13 9e b0 bd 31 9d 6e bb 0f 71 a9 bc 8e 3a f6 bc
       -0.086239 -0.0036409611 -0.020683793 -0.030057218
0002b0 70 cb ed bc 9b ac 58 3d ec 93 16 bd 3a 18 15 be
       -0.02902767 0.052898984 -0.036762163 -0.14560023
0002c0 d8 14 0f be 8c de 39 bd 71 ce 95 3c a5 4a 60 bd
       -0.13972795 -0.045378253 0.018286915 -0.054758687
0002d0 13 7f 5b 3d 92 94 27 3d ea 43 3d be 8a eb f0 bd
       0.053587984 0.040913172 -0.18482938 -0.117636755
0002e0 3e dd 87 bc 8c 44 87 bd a9 4f 94 bc e2 c6 03 be
       -0.016584989 -0.06604871 -0.018104391 -0.12868837
0002f0 3f 85 dd 3b 4a 26 07 be ed e8 52 bd 40 54 cc bd
       0.006760269 -0.131982 -0.051491667 -0.09977007
000300 b3 b3 c4 bd 5a e3 a1 3c 64 5b 84 3d 8e 78 21 be
       -0.096045874 0.01976173 0.06462744 -0.15768644
000310 3c 3a 3d 3c 9c b3 a0 bd 63 d2 1f be e0 7b 4d 3d
       0.011549529 -0.07846758 -0.156076 0.050166965
000320 20 10 90 bc 4f 06 40 bd 6a 3d 47 bd 9a 55 9a bb
       -0.017585814 -0.046881016 -0.048642553 -0.0047099115
000330 82 d8 e6 bd 2b 6e 39 3c 71 c2 ff 3c d4 c7 95 bd
       -0.11271764 0.01131777 0.031220647 -0.07313505
000340 52 c1 c3 bd e8 3c 90 3c 40 0f 0c 3c 81 5f 1f bd
       -0.09558357 0.017607167 0.008548558 -0.03890944
000350 1b ad 0d be cd 60 1c bc 80 d1 fa 3b bf 05 58 bd
       -0.13835566 -0.0095445635 0.007654369 -0.052739855
000360 03 f3 09 be 2f eb 45 3d 93 3e 19 be ef 99 d1 bd
       -0.13471608 0.04831999 -0.14965276 -0.10234439
000370 96 af e6 bd cc 21 0a 3d 5a b1 e1 bd fd 65 6d bd
       -0.11263959 0.033723637 -0.11020155 -0.05795859
000380 04 b1 8c bd 81 9a 0a 3d 66 e0 29 be c9 13 00 be
       -0.068697006 0.033838753 -0.16589507 -0.12507547
000390 06 de f8 bd 40 3c de bc c2 a7 dc bd f1 58 80 bd
       -0.121517226 -0.027128339 -0.10774185 -0.06266964
0003a0 2c df 44 bc b5 ab 43 bd 57 81 44 bd 77 53 b0 bd
       -0.012016099 -0.047771174 -0.04797491 -0.0860967
0003b0 03 5b 19 be a1 a6 23 3d f9 bd 2a 3d 5f c9 1b bd
       -0.14976124 0.03995383 0.04168508 -0.03803384
0003c0 58 3c 19 bd ca 9e c7 bd 9e 10 a4 3b 4c 9c 78 3c
       -0.037411064 -0.097470835 0.0050068637 0.015173983
0003d0 26 46 08 bd 31 2b e8 3c b6 8d 4e bd 94 24 6c bd
       -0.033270024 0.028340908 -0.050428115 -0.05765207
0003e0 ca ca d3 bc 2f 98 38 be 62 98 a1 3c 26 2c 00 be
       -0.025853533 -0.18026803 0.019725982 -0.12516841
0003f0 5c 71 ea bd 93 56 8a bd 14 bc 1d be 0e ca a4 bd
       -0.11447403 -0.06754794 -0.15403777 -0.080463514
