checkpoints/mutag_1gnn.pt (torch, 91189 bytes, 10 tensors)

layers.0.W1.weight f4 [64, 7]
-0.09086755 -0.10008547 0.00091937854 -0.066768974 -0.112633795 0.55158085 0.84259 -0.21830325
-0.16812247 -0.17068274 -0.14830302 -0.267544 -0.018751135 -0.34328878 0.017909477 0.5038481
-0.026977433 -0.018799037 -0.22787695 -0.23124059 -0.33856803 -0.15194489 0.529319 0.30181462
0.023232367 -0.33409944 -0.22729364 -0.05964908 0.21491133 -0.025020912 -0.15583065 -0.020598417
-0.19520766 -0.24463964 1.236091 -0.26354194 -0.07344326 -0.37600067 0.067306094 0.07376183
-0.0009753698 -0.26354486 -0.37302822 -0.3069748 0.1882536 0.120073855 0.1474014 0.108406335
0.03560999 -0.04226011 0.015354303 -0.49191484 -0.35352856 0.12455941 -0.18556845 -0.076066315
-0.42464626 -0.3543092 -0.2865416 -0.34620395 0.98955256 -0.3101564 0.44465595 0.2710865
-0.375085 -0.21472701 -0.1832173 -0.11563504 -0.35982051 0.05656655 -0.38103008 0.17010342
0.09559426 0.27003017 -0.28991842 0.27183083 -0.17868331 -0.1220309 0.15813921 -0.22946142
-0.12056513 0.5457737 -0.3155945 0.23098251 -0.42538506 0.33315074 0.30889148 0.61940145
-0.089154094 -0.31055146 0.033849895 0.044457667 -0.37619135 -0.045014124 -0.22657287 0.73079354
-0.18603921 -0.20623508 -0.27578217 -0.5412059 0.043781973 0.016041918 0.7405424 -0.24109288
-0.23936404 -0.50909334 -0.42760167 -0.07128 -0.2844095 -0.29455125 -0.061272737 -0.3933029
0.3313254 -0.17078109 -0.08017096 -0.13013786 -0.18097162 -0.30759785 0.1751407 -0.3387046
-0.13360715 -0.21532005 -0.15408652 1.4434474 -0.013819246 -0.38759434 0.3547634 0.5548033
-0.39791572 0.42017558 0.016711747 -0.05791512 0.027158065 0.13177201 0.10112967 0.22961843
0.19376191 -0.23917176 -0.30308405 -0.2582872 -0.3730047 -0.2916521 -0.18942523 0.33853713
-0.1395239 -0.28748184 -0.30321214 0.055370387 -0.34762865 -0.114664406 0.32703498 -0.17492652
-0.067273535 -0.02780018 -0.29562742 -0.4532941 -0.31223738 -0.35652304 0.63128126 0.11062251
0.3045976 -0.2538137 0.09161639 0.008812086 0.20709041 0.23584332 0.15042622 -0.37475213
-0.20181488 0.088049956 -0.0938044 -0.22272658 1.0671716 -0.2738506 -0.21889195 -0.012651626
0.062290978 0.12060019 0.507735 -0.020212337 -0.2866435 -0.3529762 -0.2204946 0.189027
0.12942883 -0.30133045 -0.16207315 -0.24003875 -0.2654874 0.49874395 0.032221675 0.1992009
-0.34701148 0.18374981 -0.26657534 0.08148217 0.38675582 0.0053075254 0.49270555 -0.32204518
-0.14436701 0.05277756 -0.08234632 -0.18233812 -0.26167208 0.21798855 -0.0719572 1.051853
-0.2124023 -0.3068125 0.24568999 0.3809118 -0.46386635 -0.10575357 -0.029690702 0.07315857
0.017053127 0.2180777 0.19492492 -0.49425107 -0.1806727 -0.19212742 0.11775619 -0.11002952
-0.3353 0.012064466 -0.07303137 -0.10125235 0.8110696 -0.31872916 0.57254624 -0.386462
-0.22152932 -0.17129129 -0.33351758 -0.2833441 0.027060337 0.06468959 0.0010373736 -0.065808624
-0.35009828 -0.1376693 -0.043485355 -0.025159817 -0.04778132 -0.2851485 0.17821051 -0.3142242
-0.121631876 -0.14663315 -0.10318231 -0.16240515 0.14645076 -0.1975374 0.5114739 -0.0098260045
00000000: c418 babd 9cf9 ccbd 7302 713a 2cbe 88bd
00000010: 8cac e6bd 6734 0d3f fab3 573f e38a 5fbe
00000020: 4c28 2cbe 75c7 2ebe bfdc 17be 87fb 88be
00000030: fb9b 99bc 8cc3 afbe e5b6 923c 30fc 003f
00000040: c7ff dcbc 7000 9abc 9358 69be 55ca 6cbe
00000050: ca58 adbe 7197 1bbe 7381 073f 7287 9a3e
00000060: ce51 be3c 150f abbe aabf 68be 9852 74bd
00000070: b711 5c3e a8f8 ccbc 1292 1fbe 03be a8bc
00000080: 84e4 47be d082 7abe 3b38 9e3f f8ee 86be
00000090: 6b69 96bd 2983 c0be c7d7 893d 7110 973d
000000a0: f6af 7fba 5aef 86be 8efd bebe cd2b 9dbe
000000b0: 8dc5 403e 48e9 f53d 65f0 163e 2404 de3d
000000c0: c8db 113d f018 2dbd 9d90 7b3c 43dc fbbe
000000d0: b201 b5be 0119 ff3d a805 3ebe a8c8 9bbd
000000e0: 3c6b d9be 0468 b5be 95b5 92be a541 b1be
000000f0: 5153 7d3f d2cc 9ebe f2a9 e33e dacb 8a3e
00000100: 240b c0be 66e1 5bbe 519d 3bbe 10d2 ecbd
00000110: 653a b8be 54b2 673d 6016 c3be 972f 2e3e
00000120: ecc6 c33d 6541 8a3e 3070 94be 692d 8b3e
00000130: c2f8 36be 56eb f9bd 3fef 213e eff7 6abe
00000140: daea f6bd d3b7 0b3f 9a95 a1be ae86 6c3e
00000150: 12cc d9be bc92 aa3e 0627 9e3e 1891 1e3f
00000160: 6c96 b6bd 9a00 9fbe 30a6 0a3d 3e19 363d
00000170: 279c c0be bb60 38bd b802 68be 4915 3b3f
00000180: 1081 3ebe 4a2f 53be 5233 8dbe 788c 0abf
00000190: ba54 333d 576a 833c 3094 3d3f 0de1 76be
000001a0: d91b 75be f153 02bf 9bee dabe 40fb 91bd
000001b0: 1f9e 91be 6ccf 96be 1ff9 7abd ff5e c9be
000001c0: 7ca3 a93e 3de1 2ebe ac30 a4bd dc42 05be
000001d0: a050 39be 777d 9dbe 1558 333e b06a adbe
000001e0: 50d0 08be dc7c 5cbe dbc8 1dbe e2c2 b83f
000001f0: 1e6a 62bc c472 c6be 8ca3 b53e 9707 0e3f
00000200: 9cbb cbbe 4121 d73e 13e7 883c 6838 6dbd
00000210: 977a de3c 3eef 063e 131d cf3d 1821 6b3e
00000220: 8669 463e 71e9 74be d52d 9bbe 383e 84be
00000230: 79fa bebe 6d53 95be b0f8 41be bd54 ad3e
00000240: 5adf 0ebe d230 93be 9f3e 9bbe 0fcc 623d
00000250: 62fc b1be 2cd5 eabd 2171 a73e f01f 33be
00000260: b5c6 89bd 34bd e3bc 7a5c 97be 2a16 e8be
00000270: 94dd 9fbe 308a b6be a69b 213f 0e8e e23d
00000280: 37f4 9b3e dff3 81be 60a1 bb3d 9160 103c
00000290: 820f 543e e980 713e 5509 1a3e 83df bfbe
000002a0: 8fa8 4ebe 8953 b43d 851c c0bd 7012 64be
000002b0: 1499 883f 2536 8cbe 3625 60be c448 4fbc
000002c0: d324 7f3d 3bfd f63d ecfa 013f 5894 a5bc
000002d0: f0c2 92be 4cb9 b4be 56c9 61be 4b90 413e
000002e0: fe88 043e fc47 9abe 81f6 25be b8cc 75be
000002f0: f7ed 87be 5e5b ff3e e0fa 033d 52fb 4b3e
00000300: 7dab b1be e928 3c3e 907c 88be 20e0 a63d
00000310: dc04 c63e c0ea ad3b e743 fc3e 1be3 a4be
00000320: f2d4 13be 482d 583d 30a5 a8bd d8b6 3abe
00000330: e2f9 85be 6438 5f3e 4c5e 93bd 1ea3 863f
00000340: fd7f 59be 8716 9dbe 2896 7b3e df06 c33e
00000350: e47f edbe 5495 d8bd ea39 f3bc 29d4 953d
00000360: 00b3 8b3c c34f 5f3e 669a 473e 7a0e fdbe
00000370: 4402 39be 0dbd 44be 282a f13d 2857 e1bd
00000380: 71ac abbe 0aaa 453c 7991 95bd 645d cfbd
00000390: 42a2 4f3f 7830 a3be 6492 123f 59de c5be
000003a0: 95d8 62be fc66 2fbe d1c2 aabe 7a12 91be
000003b0: a4ad dd3c fa7b 843d 7bf8 873a acc6 86bd
000003c0: 1540 b3be 2ef9 0cbe b31d 32bd f61b cebc
000003d0: 58b6 43bd fcfe 91be d17c 363e ffe1 a0be
000003e0: 221a f9bd 0027 16be 3f51 d3bd 894d 26be
000003f0: 30f7 153e 3f47 4abe f4ef 023f 40fd 20bc

layers.0.W2.weight f4 [64, 7]
-0.10498633 -0.341769 -0.19490027 -0.33095965 -0.08650491 0.22619759 -0.3541057 0.12872125
0.062447045 -0.42401648 -0.27141687 -0.39711636 0.2291169 -0.24651851 -0.28090307 0.10895461
-0.21128146 0.21531765 0.024387121 0.075979084 0.17965402 -0.15379457 -0.34213018 -0.28587303
0.35244858 -0.28044486 0.27506426 -0.37146023 -0.0904434 -0.09689558 -0.06144781 -0.054805752
-0.23516357 -0.18473047 -0.40255055 -0.1195159 0.06349721 0.3778096 0.19253185 -0.27484608
0.20120735 -0.08428541 -0.20003031 -0.34353557 -0.05949703 0.2673444 0.0527052 -0.22014691
0.11634204 -0.56276417 0.29056272 -0.328056 -0.11938971 -0.3649525 -0.14885381 0.1191524
0.28117654 -0.19732434 0.1375156 -0.08662786 0.95101565 -0.13221204 0.49952367 -0.23254816
0.18367079 0.07135957 -0.17672825 -0.18036592 -0.31701624 -0.200474 -0.37086812 0.07462076
0.088557385 -0.32837635 0.102995634 -0.030740052 0.17266086 0.009830642 -0.49056488 0.2483177
0.35829538 0.76655245 -0.48550445 0.8088327 -0.1653808 -0.15332709 0.21159774 0.13741675
0.29941556 -0.14155644 0.12720004 0.039819248 -0.5177547 -0.30946395 -0.5767511 0.7734453
-0.5594242 -0.30504644 0.124497704 0.11596865 0.09307087 -0.3506724 -0.32759783 -0.068312004
-0.24420393 0.236545 -0.12967885 0.25043723 0.5900736 -0.2438643 -0.1986 1.2152344
-0.3647776 -0.21332116 0.24595977 -0.0073100324 -0.018470371 -0.16019662 -0.14808884 0.27748948
-0.29930466 -0.12948458 -0.07110532 0.6554868 0.03301041 0.42384434 -0.14125738 0.36375397
-0.36775172 -0.37088314 -0.19671008 0.49313864 -0.35400182 -0.5223485 0.31724474 0.4563097
0.15165624 -0.22613542 -0.16569814 -0.057055295 -0.16169666 -0.25899953 0.03113857 0.037565142
-0.04785824 0.052397907 -0.14980645 -0.09039873 -0.2125704 -0.20558242 -0.43483403 0.08810683
-0.09403754 -0.21273763 0.3103256 -0.40257245 0.24189772 0.18731193 0.3673994 -0.04444404
0.23195039 -0.2971179 -0.15837106 -0.25476563 0.3692372 -0.07581198 0.15012363 -0.33748898
0.12010637 -0.21693237 -0.33975992 -0.123222835 0.82820153 0.06806244 -0.31797865 -0.16006644
0.16226725 0.5202904 0.14531687 0.08328151 -0.08570483 0.04575298 0.11457865 -0.14070597
-0.018190697 -0.2276625 0.37459582 -0.36242652 -0.26399603 -0.35953707 -0.38152876 -0.18769692
-0.2157658 -0.00091497146 -0.13545543 -0.035696357 -0.22099483 -0.20631574 -0.49872625 -0.3336063
0.1557179 -0.31349763 -0.120005935 -0.01580948 -0.26954854 0.0011996751 -0.36905333 -0.27043676
-0.34248245 -0.1143257 -0.12395386 0.4538513 -0.16754666 0.51513404 -0.16716476 0.45802823
-0.14890572 -0.6897917 0.45523086 -0.29409355 0.19233719 0.25266352 0.14578864 0.35464814
0.23886926 -0.21993318 -0.3367622 0.58675224 0.64438725 0.036181036 0.4371153 0.17292798
0.17378776 -0.026114624 -0.3779838 -0.223274 0.26738155 -0.17827192 -0.03809509 -0.12467647
-0.13182731 0.00727712 -0.058734946 0.13506308 -0.12695283 0.044933733 0.18494515 -0.13301651
0.051918693 0.062177796 0.16602348 0.03872979 -0.17218599 -0.6044413 -0.14488563 0.5053645
00000000: 1303 d7bd 59fc aebe f093 47be 8b73 a9be
00000010: 7c29 b1bd 57a0 673e 584d b5be 81cf 033e
00000020: 79c8 7f3d b018 d9be 27f7 8abe d652 cbbe
00000030: 9f9d 6a3e 596f 7cbe 87d2 8fbe 9823 df3d
00000040: 2b5a 58be 3b7c 5c3e 80c7 c73c ec9a 9b3d
00000050: 39f7 373e 537c 1dbe b02b afbe f35d 92be
00000060: 2474 b43e 7896 8fbe 39d5 8c3e 0930 bebe
00000070: 643a b9bd 3171 c6bd b3b0 7bbd ff7b 60bd
00000080: b8ce 70be fc29 3dbe 1b1b cebe c1c4 f4bd
00000090: d30a 823d 4370 c13e 1227 453e a0b8 8cbe
000000a0: 4d09 4e3e d49d acbd bfd4 4cbe e5e3 afbe
000000b0: 28b3 73bd 5de1 883e 68e1 573d 316e 61be
000000c0: bc44 ee3d 5011 10bf a3c4 943e f5f6 a7be
000000d0: 9882 f4bd 0edb babe 226d 18be 2c06 f43d
000000e0: 5ff6 8f3e 640f 4abe e4d0 0c3e f369 b1bd
000000f0: c375 733f 9862 07be 91c1 ff3e 1b21 6ebe
00000100: 3214 3c3e f724 923d 40f8 34be d8b1 38be
00000110: f44f a2be 0e49 4dbe 6de2 bdbe c5d2 983d
00000120: 935d b53d f220 a8be 60ef d23d 90d2 fbbc
00000130: 02ce 303e b310 213c 522b fbbe ff46 7e3e
00000140: 7e72 b73e c83c 443f 0a94 f8be a90f 4f3f
00000150: 9659 29be c701 1dbe 14ad 583e fab6 0c3e
00000160: ff4c 993e 2cf4 10be ba40 023e 8219 233d
00000170: 928b 04bf 0f72 9ebe f6a5 13bf 8300 463f
00000180: 6d36 0fbf 0c2f 9cbe a7f8 fe3d f980 ed3d
00000190: f19b be3d 558b b3be e7ba a7be 2ae7 8bbd
000001a0: 9810 7abe da38 723e 88ca 04be 4f39 803e
000001b0: 100f 173f 90b7 79be cc5d 4bbe cd8c 9b3f
000001c0: 21c4 babe dd70 5abe e1dc 7b3e ff88 efbb
000001d0: 2d4f 97bc 950a 24be 9aa4 17be 1a13 8e3e
000001e0: 763e 99be 9b97 04be aa9f 91bd fccd 273f
000001f0: ec35 073d 2002 d93e c6a5 10be f63d ba3e
00000200: f449 bcbe 65e4 bdbe 5e6e 49be ab7c fc3e
00000210: ba3f b5be a2b8 05bf e76d a23e 6da1 e93e
00000220: c64b 1b3e 0b90 67be c6ac 29be d0b2 69bd
00000230: cf93 25be 969b 84be 5016 ff3c e8dd 193d
00000240: 0007 44bd 309f 563d dd66 19be f822 b9bd
00000250: 0eac 59be 3384 52be 91a2 debe 5b71 b43d
00000260: c196 c0bd e5d7 59be ffe2 9e3e fa1d cebe
00000270: 09b4 773e b3ce 3f3e c61b bc3e f40a 36bd
00000280: 6784 6d3e d61f 98be 062c 22be a470 82be
00000290: a90c bd3e 5043 9bbd 02ba 193e 5bcb acbe
000002a0: 54fa f53d 8523 5ebe 03f5 adbe 415c fcbd
000002b0: 0405 543f 5264 8b3d 19ce a2be 75e8 23be
000002c0: 6329 263e c031 053f f2cd 143e 7f8f aa3d
000002d0: 0486 afbd 7a67 3b3d 36a8 ea3d 3a15 10be
000002e0: a804 95bc 5c20 69be 06cb bf3e f88f b9be
000002f0: 7d2a 87be 3e15 b8be bd57 c3be 9f33 40be
00000300: b6f1 5cbe b2da 6fba d4b4 0abe 5836 12bd
00000310: 784c 62be 6f44 53be 0c59 ffbe 72ce aabe
00000320: 8374 1f3e c382 a0be acc5 f5bd e282 81bc
00000330: 4402 8abe 6b3e 9d3a 8ff4 bcbe b076 8abe
00000340: dc59 afbe 9823 eabd 85db fdbd 335f e83e
00000350: 5a91 2bbe d3df 033f 3d2d 2bbe ad82 ea3e
00000360: be7a 18be 3096 30bf 0514 e93e 6e93 96be
00000370: 0af4 443e 1d5d 813e 9e49 153e 7194 b53e
00000380: 259a 743e 2a36 61be 186c acbe 6535 163f
00000390: 90f6 243f 9132 143d 94cd df3e 0814 313e
000003a0: 6bf5 313e 56ee d5bc 1887 c1be f1a1 64be
000003b0: 3ce6 883e ea8c 36be 9909 1cbd 6156 ffbd
000003c0: bdfd 06be e874 ee3b 0e94 70bd fa4d 0a3e
000003d0: ecff 01be 6f0c 383d 4362 3d3e 7b35 08be
000003e0: b2a8 543d 25ae 7e3d 0f02 2a3e 21a3 1e3d
000003f0: 8651 30be aabc 1abf e65c 14be 915f 013f

layers.1.W1.weight f4 [64, 64]
-0.08378727 -0.0764693 0.047450755 0.060084175 -0.009237398 -0.11754446 -0.16584526 -0.01260085
-0.0020684479 -0.030906806 -0.0046589947 0.03521081 -0.045921903 -0.15476622 0.028090416 -0.021783032
0.027626306 -0.164673 -0.013662942 -0.025740597 0.06365484 -0.13825403 -0.0012731486 0.071078576
-0.051827937 -0.049983874 -0.020187208 -0.10776204 -0.19807322 -0.12087395 0.16426162 0.028864278
-0.044210106 -0.13112432 0.0013400512 0.005084974 0.039021056 -0.14200108 -0.18211767 0.02755501
-0.12774864 0.050066 -0.1642864 -0.001907039 0.07094225 0.00825178 0.09513708 -0.20491259
0.036416125 -0.10376864 -0.15117252 0.055021465 0.019113617 -0.092606716 0.06565333 -0.08665009
-0.12677157 -0.034841124 -0.098095246 -0.028157804 -0.18706279 -0.08154177 -0.134283 0.0073908763
-0.1497059 0.04883091 -0.008567084 -0.21105316 0.09056679 0.034156226 0.03134163 -0.08660249
-0.010286269 0.2347157 0.07728089 -0.099846266 0.10499972 -0.024648843 0.04788862 0.08666381
0.03251693 -0.14646605 0.21606082 -0.14739282 -0.029078063 -0.0952458 -0.07818897 0.020850062
-0.031376634 -0.09119789 0.005546002 0.20855738 0.10203619 0.10423262 0.19409442 0.02554792
-0.034864265 0.0048267697 0.029231284 -0.11396835 -0.23467208 0.009611852 -0.06639552 -0.14329346
-0.033071354 -0.0014423185 0.059720393 -0.04542767 0.1437471 0.14026988 -0.1952883 -0.14907691
-0.111827224 -0.086164564 -0.20408139 -0.0144347865 -0.039746094 -0.07049848 -0.10665221 -0.059866518
-0.016881742 -0.045820344 -0.11381385 0.06773987 -0.072942816 0.07265339 0.052066367 0.08486148
-0.09154494 0.0203225 0.104904845 -0.11838717 0.0548659 0.033821207 0.0013688952 0.060269058
-0.10374301 -0.109022975 -0.027602103 -0.02277716 -0.14159767 0.060624957 -0.16673446 0.047640555
0.061340254 -0.026009321 -0.1384199 0.0608339 0.02130197 0.033989847 -0.018954854 0.09516944
-0.1137675 -0.0853831 -0.025955815 -0.046242002 0.100797206 -0.12516825 -0.004552081 0.023356646
-0.09324334 0.025191946 0.013672695 -0.17556469 -0.013541982 -0.11673691 -0.047887452 -0.07430245
-0.18394475 -0.08268082 -0.0119724125 -0.0965622 0.055374123 -0.08716575 0.08030215 0.030964717
-0.16555235 -0.030657828 0.10359195 -0.14163364 -0.08079687 0.062394533 0.04153979 -0.06973675
0.075218126 -0.07575472 -0.18326992 -0.050639585 -0.019628933 -0.097532935 -0.01653422 -0.10688761
0.51231706 0.045589134 0.1797914 0.50794125 -0.0029347283 -0.14175859 0.048413273 0.7458513
-0.21632077 0.09853484 0.14827107 0.0634492 -0.02508573 -0.030884279 0.06802611 0.09338448
0.009797176 0.03042854 0.17025498 0.16384827 0.12154131 -0.20198984 -0.24015045 0.067685455
-0.006703868 -0.12872942 0.053877838 0.052156314 0.19878836 0.2710995 0.1302907 1.4027867
-0.09315668 -0.015768815 0.04266309 0.05804566 0.55578923 0.11731828 -0.049854383 0.5680413
0.09587869 -0.12602009 -0.027078405 -0.14373666 0.29922795 0.01232632 0.8089141 -0.032033242
0.037844725 -0.16072679 0.31255978 0.10094295 0.080040514 -0.07813448 0.028848061 -0.118868284
0.43057424 0.1001275 -0.03214121 -0.048591297 0.5234632 0.023215048 -0.12094296 0.63323563
00000000: a998 abbd f09b 9cbd b95b 423d d31a 763d
00000010: 7558 17bc 26bb f0bd 57d3 29be cc73 4ebc
00000020: cc8e 07bb 4530 fdbc 7baa 98bb 3639 103d
00000030: 9b18 3cbd 097b 1ebe df1d e63c 5472 b2bc
00000040: 9050 e23c 0aa0 28be 88da 5fbc f2dd d2bc
00000050: 785d 823d 7792 0dbe c7df a6ba a591 913d
00000060: 8849 54bd e4bb 4cbd a55f a5bc 58b2 dcbd
00000070: b5d3 4abe c38c f7bd 3334 283e c774 ec3c
00000080: a815 35bd 7445 06be a8a4 af3a db9f a63b
00000090: 8bd4 1f3d bb68 11be 0e7d 3abe 0bbb e13c
000000a0: 8ad0 02be 0212 4d3d b23a 28be 9cf5 f9ba
000000b0: 2c4a 913d 7932 073c 3bd7 c23d 9bd4 51be
000000c0: 1329 153d a784 d4bd f8cc 1abe 305e 613d
000000d0: 2994 9c3c 97a8 bdbd 4175 863d 9a75 b1bd
000000e0: 68d0 01be 91b5 0ebd 29e6 c8bd 32ab e6bc
000000f0: 638d 3fbe 5fff a6bd 7c81 09be 2a2f f23b
00000100: 814c 19be ec02 483d f45c 0cbc 521e 58be
00000110: 157b b93d 66e7 0b3d 1560 003d a55c b1bd
00000120: bd87 28bc 5059 703e 7145 9e3d 337c ccbd
00000130: 180a d73d 5fec c9bc dc26 443d cc7c b13d
00000140: 7930 053d 32fb 15be 0c3f 5d3e 25ee 16be
00000150: 1e35 eebc 3b10 c3bd 8a21 a0bd c0cd aa3c
00000160: c984 00bd f6c5 babd 3dbb b53b 1190 553e
00000170: 5af8 d03d e977 d53d b0c0 463e df49 d13c
00000180: d5cd 0ebd e129 9e3b 7276 ef3c 3d68 e9bd
00000190: e14d 70be 077b 1d3c 60fa 87bd 85bb 12be
000001a0: d475 07bd 2e0c bdba 5f9d 743d 5d12 3abd
000001b0: 7132 133e e8a2 0f3e a8f9 47be 9ea7 18be
000001c0: ac05 e5bd 0c77 b0bd b6fa 50be e27f 6cbc
000001d0: cdcc 22bd 8261 90bd 796c dabd 9836 75bd
000001e0: 944b 8abc 1dae 3bbd 3c17 e9bd 33bb 8a3d
000001f0: 0b63 95bd 4dcb 943d 8b43 553d dbcb ad3d
00000200: ea7b bbbd 5f7b a63c 5ad8 d63d f974 f2bd
00000210: 11bb 603d 1b88 0a3d 806c b33a b0dc 763d
00000220: 3777 d4bd 7047 dfbd ce1d e2bc 2b97 babc
00000230: fbfe 10be e051 783d 70bc 2abe be22 433d
00000240: eb3f 7b3d 8011 d5bc f2bd 0dbe f82c 793d
00000250: 7881 ae3c f038 0b3d 3647 9bbc 32e8 c23d
00000260: effe e8bd 56dd aebd 4aa1 d4bc 4168 3dbd
00000270: c46e ce3d 1b2c 00be a029 95bb 7056 bf3c
00000280: 5df6 bebd 575f ce3c 7003 603c 3bc7 33be
00000290: 30df 5dbc c313 efbd a225 44bd e22b 98bd
000002a0: 035c 3cbe 9054 a9bd f027 44bc 67c2 c5bd
000002b0: facf 623d f583 b2bd 7475 a43d b8a9 fd3c
000002c0: 8e86 29be 2026 fbbc 0428 d43d 6908 11be
000002d0: d478 a5bd 6991 7f3d a025 2a3d 24d2 8ebd
000002e0: f60b 9a3d 4a25 9bbd 1cab 3bbe 746b 4fbd
000002f0: dbcc a0bc 59bf c7bd c672 87bc e4e7 dabd
00000300: 3627 033f acbb 3a3d 3d1b 383e 7008 023f
00000310: 9254 40bb 2a29 11be ff4c 463d 1cf0 3e3f
00000320: 3183 5dbe a2cc c93d 5fd4 173e a7f1 813d
00000330: 9780 cdbc 0701 fdbc 4651 8b3d 5d40 bf3d
00000340: 5684 203c 4645 f93c 5257 2e3e d7c7 273e
00000350: a6ea f83d 6dd6 4ebe 00ea 75be ac9e 8a3d
00000360: 1fac dbbb a5d1 03be 02af 5c3d dca1 553d
00000370: 2d8f 4b3e 8ecd 8a3e ed6a 053e 848e b33f
00000380: eec8 bebd 9a2d 81bc 7ebf 2e3d 49c1 6d3d
00000390: 3448 0e3f 9144 f03d 1c34 4cbd 286b 113f
000003a0: 0c5c c43d 690b 01be 88d3 ddbc b42f 13be
000003b0: 6834 993e 55f4 493c ff14 4f3f 4a35 03bd
000003c0: 1203 1b3d 9095 24be d607 a03e 2dbb ce3d
000003d0: 48ec a33d f804 a0bd c552 ec3c 3771 f3bd
000003e0: 3a74 dc3e a60f cd3d 80a6 03bd ab07 47bd
000003f0: af01 063f 7c2d be3c f1b0 f7bd bb1b 223f

layers.1.W2.weight f4 [64, 64]
-0.10945884 -0.061244983 -0.025350707 0.031596288 -0.14774026 -0.038760286 -0.10920047 -0.15673658
-0.02911673 -0.037468333 -0.0034429186 -0.08382187 -0.053172905 -0.08724285 -0.004231241 -0.16054133
0.08699722 -0.01315848 0.01119367 -0.113452196 0.17715429 -0.16262744 -0.016071154 0.03952254
-0.07750104 -0.015680192 -0.19751033 -0.10575794 -0.12875016 -0.18575653 -0.06929843 0.004142307
-0.09012205 0.04481623 -0.18880832 -0.030017694 0.06976352 0.048618514 -0.12419662 -0.17563076
-0.09943663 0.15271713 -0.04819735 0.05445975 -0.15776259 -0.12809488 -0.021088514 -0.023304172
-0.16226412 0.03846672 -0.11451772 -0.1837902 -0.02090033 -0.12752485 -0.07472345 -0.12402402
0.0076031014 0.0010911433 0.0027568317 -0.1402159 -0.0840283 0.039023772 -0.14372063 -0.03642567
-0.08654974 -0.12477279 -0.09536098 0.09039593 0.013455779 -0.004052162 0.0069333347 0.05516549
0.04287411 0.079004124 0.04758877 0.0850207 0.0645915 -0.054883335 -0.009534411 -0.10942088
-0.0992873 0.069159836 -0.232522 -0.06762192 -0.18322986 -0.09973532 -0.024430756 0.09858664
-0.12240461 -0.043188475 -0.10355957 0.014649202 0.074750856 -0.03324853 -0.16267054 -0.13488393
-0.11059286 -0.040516935 -0.09312832 0.08323124 -0.07758076 -0.051782716 0.07633445 -0.07538635
0.036622126 -0.116882615 -0.024372272 0.03721992 -0.09862013 -0.08515123 -0.0521117 -0.12704727
0.025706852 0.0950037 0.017137712 -0.1269202 0.047544636 0.06615561 0.01520353 -0.061510462
-0.16045146 -0.016017277 -0.04888059 -0.037500896 -0.05287334 0.025565706 0.031404477 -0.07889713
0.09822759 -0.060719963 -0.029571181 -0.026793262 -0.10260972 -0.06551148 -0.013960317 -0.012773822
-0.12719113 -0.117424995 -0.18067525 -0.11437549 -0.01992657 0.041049443 -0.18327819 -0.10497063
0.07864316 -0.12761587 0.08439784 -0.05500001 -0.11752573 -0.03890986 -0.13495551 -0.034500577
-0.1720241 0.057623565 -0.11336518 0.019943459 -0.13486052 -0.16383804 -0.010825705 0.0151270265
-0.061165173 -0.16574831 -0.094106205 -0.14666054 0.035408422 -0.039794724 0.026815511 0.12477763
-0.117633276 0.09876017 0.026799783 -0.04082972 -0.17800523 -0.14637323 -0.0055768536 0.032835428
0.0067577693 -0.04826906 -0.13502309 -0.10983835 -0.13147497 -0.05866883 0.016476363 0.03598898
-0.09015547 0.005331551 0.04585109 -0.11298126 -0.12648882 -0.094935685 -0.036065508 0.11196835
0.09079403 -0.0077654463 0.024551751 0.014282199 -0.14698379 -0.10464175 0.065139234 0.7663789
-0.034459658 0.15961531 0.119897254 -0.06200469 -0.17763855 -0.06843001 -0.017497871 0.024438411
0.16444817 -0.0028665252 0.021608846 0.0650312 0.027646558 -0.043442022 -0.11361624 0.1347059
-0.024085969 -0.32220826 -0.06449743 0.108524695 -0.10079277 -0.0016085731 -0.051539045 1.0599422
-0.078432806 -0.08115918 -0.031138733 -0.05042288 0.09012156 -0.122198574 0.04975397 -0.035118736
-0.2768291 0.1417392 0.08906306 0.06676344 0.5100424 0.14968893 0.81263816 -0.16320515
-0.053024657 0.02529125 0.0708764 0.0561434 -0.087497406 -0.061387908 0.0144810965 -0.15803818
-0.4432946 -0.09919156 -0.092472196 0.00036428406 -0.0055666063 -0.053429767 -0.08906359 -0.25117397
00000000: f52b e0bd 05dc 7abd 49ac cfbc 1c6b 013d
00000010: 3949 17be 1bc3 1ebd 7fa4 dfbd 8e7f 20be
00000020: 3586 eebc 6578 19bd 97a2 61bb cdaa abbd
00000030: d5cb 59bd 61ac b2bd 39a6 8abb f264 24be
00000040: 992b b23d aa96 57bc a865 373c a059 e8bd
00000050: ef67 353e cf87 26be a7a7 83bc 63e2 213d
00000060: deb8 9ebd bf73 80bc 2640 4abe 9e97 d8bd
00000070: 15d7 03be f636 3ebe 56ec 8dbd 31bc 873b
00000080: e991 b8bd 3991 373d f856 41be abe7 f5bc
00000090: 2de0 8e3d 3524 473d cc5a febd 8dd8 33be
000000a0: 6fa5 cbbd e161 1c3e 966a 45bd 3011 5f3d
000000b0: 848c 21be 4e2b 03be d2c1 acbc 64e8 bebc
000000c0: 9128 26be 488f 1d3d 4488 eabd 8033 3cbe
000000d0: 2b37 abbc e095 02be 9c08 99bd 4e00 febd
000000e0: 7023 f93b b204 8f3a f6ab 343b c294 0fbe
000000f0: 0817 acbd 64d7 1f3d 802b 13be 1533 15bd
00000100: fd40 b1bd e088 ffbd 9e4c c3bd 8021 b93d
00000110: a175 5c3c 00c8 84bb 0731 e33b 35f5 613d
00000120: c39c 2f3d eacc a13d 71ec 423d 551f ae3d
00000130: 8c48 843d 59cd 60bd 3836 1cbc 0e18 e0bd
00000140: 2457 cbbd aca3 8d3d 3f1a 6ebe 5c7d 8abd
00000150: 9ca0 3bbe 0842 ccbd 0223 c8bc cbe7 c93d
00000160: 45af fabd 66e6 30bd 0a17 d4bd 3503 703c
00000170: fa16 993d 9c2f 08bd 1b93 26be 031f 0abe
00000180: 827e e2bd 16f5 25bd 10ba bebd 2475 aa3d
00000190: a9e2 9ebd 1d1a 54bd 3c55 9c3d 2964 9abd
000001a0: 1501 163d 2760 efbd 5ca8 c7bc ea73 183d
000001b0: 5af9 c9bd c563 aebd 1473 55bd ae18 02be
000001c0: 2d97 d23c 4d91 c23d 6364 8c3c 5ef7 01be
000001d0: 2abe 423d 987c 873d 3a18 793c 65f2 7bbd
000001e0: 634d 24be aa36 83bc 0337 48bd 8a9a 19bd
000001f0: b791 58bd 2c6f d13c fba1 003d d294 a1bd
00000200: 8c2b c93d 7fb5 78bd 433f f2bc 8b7d dbbc
00000210: 0b25 d2bd e22a 86bd d0b9 64bc 4b49 51bc
00000220: 643e 02be 847c f0bd ef02 39be b23d eabd
00000230: 0c3d a3bc 7623 283d 47ad 3bbe d7fa d6bd
00000240: aa0f a13d bcad 02be c6d8 ac3d b147 61bd
00000250: 54b1 f0bd f25f 1fbd c731 0abe 7a50 0dbd
00000260: 1627 30be b006 6c3d 012c e8bd 7760 a33c
00000270: e018 0abe 29c5 27be 4c5e 31bc 59d7 773c
00000280: 5588 7abd edb9 29be c1ba c0bd 2e2e 16be
00000290: 6c08 113d cbff 22bd 34ac db3c 6a8b ff3d
000002a0: b7e9 f0bd c642 ca3d 388b db3c 113d 27bd
000002b0: 0147 36be dde2 15be 0abe b6bb 717e 063d
000002c0: 4770 dd3b c7b5 45bd 7e43 0abe eef2 e0bd
000002d0: 60a1 06be ba4e 70bd 70f9 863c 2e69 133d
000002e0: 6ea3 b8bd 4bb4 ae3b 5ace 3b3d b862 e7bd
000002f0: 4986 01be a46d c2bd 6db9 13bd aa4f e53d
00000300: 38f2 b93d 4975 febb c120 c93c e2ff 693c
00000310: eb82 16be 6a4e d6bd b867 853d 6831 443f
00000320: 9225 0dbd 3272 233e b18c f53d a1f8 7dbd
00000330: e1e6 35be 0825 8cbd b257 8fbc 1033 c83c
00000340: 1a65 283e 50dc 3bbb 0905 b13c 142f 853d
00000350: 097b e23c 43f0 31bd a2af e8bd 58f0 093e
00000360: f04f c5bc 7bf8 a4be 3b17 84bd 3242 de3d
00000370: 716c cebd c2d6 d2ba 9b1a 53bd 30ac 873f
00000380: 61a1 a0bd c936 a6bd a816 ffbc 3988 4ebd
00000390: a791 b83d 3f43 fabd d2ca 4b3d aad8 0fbd
000003a0: 8bbc 8dbe 1524 113e b266 b63d 45bb 883d
000003b0: 2492 023f 0e48 193e 0e09 503f 401f 27be
000003c0: 6230 59bd 982f cf3c a527 913d 9ff6 653d
000003d0: d731 b3bd e371 7bbd 1f42 6d3c c3d4 21be
000003e0: 83f7 e2be f224 cbbd 1062 bdbd 61fd be39
000003f0: 1468 b6bb 2cd9 5abd f966 b6bd e099 80be

layers.2.W1.weight f4 [64, 64]
-0.105192795 0.085780784 0.0137452185 -0.054691862 -0.17494923 -0.16460526 -0.16083752 -0.39992538
-0.059265632 0.12858382 -0.02738114 0.11300894 -0.04501455 -0.0023822784 0.043810822 0.051520064
0.060751796 -0.0007125288 -0.038879264 0.02314286 0.0636485 -0.07084207 -0.0806181 -0.06805818
-0.027733436 -0.061938107 -0.16556105 -0.017295681 -0.02883559 0.05544606 0.23539326 0.027068509
-0.051977895 -0.1476379 0.07524237 -0.10517061 -0.049764354 -0.14750573 -0.22208497 -0.055015977
0.08202982 -0.016469225 0.029706039 -0.08047227 0.045934975 0.71248245 0.13897502 0.31177172
-0.14424989 0.1224933 -0.17902128 -0.14768045 -0.075537935 -0.16337115 0.0542908 -0.0341706
-0.1676345 0.12068839 0.11115607 0.41554043 -0.39408484 0.009775803 -0.024389794 -0.07550773
-0.16477136 0.02964821 0.022653555 -0.16079552 0.03642488 -0.011272351 -0.023256728 -0.05481006
-0.016508969 -0.08726003 -0.08179131 0.047323108 -0.06415208 -0.10441092 -0.08637884 -0.15439142
-0.048106994 0.09140417 0.0147213815 -0.026992334 -0.018394902 -0.11926281 0.056942903 -0.012380479
-0.13884094 -0.14332902 -0.17203966 -0.09561783 0.03137327 -0.05271122 -0.11802432 -0.025257744
-0.1468213 -0.022794548 0.08534621 0.0007243103 0.021993648 -0.102584496 -0.007949917 0.02274976
-0.030631527 -0.00028328598 -0.074152686 -0.07474297 -0.17098144 -0.30454463 0.04711337 -0.12024943
0.03236868 0.017499946 -0.0790683 -0.12051848 0.0041502416 -0.081723936 -0.0741625 0.061446846
-0.06992897 0.040831592 -0.18471229 -0.039724424 -0.042731117 0.06321011 -0.098653995 -0.055129874
0.006063044 0.06635971 0.0021909475 -0.02155222 0.048997357 -0.19386534 0.07574968 -0.27163178
-0.08960825 0.119090855 -0.04710357 -0.09939143 -0.091377676 0.12121223 -0.017482027 -0.10518466
-0.018018737 -0.060934305 0.010755697 -0.061168432 0.09467815 -0.08753727 0.073036045 0.010316864
-0.0522594 -0.05101651 -0.08389416 -0.090309605 -0.107775256 0.022207335 -0.24007174 0.10200462
-0.16809976 -0.018214166 -0.010390222 0.049249932 -0.019799247 -0.0439222 -0.19974296 -0.025804792
-0.09626526 -0.053505316 0.012110829 -0.07851118 0.047873154 -0.06836426 0.120938316 -0.20732635
0.06969991 -0.064901784 -0.0443217 -0.11671735 -0.11584918 -0.28266823 -0.0024008602 0.11513409
0.057314336 0.0782686 -0.26193532 -0.23040287 -0.18677461 -0.03713201 -0.11678591 0.06870937
0.011238019 -0.051767338 -0.029035715 0.00019784764 0.084994674 -0.051268272 0.1819807 -0.047136728
0.1054603 0.16750649 0.030898629 -0.15555423 -0.11242376 0.18309763 -0.01409513 -0.011419466
0.13747445 -0.13908818 0.16150509 0.06784237 0.055458583 0.048275363 0.046777926 0.12989976
-0.080488145 -0.042979643 0.0034824426 0.17731752 0.08218234 0.010951944 0.032495115 -0.057137668
0.15727884 0.008741969 -0.028540948 0.11210412 0.12180445 0.115349375 0.13321438 -0.0880758
-0.04165749 0.11159453 0.16454434 0.006506352 0.16630827 -0.102086134 -0.034705453 -0.072970256
0.16733553 0.17200562 0.09573879 -0.03525915 0.05021985 0.15036775 -0.00021676625 0.071130544
0.17612126 -0.022505973 -0.021447882 0.08078134 -0.14452273 0.061082985 0.16519554 0.16073367
00000000: 526f d7bd d6ad af3d a033 613c 9304 60bd
00000010: e425 33be 488e 28be 97b2 24be 05c3 ccbe
00000020: 85c0 72bd 7aab 033e 6a4e e0bc 3b71 e73d
00000030: 2d61 38bd 0020 1cbb fa72 333d b406 533d
00000040: e0d6 783d 00c9 3aba dd3f 1fbd 1896 bd3c
00000050: 255a 823d a615 91bd 1a1b a5bd 1662 8bbd
00000060: 3b31 e3bc d0b2 7dbd d688 29be acaf 8dbc
00000070: 9e38 ecbc 681b 633d ee0a 713e c7be dd3c
00000080: c6e6 54bd 642e 17be ac18 9a3d b063 d7bd
00000090: b5d5 4bbd be0b 17be 3e6a 63be 6f58 61bd
000000a0: 40ff a73d 78ea 86bc 145a f33c a5ce a4bd
000000b0: 5026 3c3d 4065 363f 784f 0e3e 8ba0 9f3e
000000c0: 3eb6 13be c4dd fa3d 5b51 37be 8b39 17be
000000d0: a2b3 9abd c44a 27be 0860 5e3d 79f6 0bbd
000000e0: 61a8 2bbe 7a2b f73d cba5 e33d b7c1 d43e
000000f0: 7dc5 c9be b12a 203c 1bcd c7bc cca3 9abd
00000100: d3b9 28be cee0 f23c f393 b93c 95a7 24be
00000110: 4132 153d abaf 38bc e584 bebc 8380 60bd
00000120: d13d 87bc 63b5 b2bd 3482 a7bd e0d5 413d
00000130: 2a62 83bd 64d5 d5bd 64e7 b0bd c918 1ebe
00000140: d70b 45bd 1c32 bb3d f331 713c 071f ddbc
00000150: e8b0 96bc 0f40 f4bd f63c 693d 7ed7 4abc
00000160: 522c 0ebe d8c4 12be 2a2b 30be 48d3 c3bd
00000170: 4281 003d b8e7 57bd bcb6 f1bd 54e9 cebc
00000180: 5358 16be a2bb babc fec9 ae3d a4df 3d3a
00000190: 062c b43c d217 d2bd 5e40 02bc b45d ba3c
000001a0: f8ee fabc 0086 94b9 5ddd 97bd d812 99bd
000001b0: c215 2fbe 46ed 9bbe f3f9 403d 5545 f6bd
000001c0: 0595 043d 0c5c 8f3c 90ee a1bd 65d2 f6bd
000001d0: c0fe 873b e15e a7bd 82e2 97bd b0af 7b3d
000001e0: eb36 8fbd 073f 273d 3825 3dbe 14b6 22bd
000001f0: d306 2fbd 4d74 813d 1b0b cabd ddcf 61bd
00000200: 80ac c63b 9ae7 873d 0096 0f3b 488e b0bc
00000210: 74b1 483d a384 46be a622 9b3d 5213 8bbe
00000220: 8884 b7bd e8e5 f33d acef 40bd bc8d cbbd
00000230: 3824 bbbd 1e3e f83d 7836 8fbc 0e6b d7bd
00000240: 089c 93bc 4096 79bd aa38 303c c08b 7abd
00000250: 9ee6 c13d bd46 b3bd ec93 953d 1008 293c
00000260: f40d 56bd b0f6 50bd b4d0 abbd 3ef4 b8bd
00000270: 46b9 dcbd 28ec b53c 5ed5 75be cce7 d03d
00000280: 5822 2cbe e035 95bc c03b 2abc 4cba 493d
00000290: 0832 a2bc c4e7 33bd 6b89 4cbe 9264 d3bc
000002a0: b826 c5bd 6428 5bbd 806c 463c 78ca a0bd
000002b0: a416 443d 9002 8cbd 82ae f73d 5c4d 54be
000002c0: d4be 8e3d 3aeb 84bd ac8a 35bd 8209 efbd
000002d0: 5642 edbd e4b9 90be c057 1dbb 6ccb eb3d
000002e0: 70c2 6a3d 4a4b a03d 631c 86be bbee 6bbe
000002f0: d841 3fbe bc17 18bd 742d efbd 80b7 8c3d
00000300: ab1f 383c fd09 54bd 4fdc edbc 5275 4f39
00000310: b011 ae3d aefe 51bd 2659 3a3e 7112 41bd
00000320: 92fb d73d d286 2b3e 1f1f fd3c 9c49 1fbe
00000330: 6e3e e6bd f27d 3b3e 43ef 66bc b618 3bbc
00000340: 1ac6 0c3e 226d 0ebe 9761 253e f1f0 8a3d
00000350: 8a28 633d 63bc 453d 369a 3f3d 7104 053e
00000360: f8d6 a4bd 6c0b 30bd b139 643b b992 353e
00000370: 374f a83d c86f 333c 9919 053d 3009 6abd
00000380: b40d 213e 7a3a 0f3c b5ce e9bc d896 e53d
00000390: 9d74 f93d 4b3c ec3d 5a69 083e 1661 b4bd
000003a0: 0ba1 2abd ac8b e43d 507e 283e 3d33 d53b
000003b0: b74c 2a3e 8912 d1bd 4e27 0ebd 6e71 95bd
000003c0: 015a 2b3e 3e22 303e b312 c43d e66b 10bd
000003d0: 54b3 4d3d 01fa 193e bf4b 63b9 e4ac 913d
000003e0: 2259 343e 725e b8bc 78b3 afbc b070 a53d
000003f0: c4fd 13be 2732 7a3d 0529 293e 5e97 243e

layers.2.W2.weight f4 [64, 64]
-0.02859829 -0.08470527 -0.09182678 -0.16411157 -0.05466419 -0.15034525 -0.13646524 -0.25601205
-0.052347176 0.003016624 -0.040676713 0.122919284 -0.108322926 -0.044579774 0.02207245 -0.02947889
-0.01685125 0.08512543 -0.06941178 0.20815729 -0.13198456 -0.1046055 0.03254103 -0.12109293
-0.14228088 -0.16332626 0.043950673 -0.074167445 0.054429036 -0.06737284 -0.1878468 0.020407291
-0.22926952 -0.1818766 -0.083708376 0.002126813 -0.17504549 -0.036910567 -0.016243462 -0.12906386
0.14132997 -0.11000717 -0.086478084 -0.049713723 -0.03446673 0.50073415 -0.13642071 -0.22596101
0.026134878 -0.008607516 -0.05033696 -0.08202612 -0.050262466 -0.13652672 0.09448458 0.034590624
-0.08616505 -0.025142044 -0.3611266 -0.232793 -0.30975348 0.032698654 -0.042247325 -0.1670399
-0.09218648 -0.17380439 0.17556362 -0.04595202 -0.091781475 -0.009929629 -0.17723697 -0.14333084
-0.04832895 0.15025114 0.04190402 -0.060198486 -0.18500721 0.023091555 -0.07049276 0.05268776
-0.09371272 -0.03401856 -0.090421714 0.055820167 -0.005239832 -0.14625715 -0.038150076 -0.020308819
-0.092522174 -0.018315578 -0.17225747 -0.124491654 0.019799557 0.17614347 -0.0143397525 -0.13086657
-0.014498927 -0.13205165 -0.100158155 -0.14253405 -0.07190221 -0.033510763 -0.05065645 -0.020666346
-0.008869231 0.114990145 -0.15295295 -0.124405086 -0.042916797 0.09585545 -0.022952285 0.06252581
-0.12668712 0.05693032 -0.02014519 -0.027050426 -0.0032047331 -0.1500266 0.06686987 -0.032943036
0.02611193 0.0319344 -0.20957945 0.0557391 -0.0921125 -0.14379884 0.049044862 -0.1162765
0.020596564 0.01876223 -0.06723796 -0.017697696 0.047398552 0.025187774 -0.034741074 -0.26139095
0.024483547 -0.033586174 6.453693e-05 -0.10166514 0.11210576 -0.06574094 -0.011293337 0.0031717718
-0.05430363 0.07426736 -0.18946204 -0.016814306 -0.08094984 -0.088487834 -0.09100008 0.098965436
-0.10811336 -0.12493031 0.0030484796 -0.12305787 0.11643936 0.11676276 -0.24826644 0.09343475
-0.17025912 0.030578807 -0.08761354 -0.008462384 -0.038166225 0.028043002 -0.082098514 -0.11102465
0.008446261 0.09679483 0.10070163 0.05659525 0.0028944463 0.085761026 0.06633304 -0.17043632
-0.007130459 -0.11579968 0.008801252 0.009492502 -0.08229487 -0.09177736 0.08644253 -0.10636097
-0.111349136 -0.06108354 -0.20772909 -0.21177915 -0.11148287 0.09597708 -0.10316849 -0.03338948
0.020478442 0.09138846 -0.1065307 0.022609953 -0.046536908 0.042896375 0.03556025 0.072949596
-0.0022980815 0.007023175 0.15623222 -0.15490244 0.024138322 0.12227067 -0.14843662 0.14539306
-0.063317895 -0.13463 -0.0642004 0.10550828 0.15234852 -0.12970735 -0.019208604 -0.032762304
-0.037366234 -0.016273638 0.06189772 -0.03847491 -0.074773066 -0.021813171 -0.05569577 -0.14355585
-0.14502233 -0.058079317 0.14608793 0.15080062 0.0021910232 0.03245317 -0.061718546 -0.15239613
-0.042821243 -0.08407913 0.05325524 0.02821088 -0.048700325 -0.10755049 0.14262506 0.019551104
0.037044607 0.011432548 -0.011476279 -0.033852726 -0.16296928 -0.06460157 0.12326581 -0.08630473
0.17990015 -0.029259399 -0.064772904 -0.026330834 0.04946002 -0.051085595 0.08689576 0.072855316
00000000: f646 eabc f579 adbd ae0f bcbd dd0c 28be
00000010: 8fe7 5fbd 1bf4 19be 8bbd 0bbe 0314 83be
00000020: fe69 56bd 8db2 453b a09c 26bd 1bbd fb3d
00000030: 69d8 ddbd 4899 36bd 48d1 b43c b77d f1bc
00000040: a20b 8abc 3e56 ae3d c327 8ebd 2f27 553e
00000050: f626 07be 693b d6bd be49 053d 92ff f7bd
00000060: 14b2 11be 003f 27be 9f05 343d 1ae5 97bd
00000070: fbf0 5e3d c6fa 89bd e95a 40be 312d a73c
00000080: a1c5 6abe dc3d 3abe 4c6f abbd 0062 0b3b
00000090: 203f 33be 892f 17bd 0211 85bc 5129 04be
000000a0: ceb8 103e 704b e1bd 6c1b b1bd 9ea0 4bbd
000000b0: fc2c 0dbd 1d30 003f dfb1 0bbe 5362 67be
000000c0: d018 d63c 8a06 0dbc 212e 4ebd 4ffd a7bd
000000d0: 04e0 4dbd a9cd 0bbe 2281 c13d e6ae 0d3d
000000e0: 4d77 b0bd b0f6 cdbc 96e5 b8be 4a61 6ebe
000000f0: 0298 9ebe 06ef 053d 880b 2dbd 820c 2bbe
00000100: 44cc bcbd c7f9 31be f3c6 333e 2f38 3cbd
00000110: edf7 bbbd e2af 22bc 9c7d 35be 52c5 12be
00000120: 94f4 45bd 6fdb 193e 8da3 2b3d b092 76bd
00000130: 8872 3dbe 802a bd3c 825e 90bd 1fcf 573d
00000140: 74ec bfbd 0c57 0bbd 052f b9bd b0a3 643d
00000150: e6b2 abbb 6fc4 15be 4143 1cbd ae5e a6bc
00000160: 447c bdbd 8d0a 96bc 4364 30be 7bf5 febd
00000170: ae32 a23c f45e 343e 48f1 6abc e301 06be
00000180: e88c 6dbc 8c38 07be b81f cdbd 72f4 11be
00000190: 7741 93bd 9542 09bd 237d 4fbd 784c a9bc
000001a0: 4050 11bc f47f eb3d b39f 1cbe 18c8 febd
000001b0: 86c9 2fbd dd4f c43d 6e06 bcbc 880d 803d
000001c0: 45ba 01be c42f 693d 8707 a5bc db98 ddbc
000001d0: 8006 52bb 93a0 19be 12f3 883d 47ef 06bd
000001e0: b0e8 d53c a5cd 023d ff9b 56be af4e 643d
000001f0: 7aa5 bcbd 0140 13be 44e3 483d 6022 eebd
00000200: 20ba a83c 40b3 993c 0eb4 89bd c2fa 90bc
00000210: fc24 423d 9756 ce3c a84c 0ebd 09d5 85be
00000220: b891 c83c a891 09bd 0058 8738 d035 d0bd
00000230: b497 e53d 30a3 86bd b007 39bc 80dd 4f3b
00000240: 7c6d 5ebd 7c19 983d 5602 42be 28be 89bc
00000250: 08c9 a5bd 1c39 b5bd 405e babd 64ae ca3d
00000260: 8a6a ddbd 76db ffbd 00c9 473b c405 fcbd
00000270: c277 ee3d 5021 ef3d 8f39 7ebe b85a bf3d
00000280: 6858 2ebe 6880 fa3c ba6e b3bd d0a5 0abc
00000290: 3054 1cbd 70ba e53c 4423 a8bd e460 e3bd
000002a0: 3062 0a3c 5e3c c63d a83c ce3d 6cd0 673d
000002b0: c0b0 3d3b 7aa3 af3d 9ed9 873d dc86 2ebe
000002c0: a0a6 e9bb 6228 edbd 2033 103c 7086 1b3c
000002d0: 368a a8bd c5f5 bbbd c808 b13d c8d3 d9bd
000002e0: 040b e4bd bc32 7abd efb6 54be a2dc 58be
000002f0: 2251 e4bd a28f c43d 004a d3bd 68c3 08bd
00000300: 68c2 a73c df29 bb3d c52c dabd 8238 b93c
00000310: 7c9d 3ebd 1cb4 2f3d a0a7 113d 9966 953d
00000320: 699b 16bb a922 e63b 57fb 1f3e bf9e 1ebe
00000330: bbbd c53c 0c69 fa3d c5ff 17be ebe1 143e
00000340: d0ac 81bd 72dc 09be 807b 83bd ba14 d83d
00000350: 4001 1c3e 01d2 04be 5d5b 9dbc c431 06bd
00000360: 560d 19bd 4b50 85bc 7788 7d3d de97 1dbd
00000370: 9f22 99bd 89b1 b2bc 3f21 64bd 4e00 13be
00000380: bc80 14be 94e4 6dbd 1398 153e 7a6b 1a3e
00000390: 4597 0f3b 9ded 043d 96cc 7cbd bb0d 1cbe
000003a0: 5465 2fbd ae31 acbd 2b22 5a3d 811a e73c
000003b0: fe79 47bd 6e43 dcbd 4e0c 123e a329 a03c
000003c0: 16bc 173d 954f 3b3c 0107 3cbc 28a9 0abd
000003d0: 6be1 26be d44d 84bd c972 fc3d 89c0 b0bd
000003e0: bf37 383e 68b1 efbc a8a7 84bd c3b3 d7bc
000003f0: 9796 4a3d 213f 51bd 67f6 b13d 2b35 953d

classifier.0.weight f4 [64, 64]
-0.07438731 0.12734865 -0.27505392 -0.04757721 -0.051640887 0.03501987 0.082777254 -0.02433489
0.16483283 0.1300587 -0.1735743 -0.006758032 0.15922703 -0.015758267 -0.1821909 -0.06422946
-0.036533803 0.012350997 -0.020980809 0.10360207 0.04679967 -0.014391494 -0.015256471 -0.021339921
-0.027211312 -0.024596613 0.117291585 0.088476956 -0.017944446 0.045689456 0.011054019 0.08397804
-0.007892766 -0.043620795 0.008463388 -0.030811714 -0.026219504 -0.08589076 0.048444066 0.01166416
-0.060848277 -0.013440223 0.019493563 0.12707897 0.08997848 -0.06734332 0.078154095 0.09238894
-0.10379027 0.11185481 -0.25628838 0.08163043 0.07164914 -0.1430967 -0.046599753 0.1745629
-0.219113 0.05884944 0.10337345 -0.052053306 0.1162179 -0.071432784 -0.030563401 -0.30644846
0.80624306 0.15918043 0.20823583 -0.03788196 0.033774745 -0.0939565 -0.08677583 0.009599541
0.18614216 -0.21671395 0.12304573 0.8069766 -0.14468448 0.034113828 -0.022269946 -0.07702544
-0.3725792 0.0023288007 0.06062987 -0.27720103 0.12993374 -0.0069454224 0.05763324 0.82436043
-0.091923095 0.14285551 -0.0017543837 -0.095689945 0.02504328 0.04747309 0.13866965 0.08607525
0.23903768 -0.107902154 0.017986879 -0.087553926 -0.197015 -0.043321583 0.106154405 0.08509241
-0.026460858 -0.0743797 0.13433655 0.034570083 0.036306705 0.122417785 -0.00043216604 -0.10671841
-0.0073091118 0.411677 0.57905954 0.016315792 -0.23641123 -0.45907077 0.24370934 0.4027997
0.11818482 0.17589857 -0.11349278 0.06290021 0.20754133 -0.09767417 -0.06888428 0.65330356
0.015921565 -0.08615518 -0.02383338 -0.18134575 -0.018319001 -0.06367584 -0.1538978 -0.15613614
0.010558861 -0.16474015 0.027169794 0.053966995 -0.03670709 0.010571861 -0.004765592 -0.028166428
-0.13709636 -0.07475297 -0.12216167 -0.041956138 -0.031217221 -0.0324129 0.06697132 -0.06873924
0.03825687 0.061462812 0.056937054 0.039868303 0.008208864 -0.05738244 -0.09775071 -0.024027927
0.013419143 -0.039298795 -0.10025382 -0.03893978 -0.09247179 -0.1093294 -0.021562845 -0.071569145
-0.086239 -0.0036409614 -0.020683786 -0.030057225 -0.029027672 0.044065453 -0.03676216 -0.14560023
-0.13975863 -0.045378238 0.018286964 -0.054758687 0.053587984 0.040913172 -0.18482938 -0.11763676
-0.016585011 -0.06604871 -0.018104387 -0.12868837 0.006760268 -0.131982 -0.051491667 -0.09977007
-0.09604588 0.01976173 0.06462744 -0.15022948 0.011549526 -0.07842618 -0.15607603 0.05326149
-0.0175858 -0.046881005 0.039708793 -0.004709913 -0.11271764 0.011317769 0.031220486 0.015386403
-0.09558357 0.017607167 0.008548558 -0.038909443 -0.1377043 0.07897358 0.007654369 -0.052739874
-0.046213582 0.048320003 -0.14965276 -0.10234439 -0.1443238 0.033723626 -0.11020155 -0.057958595
-0.068698056 0.034191154 -0.16589507 -0.12440402 -0.121517226 -0.027128339 -0.10774185 -0.06266966
-0.011932506 -0.047771167 -0.047974963 -0.08609669 -0.14976124 -0.079258054 0.04168508 -0.03650679
-0.03750598 -0.09747083 0.023921568 0.023045022 -0.033270024 0.028340904 -0.050428126 -0.057651438
-0.025761241 -0.1802681 0.01974715 -0.12516841 -0.11447405 -0.06754797 -0.15403777 -0.080463514
00000000: 6058 98bd af67 023e ded3 8cbe 52e0 42bd
00000010: 6585 53bd ff70 0f3d 1f87 a93d f759 c7bc
00000020: f0c9 283e 1c2e 053e 76bd 31be 7b72 ddbb
00000030: 690c 233e 7b17 81bc 4090 3abe bc8a 83bd
00000040: 78a4 15bd d65b 4a3c f2df abbc 522d d43d
00000050: 03b1 3f3d 4dca 6bbc 47f6 79bc 0fd1 aebc
00000060: 42ea debc d67e c9bc 9236 f03d 6833 b53d
00000070: 3b00 93bc de24 3b3d eb1b 353c aefc ab3d
00000080: a950 01bc b8ab 32bd 06aa 0a3c d968 fcbc
00000090: 49ca d6bc 7fe7 afbd 496d 463d 081b 3f3c
000000a0: 0b3c 79bd 6234 5cbc f7b0 9f3c fd20 023e
000000b0: a346 b83d 4beb 89bd 410f a03d 6a36 bd3d
000000c0: fe8f d4bd 2214 e53d 3b38 83be db2d a73d
000000d0: c9bc 923d f187 12be 62df 3ebd 9ec0 323e
000000e0: 295f 60be 1c0c 713d 76b5 d33d d935 55bd
000000f0: a603 ee3d 5a4b 92bd 1960 fabc d0e6 9cbe
00000100: f265 4e3f 3200 233e c63b 553e 1d2a 1bbd
00000110: 6357 0a3d 446c c0bd 87b7 b1bd 6547 1d3c
00000120: 0d9c 3e3e 43ea 5dbe 66ff fb3d 0596 4e3f
00000130: 2b28 14be f1ba 0b3d 766f b6bc 84bf 9dbd
00000140: b3c2 bebe cb9e 183b 0757 783d 4bed 8dbe
00000150: 5a0d 053e 6d96 e3bb d510 6c3d 4909 533f
00000160: 2d42 bcbd b748 123e 59f3 e5ba 17f9 c3bd
00000170: 9127 cd3c 2573 423d 6bff 0d3e 3848 b03d
00000180: 4bc6 743e cefb dcbd 3859 933c 794f b3bd
00000190: 4dbe 49be f971 31bd 7b67 d93d ee44 ae3d
000001a0: 71c4 d8bc 6254 98bd 858f 093e 5c99 0d3d
000001b0: 57b6 143d 2db6 fa3d 5894 e2b9 2f8f dabd
000001c0: 4681 efbb 54c7 d23e 3f3d 143f b2a8 853c
000001d0: c915 72be 530b ebbe f18e 793e c33b ce3e
000001e0: e20a f23d c11e 343e e76e e8bd d3d1 803d
000001f0: b785 543e 6509 c8bd 3413 8dbd e73e 273f
00000200: f16d 823c 2172 b0bd 383e c3bc b3b2 39be
00000210: bb11 96bc 7b68 82bd 6397 1dbe 27e2 1fbe
00000220: 13ff 2c3c a4b1 28be 3093 de3c 7f0c 5d3d
00000230: 2c5a 16bd 9935 2d3c af28 9cbb 48bd e6bc
00000240: fd62 0cbe 1618 99bd e62f fabd 33da 2bbd
00000250: 42bb ffbc 64c3 04bd 4228 893d 29c7 8cbd
00000260: 3cb3 1c3d 6ec0 7b3d d436 693d f24c 233d
00000270: 797e 063c d909 6bbd 8631 c8bd 37d6 c4bc
00000280: f7db 5b3c c6f7 20bd e051 cdbd 527f 1fbd
00000290: da61 bdbd 18e8 dfbd 90a4 b0bc d892 92bd
000002a0: 139e b0bd 329d 6ebb 0b71 a9bc 923a f6bc
000002b0: 71cb edbc fa7d 343d eb93 16bd 3a18 15be
000002c0: e31c 0fbe 88de 39bd 8bce 953c a54a 60bd
000002d0: 137f 5b3d 9294 273d ea43 3dbe 8beb f0bd
000002e0: 4add 87bc 8c44 87bd a74f 94bc e2c6 03be
000002f0: 3d85 dd3b 4a26 07be ede8 52bd 4054 ccbd
00000300: b4b3 c4bd 5ae3 a13c 645b 843d c2d5 19be
00000310: 393a 3d3c e89d a0bd 65d2 1fbe b828 5a3d
00000320: 1810 90bc 4c06 40bd b0a5 223d 9d55 9abb
00000330: 82d8 e6bd 2a6e 393c 1bc2 ff3c 4017 7c3c
00000340: 52c1 c3bd e83c 903c 400f 0c3c 825f 1fbd
00000350: 5b02 0dbe e6bc a13d 80d1 fa3b c405 58bd
00000360: 744a 3dbd 32eb 453d 933e 19be ef99 d1bd
00000370: 9ec9 13be c921 0a3d 5ab1 e1bd fe65 6dbd
00000380: 91b1 8cbd 060c 0c3d 66e0 29be 89c7 febd
00000390: 06de f8bd 403c debc c2a7 dcbd f358 80bd
000003a0: 8f80 43bc b3ab 43bd 6581 44bd 7653 b0bd
000003b0: 035b 19be 0c52 a2bd f9bd 2a3d 2588 15bd
000003c0: df9f 19bd c99e c7bd 2af7 c33c eac8 bc3c
000003d0: 2646 08bd 2f2b e83c b98d 4ebd ea23 6cbd
000003e0: 3d09 d3bc 3398 38be c6c4 a13c 262c 00be
000003f0: 5f71 eabd 9756 8abd 14bc 1dbe 0eca a4bd

classifier.0.bias f4 [64]
-0.4555221 0.31639156 -0.11213314 0.047923025 -0.10788193 0.050684076 -0.097859286 -0.22528392
0.04901155 -0.10562278 -0.07004844 -0.11042758 -0.016847864 0.17182031 -0.023576094 -0.13653715
0.0036750452 -0.39745417 0.075975254 0.0068632625 -0.108528145 0.70042396 -0.25147188 -0.10814879
0.051587176 -0.08917246 0.062593 -0.111189246 -0.41913283 -0.052526575 -0.5941635 -0.11027729
0.007144694 -0.0134322485 -0.6017127 0.020583019 -0.1637981 -0.23866281 -0.86819375 0.7674297
-0.041147012 -0.56080335 0.037014462 -0.11627763 -0.5519377 -0.37550595 -0.4411141 -0.020961348
-0.1065773 -0.15193343 -0.06140945 -0.581096 -0.15542023 -0.027535317 -0.16982625 -0.49057898
0.6641023 0.053115137 -0.1551498 -0.21722825 -0.1265791 -0.14415511 -0.06251482 -0.10964957
00000000: 313a e9be 13fe a13e 0fa6 e5bd ef4a 443d
00000010: 34f1 dcbd 1b9a 4f3d 736a c8bd d4b0 66be
00000020: 56c0 483d c250 d8bd 8e75 8fbd db27 e2bd
00000030: 8804 8abc aaf1 2f3e a722 c1bc 65d0 0bbe
00000040: 07d9 703b 1d7f cbbe ea98 9b3d 38e5 e03b
00000050: 0144 debd fc4e 333f ecc0 80be 1d7d ddbd
00000060: 134d 533d 0da0 b6bd c230 803d 30b7 e3bd
00000070: 9498 d6be 1b26 57bd 191b 18bf 0fd9 e1bd
00000080: 0a1e ea3b ef12 5cbc d809 1abf b89d a83c
00000090: b0ba 27be 0664 74be f241 5ebf 4676 443f
000000a0: c589 28bd cf90 0fbf 7a9c 173d f722 eebd
000000b0: ca4b 0dbf 5142 c0be b5d9 e1be 22b7 abbc
000000c0: 3345 dabd 7094 1bbe 7a88 7bbd b5c2 14bf
000000d0: 7b26 1fbe bf91 e1bc efe6 2dbe 2b2d fbbe
000000e0: 9c02 2a3f 428f 593d 97df 1ebe 1571 5ebe
000000f0: f49d 01be 669d 13be c507 80bd f48f e0bd

classifier.3.weight f4 [2, 64]
-0.09814619 0.10146576 0.042231143 0.014815184 0.040216535 0.008006311 0.042624652 -0.122656
0.038853332 -0.026257705 0.024298355 -0.12925996 -0.013603326 0.08787546 0.11414341 -0.035482947
-0.017713718 -0.0700264 -0.061845005 0.04388963 -0.052356876 0.15264443 -0.009125849 -0.033868972
0.030186204 -0.044591147 0.009643123 0.006551166 -0.15881488 0.28182608 -0.14269613 -0.020235823
-0.038012065 0.042624436 -0.2042238 -0.044204358 0.012565072 -0.074669056 -0.22989148 0.27434662
-0.052143596 -0.0059380843 0.19642833 0.026456667 -0.16902778 -0.18506289 -0.14130749 0.01979835
0.06241593 0.05340423 -0.029331299 -0.08812514 0.07009161 0.1614745 0.018159114 0.0030188703
0.11730712 -0.092834115 -0.011935066 -0.05191471 0.017424356 0.03576964 0.020375036 0.055070903
0.11229856 -0.09722821 0.013029482 0.086968444 0.08202655 -0.044004165 0.097672425 0.124479294
4.7340174e-05 -0.0029095898 0.0026390504 0.13069518 0.036676347 -0.16419457 -0.055763993 -0.14075232
-0.11589908 0.124601364 0.019233637 0.07015173 0.012888267 -0.1564945 0.05427671 0.03624465
0.12155564 0.035336953 0.07654511 -0.031697795 0.021112928 -0.493867 0.1669247 0.05259409
-0.005476032 0.031025503 0.04847803 -0.005853485 -0.0039578164 0.07367674 0.04968942 -0.37723902
-0.002563881 0.16001196 -0.08687136 0.047988016 0.04865461 0.08863985 0.07006123 0.02751099
0.14368343 0.06673984 -0.039897397 0.07258603 0.09626453 -0.012489841 0.06703806 0.14106919
-0.08905069 -0.060774148 0.048095345 0.17586845 0.03266363 -0.0093063945 0.044700865 -0.0141477855
00000000: df00 c9bd 48cd cf3d 90fa 2c3d 63bb 723c
00000010: 18ba 243d e72c 033c 3097 2e3d 1233 fbbd
00000020: ac24 1f3d 661a d7bc 580d c73c b95c 04be
00000030: 7ce0 5ebc 0df8 b33d 05c4 e93d 9156 11bd
00000040: 5c1c 91bc 006a 8fbd 3051 7dbd 9dc5 333d
00000050: 2a74 56bd d24e 1c3e 9684 15bc 31ba 0abd
00000060: 0f49 f73c 35a5 36bd 30fe 1d3c 2aab d63b
00000070: 5ea0 22be 824b 903e ef1e 12be 99c5 a5bc
00000080: 8ab2 1bbd f696 2e3d 0b20 51be a10f 35bd
00000090: bbdd 4d3c 17ec 98bd ac68 6bbe 2977 8c3e
000000a0: 8694 55bd 4394 c2bb 8224 493e a7bb d83c
000000b0: 9e15 2dbe 2081 3dbe e9b2 10be 2630 a23c
000000c0: d9a7 7f3d 65be 5a3d 3148 f0bc f47a b4bd
000000d0: 318c 8f3d 9259 253e 6cc2 943c 3dd8 453b
000000e0: b73e f03d d01f bebd 4c8b 43bc 85a4 54bd
000000f0: 86bd 8e3c 3083 123d 8ce9 a63c 0792 613d
00000100: cafc e53d 951f c7bd 9c79 553c 831c b23d
00000110: 89fd a73d b63d 34bd 7b08 c83d 00ef fe3d
00000120: 208f 4638 d1ae 3ebb ebf3 2c3b f5d4 053e
00000130: f039 163d 9f22 28be c968 64bd 6021 10be
00000140: 7f5c edbd 002f ff3d dc8f 9d3c b6ab 8f3d
00000150: 4f29 533c 1840 20be 4151 5e3d 4575 143d
00000160: 2af2 f83d 7bbd 103d afc3 9c3d 8cd5 01bd
00000170: 05f5 ac3c 23dc fcbe 4fee 2a3e e76c 573d
00000180: 4970 b3bb 3229 fe3c e690 463d 97ce bfbb
00000190: 92b0 81bb d5e3 963d 2287 4b3d 7925 c1be
000001a0: c906 28bb 2dda 233e 9de9 b1bd 158f 443d
000001b0: 0e4a 473d cf88 b53d 437c 8f3d ba5e e13c
000001c0: c021 133e e6ae 883d 746b 23bd fca7 943d
000001d0: 5726 c53d 31a2 4cbc 404b 893d 7174 103e
000001e0: 3560 b6bd 50ee 78bd a0ff 443d dc16 343e
000001f0: 4cca 053d d979 18bc 4118 373d 1dcc 67bc

classifier.3.bias f4 [2]
0.47714335 -0.38576734
00000000: 224c f43e 4c83 c5be
