checkpoints/mutag_12gnn.pt (torch, 208073 bytes, 14 tensors)

gnn1_layers.0.W1.weight f4 [64, 7]
00000000: 2d0c e7be 5cbf 94bd 1366 0abf 32e7 603f
00000010: 8eac e6bd f748 483f ebab f63e 4fdb eebd
00000020: db3b 7bbe 6df6 0dbd 042c 16be effb 90be
00000030: 8d6d 263d 8cc3 afbe fb8b 9cbe 850a 843e
00000040: 1b7d 3cbd 6f00 9abc 9358 69be 55ca 6cbe
00000050: ca58 adbe e784 d8bd 60bf 6abe a33f 263e
00000060: 81d4 e13d 150f abbe aabf 68be 51e9 6bbe
00000070: 9685 c03e 90c3 083e a016 e0bd 037d b1be
00000080: c03c a4be 02a5 09bf 48c4 9bbe e75c 5abe
00000090: fb98 85be 2983 c0be 0625 1e3e a8a1 c53d
000000a0: 6efb 923d 5bef 86be 8efd bebe cd2b 9dbe
000000b0: 1854 713e f33d e73d c17d a63d 4a57 01be
000000c0: 8592 eb3e cb6f e73d 2a8c c9be 799d debe
000000d0: b201 b5be 0a70 1e3e a805 3ebe a9c8 9bbd
000000e0: aace 94be 2689 9fbd 167b 90be 2cdb a4be
000000f0: aa1d acbe 0f3f 92be 031f a6be 4de2 8abe
00000100: 2900 b6be 1e63 33be 519d 3bbe 11d2 ecbd
00000110: 653a b8be fc8a 583e 5259 c0be 50ee 083e
00000120: 50bc ac3d 6541 8a3e 3070 94be 692d 8b3e
00000130: c2f8 36be a228 103d cc96 983e 5b98 89be
00000140: b035 07be 5c9c 37be 9a95 a1be 232c 0dbe
00000150: cc1b c0be 1c34 093e a271 523e 54ac c83e
00000160: 6b96 b6bd 9a00 9fbe de08 ae3d 6f49 803e
00000170: a6e6 f4be f5c7 513d b76d c9be cd74 88be
00000180: 5f5f 84be 6881 9abe def4 5cbe 4870 fabe
00000190: 1124 433e ac6b 4f3e 8653 0dbe 3f99 11be
000001a0: 40f6 74be cf62 cfbe 32dd e0be 1d4c cc3d
000001b0: 31b6 86be f8d0 78be 375f cf3e 5bd5 30be
000001c0: a00f ad3e 5252 7abd ac30 a4bd dc42 05be
000001d0: a050 39be 777d 9dbe 9835 8d3e 1c98 59be
000001e0: 311a 973d cb73 96be 58de 313e b735 b2be
000001f0: bdb7 003f 5873 c6be de63 e43d 0e9b ad3e
00000200: ef64 f53d 04bd a93e 030d f63e 6738 6dbd
00000210: ec54 303f c148 b4be 0996 bfbd 9f75 543e
00000220: 8669 463e 71e9 74be d52d 9bbe 383e 84be
00000230: 79fa bebe 6d53 95be 166a b3be 2b8e 273e
00000240: d33b 59bd d230 93be 9f3e 9bbe 99e4 303e
00000250: 6f10 8abe a6d2 c9bc 7ef1 1c3e f01f 33be
00000260: 0c9e f1bd 8c80 f2bd 53cc 20be 1e50 5fbe
00000270: a3a8 4fbe 8dea babe 7f4c b7be a8c3 2b3f
00000280: 2379 9dbe dff3 81be 093f 1c3d bd63 893c
00000290: 3a23 1b3e 8141 6b3e b7af 193e 83df bfbe
000002a0: ca9d 3bbc 3ccd b23c 6b0f 80bd 363b 93be
000002b0: 377c 51be 1eb9 81be 2bed 8cbe 8b77 aebe
000002c0: 2593 2abd 1516 973d c159 ab3d 8712 993d
000002d0: f0c2 92be 4cb9 b4be ec73 953c d3ee b03e
000002e0: 32ec 8e3e c630 abbe ad6d acbe 216d abbe
000002f0: 419f aabe e346 b63b 5e23 083e a26a 2e3e
00000300: 7dab b1be 9895 f43d 917c 88be c1e6 cf3d
00000310: 54d9 5a3e b4ea ad3b 3147 cc3e 1be3 a4be
00000320: f2d4 13be 53ec c23e 2ea5 a8bd 4221 01be
00000330: d907 8abe e36e 6b3e 3f45 c13d 8d3e 89bd
00000340: fd7f 59be 8716 9dbe 2f94 c83e 8224 2f3f
00000350: 51ac 0bbf 5595 d8bd 6f4a ed3d 2da6 f63c
00000360: ffb2 8b3c bb4d 7b3e 6f70 fdbe 39d5 11bf
00000370: 4402 39be 0dbd 44be 282a f13d 2857 e1bd
00000380: c69b 36be 8b14 6b3e 8f06 ba3c 712a 873e
00000390: 84d0 bbbe 0666 34bc 08c6 a33c 3269 8ebe
000003a0: 08f3 5dbe 1b7a 06be 80d5 95be 53b2 a6be
000003b0: 4439 ca3d 9960 42bc 30bf 7b3a adc6 86bd
000003c0: 1540 b3be 2ef9 0cbe 0ade 04bd b66a 9a3e
000003d0: 5bb6 43bd 5901 45be 2fe6 353e e2bd c6be
000003e0: fcc8 36be d0b4 a4be ae2e 3cbe 0d85 2abe
000003f0: c7fb adbc 50ec e9bd 4bea 0e3e 3ffd 20bc
-0.45126477 -0.072630614 -0.54062 0.87852776 -0.11263381 0.78236336 0.48178038 -0.116629235
-0.24534552 -0.034658838 -0.14665228 -0.2831721 0.04063182 -0.34328878 -0.30575547 0.25789276
-0.046017747 -0.018799035 -0.22787695 -0.23124059 -0.33856803 -0.10572224 -0.22924566 0.16235213
0.1102686 -0.33409944 -0.22729364 -0.23038222 0.37601918 0.13355851 -0.109418154 -0.3466569
-0.320776 -0.53767407 -0.30423188 -0.21324502 -0.26093277 -0.37600067 0.15443811 0.09649974
0.07176863 -0.2635449 -0.37302822 -0.3069748 0.23567235 0.11291113 0.081294544 -0.12630954
0.46010223 0.1130062 -0.3936475 -0.43479517 -0.35352856 0.15472427 -0.18556845 -0.07606632
-0.29063922 -0.07789831 -0.28218907 -0.32198465 -0.33616382 -0.28563735 -0.32445535 -0.2712578
-0.35546997 -0.17518279 -0.1832173 -0.115635045 -0.35982051 0.21146768 -0.37568146 0.13372159
0.08434355 0.27003017 -0.28991842 0.27183083 -0.17868331 0.035195 0.2980255 -0.2687405
-0.13204074 -0.1793074 -0.3155945 -0.13786368 -0.37521207 0.13398784 0.2055116 0.39193976
-0.08915409 -0.31055146 0.08497785 0.25056025 -0.4783222 0.051216085 -0.39341518 -0.26651612
-0.25854012 -0.30176854 -0.21577784 -0.4891379 0.19056727 0.20255917 -0.13801393 -0.14218615
-0.23922062 -0.40505072 -0.4391876 0.09975455 -0.26310876 -0.24298465 0.4050233 -0.17268889
0.33800983 -0.061113663 -0.08017096 -0.13013786 -0.18097162 -0.30759785 0.2757995 -0.21249431
0.073780425 -0.29385218 0.17369974 -0.34806606 0.5028036 -0.38759875 0.11151861 0.3390736
0.11982142 0.3315202 0.48056802 -0.057915118 0.6887958 -0.35211757 -0.09354789 0.20747994
0.19376191 -0.23917176 -0.30308405 -0.2582872 -0.3730047 -0.2916521 -0.35041875 0.16362827
-0.05303557 -0.28748184 -0.30321214 0.17274703 -0.26965663 -0.024636578 0.15326497 -0.17492652
-0.11797723 -0.118409246 -0.15702944 -0.21807906 -0.20279174 -0.36507073 -0.3580055 0.6709542
-0.30756482 -0.2538137 0.038146053 0.016771192 0.15150157 0.22974207 0.15008436 -0.37475213
-0.011451194 0.021826379 -0.06252941 -0.28756112 -0.2045754 -0.25336546 -0.27524695 -0.3407558
-0.041644234 0.07377259 0.083667286 0.07474237 -0.2866435 -0.3529762 0.018243752 0.34557208
0.27914578 -0.3343565 -0.33677426 -0.33481696 -0.33324626 0.0055626496 0.13294742 0.17032865
-0.34701148 0.11942595 -0.26657537 0.10151435 0.21371967 0.00530752 0.39898065 -0.32204518
-0.14436701 0.38070926 -0.082346305 -0.12610343 -0.26959112 0.22991519 0.09437036 -0.06701384
-0.2124023 -0.3068125 0.39175555 0.6841508 -0.5455981 -0.10575358 0.11586463 0.030108536
0.017053125 0.2454137 -0.49499843 -0.56965977 -0.1806727 -0.19212742 0.11775619 -0.11002952
-0.1783286 0.22957055 0.022708206 0.26399568 -0.36682522 -0.011010652 0.01999189 -0.27814633
-0.2167474 -0.13132517 -0.2926445 -0.32557926 0.09874204 -0.011863851 0.00096033793 -0.06580863
-0.35009828 -0.1376693 -0.032438315 0.3015954 -0.04778133 -0.19238795 0.1776359 -0.38816744
-0.17850107 -0.321692 -0.18377182 -0.16652317 -0.02123822 -0.11422026 0.13956563 -0.009826004

gnn1_layers.0.W2.weight f4 [64, 7]
00000000: 3341 85bd 89d4 00bf f093 47be 8b73 a9be
00000010: 7e29 b1bd 90f4 fcbd 584d b5be 1654 873e
00000020: 75fd 033e 4057 f7be f443 d7be f88c e4be
00000030: f928 27be d161 dcbe de05 a0be a1dd c43d
00000040: 2b5a 58be d67a a03e 82c7 c73c ed9a 9b3d
00000050: 2af8 963e 7d07 edbd d515 c9be 5683 bdbe
00000060: 379c 583f 142f dc3c 737e 543f 0930 bebe
00000070: b2aa 8e3e a16b 463d 59bf 983d 56e0 00be
00000080: 24b1 59bf 48f7 153e e00a 3cbf ad94 32be
00000090: 53f1 873d 8c79 493e 1227 453e a0b8 8cbe
000000a0: c5bf 7e3e d59d acbd 36e0 b5be 02e8 d4be
000000b0: 25b3 73bd 5de1 883e 66e1 573d 316e 61be
000000c0: bc44 ee3d c78b 7fbe ecdf c63e f5f6 a7be
000000d0: 9a82 f4bd 0edb babe 226d 18be 2e06 f43d
000000e0: a8be a23e cb54 b1bd f50d c03e 0f0e 3abc
000000f0: c86e c8be 9c29 b03d ef5f 8f3d 770d 8dbe
00000100: f898 713e 021a 443e 40f8 34be d8b1 38be
00000110: f44f a2be eb65 c23d f06a c0be 5a0a 993d
00000120: 5c17 1f3d f220 a8be 62ef d23d 90d2 fbbc
00000130: 03ce 303e 1095 053e e9ba e8be eb4c 863e
00000140: 70dc 073e f68f a3be ffe4 f0be 1e68 98be
00000150: b9eb 4ebe 2dde 15be 29fd ec3d fab6 0c3e
00000160: ff4c 993e 2cf4 10be bc40 023e c7e7 5c3e
00000170: aab4 4dbe 69e3 08bf 7cc5 1ebf 2ed0 3bbf
00000180: d87a 41bf 0f64 d6be 8c50 f93d 55bb e73d
00000190: 3a5c 303e 1618 92be b9a2 8dbe 430d 053e
000001a0: f3e5 5d3e 1e33 283e 540c 1d3b 3750 653d
000001b0: fce8 f93e 90b7 79be ffb7 2fbe e5eb 9a3d
000001c0: a644 aebe 8fde 46bf 4ce3 3d3e 1aca 643f
000001d0: 4514 fa3d 950a 24be d0eb aabb c0f2 933e
000001e0: 9835 b5be 1479 2abc 9d20 083f 7cff d0be
000001f0: b4ad 163f 875c c2be ccaf 3ebe 3f82 f0bc
00000200: 89a7 80be 65e4 bdbe cb8e fe3e 554e 41bd
00000210: f351 e9be 5760 8cbe 3afb 963e fd07 b63d
00000220: c44b 1b3e 0b90 67be c6ac 29be d0b2 69bd
00000230: 2905 35be 969b 84be 5716 ff3c e6dd 193d
00000240: 0107 44bd 2f9f 563d dd66 19be 8654 cf3d
00000250: aab3 f23d ace9 9cbe f78a e6be db93 d6be
00000260: bb35 1ebd dc5e c5be 41e4 9b3e b964 87be
00000270: 9c15 633e 5244 0a3f 70e5 f2be 1607 ec3e
00000280: 6ee2 e7be 2a5f 89be 0952 1abe a470 82be
00000290: a90c bd3e 4f43 9bbd 01ba 193e 5bcb acbe
000002a0: b0a2 403e e266 95be a9dc c9be 1c05 b73d
000002b0: 7f87 f3be 69f4 4f3e e6d1 e4be 4df5 7bbe
000002c0: 7062 aabc 2cf7 2d3d f1cd 143e 2b6f 543e
000002d0: 0686 afbd 7606 573e 1297 a73e 835f f5bd
000002e0: 5f04 9f3e de22 61bd 528e 3dbf b104 3dbf
000002f0: 73b1 e4be 4f80 42be 54c8 f5bd 0b15 233e
00000300: b6f1 5cbe e2c5 413e d4b4 0abe 7b73 193e
00000310: 87bd e1bd ddf8 91be d5cf 98be 140f 8cbe
00000320: ee39 c4bd 455b 8bbe 37a7 21bd 4e9f 0e3d
00000330: ddf8 6dbe 570d 133a 8ff4 bcbe b076 8abe
00000340: dc59 afbe 9723 eabd 27a9 acbf 4131 083f
00000350: 571f 29bf 41f0 353e 8e4c 8b3f 6ddd 0a3e
00000360: be7a 18be 34eb 9fbf ebd8 063f 1c89 03bf
00000370: 09f4 443e 1e5d 813e 9e49 153e 7094 b53e
00000380: 7deb ac3e a64a 11bd 7ef3 c0be 693e 913e
00000390: b2f0 02bf aae7 80be 49af 963e 1b0c 933e
000003a0: a3fc 87ba 2b02 393d dc60 cabe a5d3 aabe
000003b0: ac9f 093e 9727 e7bc 83c2 dcbc e518 0cbe
000003c0: bdfd 06be 182c 273d 9e34 02bc 8b28 513d
000003d0: 4500 02be ea8f 283e bbbb 3ebe c74e bb3c
000003e0: 7a70 463e 8a88 42be 218e c7bc 5930 ad3c
000003f0: 93fd 0fbe 4986 c3be a972 053b 9b33 58bb
-0.065065764 -0.503243 -0.19490027 -0.33095965 -0.08650492 -0.12351334 -0.3541057 0.2643134
0.12889655 -0.48308754 -0.42044032 -0.446388 -0.16324224 -0.43043378 -0.31254476 0.09612585
-0.21128146 0.31343716 0.024387125 0.07597909 0.2948621 -0.11573694 -0.3927447 -0.37014264
0.84613365 0.026877917 0.83005446 -0.37146023 0.27864605 0.048442487 0.07458372 -0.12585577
-0.8503592 0.14645112 -0.73454094 -0.17439528 0.06637826 0.19675273 0.19253185 -0.27484608
0.24877842 -0.084285416 -0.35522622 -0.41583258 -0.059497017 0.2673444 0.05270519 -0.22014691
0.11634204 -0.24955665 0.38842714 -0.328056 -0.11938973 -0.3649525 -0.14885381 0.11915241
0.31786084 -0.08658751 0.37510648 -0.011355891 -0.3914702 0.08601686 0.0700072 -0.27549335
0.23593509 0.19150546 -0.17672825 -0.18036592 -0.31701624 0.094920956 -0.37581587 0.074726775
0.038840637 -0.32837635 0.10299565 -0.030740052 0.17266087 0.13045144 -0.454551 0.2623056
0.13267684 -0.3194577 -0.4704971 -0.29766935 -0.20207109 -0.14635535 0.11571724 0.13741675
0.29941556 -0.14155644 0.12720007 0.21572791 -0.20088449 -0.53472 -0.6202009 -0.7336453
-0.7557807 -0.41873214 0.12173566 0.113150276 0.17222682 -0.28534 -0.2766321 0.1299334
0.2166975 0.1642575 0.0023963647 0.055984702 0.48810565 -0.2438643 -0.17160033 0.075645246
-0.3403675 -0.7768335 0.18543738 0.8937088 0.12210897 -0.16019662 -0.0052160993 0.2889614
-0.3539245 -0.010404844 0.53174764 -0.4081992 0.588588 -0.37961218 -0.18621749 -0.029358981
-0.2512782 -0.37088314 0.49718317 -0.047193844 -0.45570335 -0.2741725 0.29488546 0.088882424
0.15165621 -0.22613542 -0.16569814 -0.057055295 -0.1767775 -0.25899953 0.031138582 0.037565134
-0.047858242 0.052397903 -0.14980645 0.101235434 0.118506745 -0.30647027 -0.45027897 -0.4190968
-0.03862546 -0.38548934 0.3044758 -0.26444033 0.22176212 0.540105 -0.47440672 0.46099156
-0.4528994 -0.26830417 -0.15070356 -0.25476563 0.3692372 -0.075811975 0.15012361 -0.33748898
0.1881206 -0.29180056 -0.39426163 0.089365214 -0.47564313 0.20308079 -0.4469139 -0.24605294
-0.020798892 0.04247205 0.14531685 0.20745532 -0.08570485 0.20998558 0.32732445 -0.11981108
0.31058022 -0.054964893 -0.7404529 -0.73835284 -0.44666633 -0.18994258 -0.120011 0.15925996
-0.2157658 0.18923143 -0.13545543 0.14985459 -0.110224776 -0.2851018 -0.29846063 -0.27355254
-0.09581362 -0.2721807 -0.03946611 0.034819894 -0.23239465 0.0005609593 -0.36905333 -0.27043676
-0.34248245 -0.114325695 -1.3489121 0.53200155 -0.66063446 0.17767431 1.0882738 0.1356103
-0.14890572 -1.2493653 0.5267474 -0.5138109 0.19233717 0.25266355 0.14578864 0.3546481
0.33773413 -0.03547158 -0.3768577 0.28367928 -0.5114852 -0.25176746 0.29430607 0.28720173
-0.0010374974 0.045168083 -0.39527023 -0.33364597 0.13439816 -0.02821712 -0.02694822 -0.13681372
-0.13182731 0.040813535 -0.007947115 0.051064055 -0.12695415 0.16461149 -0.18626301 0.022864712
0.19378844 -0.18997398 -0.024359765 0.021141218 -0.14061575 -0.3818839 0.0020362532 -0.0032989744

gnn1_layers.1.W1.weight f4 [64, 64]
00000000: fe4a 283f d08b d33b 351e 45bb e870 8c3d
00000010: 8e94 663d 49f8 69bd 3722 2fbe bde9 9c3d
00000020: d485 903d 6101 4abe 4b7d 0b3c 14a9 e93d
00000030: bedc 7c3c 3922 00be fe4a eb3d a11e af3d
00000040: 1844 363e 6e0a 99bd b28d 0fbe 35b1 15be
00000050: bd5f 3c3e 5671 a1bd 3227 a73d 07ca d5bc
00000060: 33bb c43c d2f4 17bd a6ea 2b3d f757 48bd
00000070: 77c8 babd 9b7a 1fbd 1480 493f 4126 0b3f
00000080: 9639 e13c 740a 5bbd 859f 013e 21bb 9f3d
00000090: ebf7 e23c ea1c 3dbd d733 d8bd fb8e 02be
000000a0: 4b20 26bd 48cd 0e3e d2da cdbd ac06 6a3d
000000b0: 6520 0a3e fbed 55bc bfda 3b3e 268d e8bd
000000c0: 9e9b 043e 03b7 cbbc 9aa3 69be 910b 1c3e
000000d0: c14f 08be a3f1 9bbc a2f6 193e 97f2 06be
000000e0: e7b4 8bbe cb16 1a3c 9b9d 0fbd 6475 383d
000000f0: 9ac2 1dbe e420 993b 47ba 62bd 6846 b8bd
00000100: c3d3 5ebd 4330 823b af93 f6bb dad3 39be
00000110: 1c3b 1d3d 871c b7bc e35e 6abd 2300 09be
00000120: bce6 2bbd 5212 be3d 0079 783a 9ec1 21be
00000130: 76b1 463d 01d3 50bd 1498 afbb 929a fb3c
00000140: cf7f 3e3d d150 22be f740 413d f70e edbd
00000150: d087 193c 248d 18be 8736 b4bd 4a2c a3bc
00000160: d1fd 9bbd 6cf3 c1bd c514 55bd 9b96 563d
00000170: 1bd2 263c 7c77 623b c072 e13d 9896 203e
00000180: 674c 8cbd 00cc 56bd 0c9e 0cbd 754f 2dbe
00000190: 9270 3bbe f7bc 4ebd 733f e6bd 8c9d 24bd
000001a0: 0e15 c6bd 3c49 26bd c35a 32b8 2a7e e5bd
000001b0: c59c 163d 56fa 0c3d 56bc 1fbe 023f 30be
000001c0: d30e 25be c7bc 05be 192e ffbd 39fc 8ebd
000001d0: 2251 75bd 655d 06be 7e52 ccbd 3f25 9dbd
000001e0: 9b27 803d f98f f5bd f8b2 19be fb97 04bc
000001f0: 8219 56bd f8b9 063d f7cd 8b3c e417 333e
00000200: 73fb d7bd 23a3 f43d 9219 c5bc 2c76 5abd
00000210: d42b fc3d 6773 0b3e 15ee 00be 967e 4a3f
00000220: 2678 80ba 4147 56be ecfe b63d 4b38 9b3d
00000230: 59ec 4cbd a0d5 533d 95eb 1abd 8e37 383e
00000240: d6f3 823d daa4 9a3d af44 c9be de8c 9fbc
00000250: a35f e2be c09e 2e3d 946c 9f3d 5f8e bd3b
00000260: 6bc7 dbbc f267 0fbe ca68 823d 8437 f53c
00000270: ff4e 223e 8135 253a 5997 d33f 15a9 ca3f
00000280: 859e 2b3b 311c fe3d a23b 923d 3aeb 67bd
00000290: b33f 0dbe 0fd3 753c 2334 523d 970c 03bf
000002a0: 8b5d afbd 405b 88bd 0228 d1bd 94f0 2ebc
000002b0: e181 363e a07a 0dbe d645 32be 337e 98bc
000002c0: e4cc 70bd 3903 893d ab1e 59bf 67ae 58bd
000002d0: cd98 04be e3a4 cb3e b3ea 323e cf0e 7cbe
000002e0: bf13 c73e 0f8e 1d3d 5b8e ddbd bc6d 813d
000002f0: c42d 3c3d a276 57bb 9440 b63d 0002 25be
00000300: 9ab2 d93c 1983 3e3d 2276 113c b534 1fbd
00000310: cbb7 9abc 461c 1abe cff5 babd ac6e 93bd
00000320: ffb9 04be 280a 1cbe 07ca c43c 28f6 ca3c
00000330: 92be 31be 461f a6bc bbcf 16bc fc65 703d
00000340: 89ef 483c 06b7 603d 38b9 9c3c 7939 e13c
00000350: 123b d03d cd5e 36be 273e 24be 965a 0ebd
00000360: d157 063c 432d fabd bc98 3dbd 90ba 76bd
00000370: fac9 e8bc ec46 02be 5cb1 053e 5a9b 123e
00000380: 684f 16be 8806 71bd 9c90 74bd 1026 a3bc
00000390: 69fc 663d 62ab bfbc 5929 b5bd e1db 553d
000003a0: ba68 dcbd ef53 c5bd 4f07 53bd 2df8 1ebe
000003b0: 5f45 3ebd 5957 14be 8c50 953d 94ee 44bd
000003c0: 311d 2fbd 2b70 29be 9711 37be e57c 26bb
000003d0: 891a 413d 7a14 2fbe fe5f 61bc 4ab8 1bbe
000003e0: 8e0a 8b3d 945b 663d 756d 0e3d 0c15 1bbe
000003f0: 4872 8d3c ca86 ab3b 54c5 76bd e601 7a3d
0.6573943 0.006455876 -0.003007782 0.06857473 0.056294017 -0.05712155 -0.17102896 0.076617695
0.07056776 -0.19727089 0.008513759 0.11409202 0.015433488 -0.12513055 0.11488913 0.08550764
0.17799413 -0.074726924 -0.14018896 -0.1461838 0.18395896 -0.07882945 0.08161773 -0.02609731
0.024015045 -0.037098713 0.041971825 -0.048912015 -0.09120267 -0.038935285 0.78711057 0.54355246
0.02749328 -0.053476766 0.12658508 0.07799364 0.027706107 -0.046170153 -0.10556763 -0.12749855
-0.04055814 0.13945496 -0.10051502 0.05713527 0.1348892 -0.013057227 0.18345164 -0.11355047
0.12949988 -0.02486754 -0.22816315 0.15238787 -0.13311674 -0.01903612 0.15035489 -0.13178478
-0.27286455 0.009404848 -0.035062414 0.045033827 -0.15406266 0.0046731103 -0.05535343 -0.08997804
-0.05440117 0.0039730384 -0.0075249295 -0.18147221 0.03838645 -0.02235247 -0.057219397 -0.13378958
-0.041968092 0.09280838 0.00094784796 -0.15796515 0.048509084 -0.05098248 -0.0053587053 0.030713353
0.046508607 -0.15851142 0.047181096 -0.1157512 0.009370759 -0.14897591 -0.08799463 -0.01991858
-0.07616771 -0.09470257 -0.05202176 0.052389722 0.010181929 0.0034556082 0.11008215 0.15682447
-0.0685051 -0.052440643 -0.034330413 -0.16924842 -0.18304661 -0.05047318 -0.11242571 -0.04018931
-0.096719846 -0.040597185 -4.2523036e-05 -0.112057045 0.0367706 0.034418426 -0.15599188 -0.17211536
-0.16118936 -0.13060294 -0.12459964 -0.069817014 -0.059891827 -0.13121565 -0.09976672 -0.0767312
0.06257554 -0.11990351 -0.15009677 -0.008092876 -0.05227042 0.032892197 0.017065985 0.17489582
-0.10546007 0.11945178 -0.024060044 -0.053335354 0.12313047 0.13618241 -0.12590821 0.79099405
-0.0009801432 -0.20925619 0.08935341 0.075790964 -0.050030086 0.0517174 -0.037822325 0.17989942
0.06394164 0.07550974 -0.39310214 -0.01947635 -0.4421359 0.042631865 0.077843815 0.005784794
-0.026828488 -0.14004496 0.06367643 0.029933698 0.15850447 0.0006302223 1.6530563 1.583285
0.0026187014 0.12407721 0.0714028 -0.056620814 -0.1379383 0.015003934 0.051319253 -0.51191086
-0.08562764 -0.066580296 -0.10212709 -0.0106774755 0.17822982 -0.13816309 -0.17409453 -0.018614864
-0.05878915 0.06690068 -0.8481242 -0.052900698 -0.12948914 0.39774236 0.17472343 -0.24615024
0.38882253 0.038465556 -0.10818168 0.06319758 0.045942083 -0.0032877107 0.08899036 -0.16114044
0.026574422 0.046511743 0.008878263 -0.038868625 -0.018886467 -0.15049848 -0.091289155 -0.07198843
-0.12961577 -0.1523825 0.024022115 0.02477558 -0.17357853 -0.020278584 -0.0092048 0.05869101
0.012264141 0.054862045 0.019131288 0.027493225 0.10167517 -0.17809601 -0.16039334 -0.03475436
0.008199648 -0.12215664 -0.046288237 -0.060236514 -0.028416622 -0.12722367 0.13055938 0.14317074
-0.14678729 -0.05884412 -0.059708223 -0.01991561 0.05639306 -0.023397151 -0.08845777 0.052211646
-0.107621625 -0.0963515 -0.051520642 -0.15524359 -0.046452876 -0.14486445 0.07290754 -0.04807909
-0.04275245 -0.16546695 -0.17877804 -0.0025404033 0.047144447 -0.17097655 -0.0137557965 -0.1520702
0.067891225 0.05623968 0.034772355 -0.15144747 0.017266408 0.005234574 -0.06024678 0.061036967

gnn1_layers.1.W2.weight f4 [64, 64]
00000000: c75c e53e d4f3 b63c fd51 1b3d 0f7d 25bc
00000010: f676 9cbd 94c4 e5bc 62f7 16be 52b8 77bd
00000020: 7530 5d3d 8b37 ed3c 026f 7f3d 5378 623b
00000030: d874 38bc 9fcd e2bc 416f af3d c7ca 50bd
00000040: 04d4 993b 1455 ae3d 540f abbd 3afe 33bd
00000050: 8a98 333e 417e c5bd 64e0 9c3d 958b 153e
00000060: 6590 ac3b 7a49 633d 57f7 00be aae2 86bd
00000070: 5a92 b4bc a35b cfbd 8f49 8cbe e9ec 35bd
00000080: cf87 68bc 9066 013e 8133 9fbd 899b 4b3d
00000090: 94e6 653e ea93 113e d7f1 39bd ff2b a4bc
000000a0: b3fd 21bd ac7c 273d e9e5 f73c 6f45 e93d
000000b0: 1789 a7bd 88b2 88be 0201 42be 0a88 3d3d
000000c0: 170a 8fbd 0616 f33d f30f 29bc 0c0a aabd
000000d0: 97e2 503d 4bc0 babd 68a6 c8bc cf54 28bd
000000e0: e36e 1ebf d820 543d c484 9c3d 0a15 bdbd
000000f0: 3e82 913b 9bb0 fb3d b5b1 75bd 8f64 bfbd
00000100: e588 133d a412 2fbe bc1a 1cbe 7c26 523d
00000110: e371 1dbd 3c82 6fbd 850d 2cbc b9c5 823c
00000120: 5a4b a83c b2ab ed3c 3a3c 5abc f097 f63c
00000130: 9f27 283c 7167 a6bd 87c2 50bd 41a4 01be
00000140: ebf8 32be 45eb 683d 2fd0 1cbe 7386 0dbe
00000150: 9448 f7bd c603 20be dccf 0abd 04d3 6fb8
00000160: 1593 28be fa3d 4dbd 1690 1fbe 0268 41bd
00000170: 0ab3 6b3c 36ae e3bd 337d a93b afdd 103e
00000180: b7a5 10be aba2 b1bd 4c11 28be 6e8e c83c
00000190: 0898 37bd df1b e3bd b45b e23c 24cc 6e3d
000001a0: 38ca 93bc aaa6 2ebe 7dd0 b2bd f4d3 0c3d
000001b0: 8fca 7e3c 281c edbd 1d68 763c 3945 12be
000001c0: f466 dfbc 41f3 473d 9bac 1dbd 414a 2abe
000001d0: 22db b8bc 5322 1b3c 98e0 403c e2b1 11be
000001e0: f3f1 a8bd 0d55 91bd 9cea aabd f7d8 dbbd
000001f0: 5c3c d7bd 63df 8ebc e821 25bb 1c8a 123d
00000200: 72b1 53be 7ab0 4b3d 021e 663d 0290 773e
00000210: 2ae6 08bc de07 2abe 81e5 67bf 8cf3 263e
00000220: 169d 24bc c8a8 85b9 50b5 a6bd b48e cd3b
00000230: 8b00 f4bc c5fc 013e efbc 7fbd cee9 a93c
00000240: 39a3 75be 118c 50bb 6648 79be 1fa6 433d
00000250: c197 40bf bf8e 4f3d 8604 94bc 7eee 993d
00000260: 266e 7abd 8df9 1d3e e349 9ebb 5c59 c93d
00000270: 724b 27bd 3864 61bd 41b7 473f 1385 b23e
00000280: c4b9 463d 69e5 55bd 77a3 9d3c 7407 7bbc
00000290: 65a9 373d 07b9 b13d 8707 053e 68ef 54be
000002a0: dee3 b4bd 4e90 5fbe 4c50 da3d cc9a b83d
000002b0: 2397 0fbf ffbc 49be daf1 26bf c8e9 053e
000002c0: 74b3 ff3d dbd4 6e3d 2c57 23bf 34ef 58bd
000002d0: 8838 d2bc f0bf 9f3d 1782 67bb d255 c33d
000002e0: 9dcd 91bf dd3e f13d a61b 133e 5bb9 12bd
000002f0: be08 03bd a8aa ed3b 10c5 9b3d b817 383d
00000300: 80fa d03c 78e2 c83c ee49 283d e1f5 1b3d
00000310: 6d3c 32be 781f 11be e0e7 05bc 92da 77bd
00000320: b3d2 4abd f823 383d e7bf 593d b7e4 c5bd
00000330: 3a57 f1bd ef83 4cbd d933 35bd aa8c 8b3c
00000340: dc2b 80bc 89e1 acbc 0c09 cf3d a936 073d
00000350: b276 983d 582c 94bd cfcf 16be fc81 c63c
00000360: 36dd 8fbd 7432 19be 02a8 a5bd 70be 023d
00000370: 80aa f0bd 53ad 93bd bb5a d13d 8e89 193e
00000380: 8a4e a1bd f56f 19be 3602 e6bd b8a0 cdbd
00000390: 906a 5f3c 5668 14be 7226 4d3d ba00 debc
000003a0: 27b4 19be d778 063c b925 5cbd cff5 7e3d
000003b0: 1523 80bd ccbc 7cbd 4828 78bd 1b39 27be
000003c0: ea31 74bd 3984 3c3d daa6 0cbe 64bd 11bd
000003d0: 09b5 15be 1bb4 20be af1f d9bd 9330 13be
000003e0: c7a3 31bd 0192 c9bd 82f8 9dbd 85c5 0e3b
000003f0: e067 29bb b9b4 7cbd 8976 b5bd d08b d9bc
0.44797346 0.022333063 0.037919987 -0.010100617 -0.076398775 -0.028047837 -0.14742807 -0.060478516
0.05400129 0.028957149 0.062361725 0.0034556582 -0.0112583265 -0.027685938 0.08566142 -0.050974634
0.0046944637 0.08512321 -0.08352533 -0.04394362 0.17538658 -0.09643222 0.076599866 0.14604028
0.0052662366 0.055489995 -0.12594353 -0.065862015 -0.022042442 -0.101249 -0.2739987 -0.04441539
-0.014192536 0.1263678 -0.077734955 0.049708877 0.2245124 0.14216581 -0.045396652 -0.02004051
-0.039548587 0.04089038 0.030260997 0.113901965 -0.08180445 -0.2669871 -0.18945697 0.046272315
-0.06984346 0.11869435 -0.010318744 -0.083026975 0.050997343 -0.09118708 -0.024493411 -0.041096505
-0.6188795 0.051789135 0.076425105 -0.092325285 0.004440575 0.12289544 -0.059983928 -0.09345352
0.036019225 -0.17096955 -0.15244573 0.051306233 -0.03843869 -0.05847381 -0.01050127 0.015963422
0.020543743 0.029012535 -0.013320023 0.030101746 0.010263353 -0.08125199 -0.050966766 -0.12660314
-0.17477767 0.056864996 -0.1531379 -0.1382082 -0.1207439 -0.1562644 -0.033889636 -5.7178564e-05
-0.16462357 -0.050107934 -0.15582308 -0.04721833 0.014385948 -0.111172125 0.0051723956 0.14147066
-0.14125715 -0.086736046 -0.16412848 0.024481978 -0.044822723 -0.110893 0.027631618 0.058300152
-0.018040761 -0.17055765 -0.08731172 0.03438182 0.015551223 -0.11577636 0.015039471 -0.14284219
-0.027270772 0.04881597 -0.038494688 -0.16629888 -0.022565428 0.009468633 0.011772297 -0.14228013
-0.08249273 -0.070963 -0.083455294 -0.10734742 -0.105095595 -0.017440503 -0.0025197212 0.035776243
-0.20673159 0.049728848 0.05618096 0.24176028 -0.008355657 -0.16604564 -0.9058457 0.16303843
-0.010047218 -0.0002549349 -0.08140051 0.006273115 -0.029785415 0.1269408 -0.06243604 0.02074137
-0.23988046 -0.0031821767 -0.24344024 0.047765847 -0.7523156 0.050673243 -0.018068563 0.07516192
-0.061140202 0.15427227 -0.0048305853 0.09831497 -0.040843435 -0.055027217 0.78014 0.34867153
0.048517004 -0.052220736 0.019242985 -0.015321601 0.04483928 0.08677869 0.12991153 -0.20794451
-0.08832525 -0.21832392 0.10659847 0.090139 -0.5608999 -0.19701003 -0.65212786 0.13077462
0.124854 0.058308464 -0.6380489 -0.052962497 -0.025661722 0.07800281 -0.0035325342 0.09537853
-1.1390873 0.11779568 0.14366016 -0.0358213 -0.03199076 0.00725301 0.07605946 0.044944495
0.025510073 0.024522051 0.04108613 0.038076285 -0.17405863 -0.1417216 -0.008172959 -0.06051118
-0.049517345 0.044956177 0.053161528 -0.096627645 -0.11784215 -0.04993051 -0.0442389 0.017034847
-0.015645914 -0.021103637 0.101091474 0.033011112 0.07444514 -0.072350204 -0.1472771 0.024231903
-0.070246145 -0.14960653 -0.080886856 0.031919897 -0.1175127 -0.07210793 0.102223836 0.14993879
-0.07876308 -0.14984114 -0.112308905 -0.1004042 0.013636246 -0.14492926 0.050085492 -0.027099956
-0.15010129 0.008207521 -0.053746913 0.06224614 -0.06256691 -0.06170349 -0.06058529 -0.16330378
-0.059617914 0.046024535 -0.13735524 -0.035581008 -0.1461984 -0.15693705 -0.10601746 -0.14373998
-0.04336908 -0.09842301 -0.07713415 0.0021785211 -0.0025849268 -0.061695788 -0.088604994 -0.026555926

gnn1_layers.2.W1.weight f4 [64, 64]
00000000: 1b04 58bd afcf 4b3d 5bc7 91bd fcb4 f13c
00000010: f7a0 60bd d363 29bd 440f 22be 34e0 f2bd
00000020: 0641 86bd 5c46 33bc d914 103d 8ded 6ebc
00000030: 5e5f 9cbd a785 4fbe c8ea e7bd fc7f f53d
00000040: 2c7f 363e 00c9 3aba f61a c3ba 1896 bd3c
00000050: cafb 363e 2e1e 6d3d d50a 0e3d d674 febd
00000060: 1d97 323d ee02 f13d f039 32be 3b00 0f3c
00000070: bc54 aa3d 7d7f 61b9 a3d5 703d 6c0c 06bd
00000080: ad96 de3c bc2b 0cbd ac18 9a3d b063 d7bd
00000090: e12e 39be 4717 21be c212 90bd ee3f 81bd
000000a0: 40ff a73d 78ea 86bc 4d69 193e c412 babd
000000b0: 4cfc 293e c16a a93c 85c0 9a3c ec9b 8f3b
000000c0: ce67 c9bc 137a 96be b62d 72bd f4ff b6bd
000000d0: d7ad 9abd 4b99 c93c 0860 5e3d 88af 9f3d
000000e0: 03b5 00be 7a2b f73d bb8a 353e 07b9 f73d
000000f0: aec4 f3bd e778 fe3d a9a7 b43d f295 103d
00000100: 4c62 26be 8b59 273e ed15 71be 7827 28bd
00000110: 108d 3c3e 65b4 c53d ebda bcbb 2f9c 5f3c
00000120: 6619 51bc 24b6 94bd 3d87 9ebd 4fb9 6c3d
00000130: 7b22 29bd 40fe 7d3f 64e7 b0bd 7714 02be
00000140: d5a7 443d 1c32 bb3d 0bfa 25bb 8e60 b83d
00000150: b8a8 af3d 4180 7cbb a8e9 233e 43df 593d
00000160: 65f3 f6bd fd35 bebc 23b2 3fbe 8148 a3bd
00000170: 10dc b63d 15d6 9dbb 77af c8bd dd40 c23d
00000180: 4841 f9bd 3c49 a33d 8726 703e 24f7 f33d
00000190: b3db acbd 36c6 fdbd 271f a8bb 8c19 debc
000001a0: f8ee fabc 0086 94b9 239a 6cbc f417 23be
000001b0: 7d86 52bd a4c8 25be 6b3c 2b3e 972e 05be
000001c0: c18e 1a3e 6a51 833d 8f72 053d 0bab ddbd
000001d0: 1352 bb3f 7693 c73c 82e2 97bd 93f4 0d3e
000001e0: 62ca 6bbd 9854 a2bd 5e33 2ebd 4e92 983d
000001f0: cecd 21bd f110 1c3e 61a3 1f3c 4a70 f73d
00000200: 5e70 46be 9ae7 873d 0096 0f3b 488e b0bc
00000210: 74b1 483d 900e 64bd 14fa fcbd ab6f 99be
00000220: 28e4 93be e8e5 f33d acef 40bd bc8d cbbd
00000230: 3824 bbbd 1e3e f83d 7836 8fbc 0e6b d7bd
00000240: 089c 93bc 4096 79bd f905 91be c08b 7abd
00000250: 9ee6 c13d e486 4e3d ec93 953d 1008 293c
00000260: f40d 56bd b0f6 50bd b4d0 abbd 3ef4 b8bd
00000270: 46b9 dcbd 28ec b53c a054 863d cce7 d03d
00000280: 000a 50bb e035 95bc c03b 2abc 4cba 493d
00000290: 0832 a2bc c4e7 33bd b7a1 6fbe 3013 fabd
000002a0: b826 c5bd 6428 5bbd 806c 463c 068a 8ebe
000002b0: a416 443d 9002 8cbd 82ae f73d f03d e2bd
000002c0: d4be 8e3d 3aeb 84bd ac8a 35bd 8209 efbd
000002d0: 5642 edbd d645 f2bd c057 1dbb 6ccb eb3d
000002e0: 70c2 6a3d 4a4b a03d d047 e53c 4cd2 45bd
000002f0: 8066 47bd bc17 18bd 742d efbd 80b7 8c3d
00000300: 1fd3 38bd 4bbe 4fbc 3f2b ec3c 9eff 753d
00000310: 144b 033e 77bb b8bc 3eeb 9d3d 30ec 3cbd
00000320: df62 32bd 6045 ba3d 7797 27bd 3dbc 20be
00000330: bd99 1ebe a777 543e 2eaf efbd 3efd 9abd
00000340: 4d4c 133e 4ad0 3cbd 4ece ba3c 3588 8d3d
00000350: f963 993d 19a9 9a3d bb1c 803d 98f1 bc3d
00000360: a198 0ebe f154 b23d ad7e f1bd 332b bc3d
00000370: 5ca3 903f e5f5 6ebd 0cad 273d 75cc 1e3d
00000380: 25a6 113d d84c 793c 439c fdbd f785 e53d
00000390: 5519 a53d 9f76 5dbc a635 013d d617 c03c
000003a0: 6300 c8bc 6db1 48bd 5977 1b3e d5cf 2b3d
000003b0: a53b 293e 8274 97bc 4627 0ebd d640 5bbe
000003c0: 4725 423e fe3f b53d 66fa c73d d3c1 0fbe
000003d0: be92 ed3d b32b ee3d 4cef 26bd c47c ba3d
000003e0: 5844 aa3d 315e b8bc 634a 363d 7966 7e3d
000003f0: fb50 c4bd 4da3 bd3d 400d 273e c0f4 2e3e
-0.05273829 0.04975861 -0.07118102 0.029505245 -0.054841008 -0.041354965 -0.15826136 -0.118591696
-0.06555371 -0.010942068 0.035176132 -0.014583004 -0.07635377 -0.20265828 -0.11324078 0.11987302
0.1782195 -0.0007125288 -0.0014885354 0.02314286 0.17869487 0.05789011 0.0346783 -0.124246284
0.043601144 0.11768137 -0.17404914 0.008728082 0.08316943 -0.00021505165 0.05879749 -0.03272669
0.027171457 -0.034221396 0.07524237 -0.10517061 -0.18084289 -0.15731536 -0.07034828 -0.06311022
0.08202982 -0.016469225 0.14981575 -0.090856105 0.1660015 0.020680787 0.018890629 0.004382601
-0.02458563 -0.2939001 -0.059125625 -0.08935538 -0.075526886 0.024609229 0.0542908 0.07797152
-0.1256905 0.12068839 0.17728703 0.12095838 -0.11902748 0.12425404 0.08821041 0.03529925
-0.16248435 0.16342752 -0.2354352 -0.041053265 0.18413186 0.09653548 -0.0057634017 0.013648077
-0.012762403 -0.07261303 -0.077406384 0.05779391 -0.04129265 0.9921608 -0.08637884 -0.12703119
0.04801162 0.09140417 -0.002532604 0.09002791 0.085771024 -0.0038528594 0.16007102 0.053191435
-0.120581426 -0.023219103 -0.18720298 -0.079728134 0.08928692 -0.0048167803 -0.09799092 0.09485028
-0.121706545 0.07972953 0.23452197 0.11912373 -0.08440342 -0.12391321 -0.005130667 -0.027111791
-0.030631527 -0.00028328598 -0.014441046 -0.15927106 -0.05139779 -0.1618982 0.16722266 -0.13006054
0.15093519 0.06412013 0.032579955 -0.108236395 1.4634422 0.024362307 -0.0741625 0.13862829
-0.057566054 -0.07926291 -0.042529456 0.074497804 -0.03950291 0.15240838 0.009743542 0.12081964
-0.19378802 0.06635971 0.0021909475 -0.02155222 0.048997357 -0.05567795 -0.12352386 -0.29968008
-0.28885007 0.119090855 -0.04710357 -0.09939143 -0.091377676 0.12121223 -0.017482027 -0.10518466
-0.018018737 -0.060934305 -0.2832487 -0.061168432 0.09467815 0.05042161 0.073036045 0.010316864
-0.0522594 -0.05101651 -0.08389416 -0.090309605 -0.107775256 0.022207335 0.0655911 0.10200462
-0.0031744242 -0.018214166 -0.010390222 0.049249932 -0.019799247 -0.0439222 -0.23401533 -0.12210691
-0.09626526 -0.053505316 0.012110829 -0.2783968 0.047873154 -0.06836426 0.120938316 -0.1104697
0.06969991 -0.064901784 -0.0443217 -0.11671735 -0.11584918 -0.118297264 -0.0024008602 0.11513409
0.057314336 0.0782686 0.027988344 -0.048296258 -0.048681736 -0.03713201 -0.11678591 0.06870937
-0.045123216 -0.012679647 0.028829215 0.06005823 0.12821609 -0.022550328 0.077108845 -0.046123683
-0.043551322 0.090952635 -0.040915933 -0.15696807 -0.15488334 0.20748769 -0.11703335 -0.07567833
0.14384575 -0.046097077 0.022803452 0.06910745 0.074897714 0.07551784 0.0625548 0.09225768
-0.13925411 0.087076075 -0.117917396 0.09187927 1.1299853 -0.058339972 0.040936515 0.038769204
0.03555884 0.015216075 -0.1238332 0.112071924 0.08061472 -0.013517051 0.031545304 0.023448866
-0.024414247 -0.04899733 0.15182246 0.04194625 0.16526659 -0.018488172 -0.034705423 -0.21411452
0.18959533 0.08850096 0.097645566 -0.14038782 0.116002545 0.11629429 -0.040755555 0.091058284
0.08313817 -0.022505851 0.044504534 0.062109444 -0.09585758 0.09259663 0.16313648 0.17085552

gnn1_layers.2.W2.weight f4 [64, 64]
00000000: 4e7b d23c e0d0 0f3d 8735 29be 6cd7 33be
00000010: 5808 863d be3d 07bd 6648 09be 005c 1c3c
00000020: e3bc 74bd 973e 00be 1a1d da3c ba8c cabb
00000030: c14b f2bd 4899 36bd 48d1 b43c c27a 143d
00000040: 2233 d03d 3e56 ae3d 1bad 01bd 7c16 2a3d
00000050: def5 88bc 515e 303d 69e1 183e efc3 39be
00000060: d659 85bd d899 44bd 9883 103d 4193 38bd
00000070: da31 2c3e 2117 ffbd ddb8 f1bc 53e0 0f3e
00000080: 89a7 debd 9312 88bd 4c6f abbd 0062 0b3b
00000090: 9183 2cbe 212f 23bd 6c85 d33d 3002 cebd
000000a0: 004c b4bc 704b e1bd 93c1 093d d8d9 75bd
000000b0: 191a af3d cb25 c6bd 66b7 0bbe 9c54 dbbd
000000c0: 00be 153e b560 04bc cc2f 8e3d 309b c3bc
000000d0: 04e0 4dbd b2ba 573d 2281 c13d 2fab 163e
000000e0: fa7a 25bd b0f6 cdbc e48b 31bc 6737 fa3a
000000f0: feb7 7fbc 32e6 163e d58d 9d3d c939 40bd
00000100: f1f5 8fbd d7b9 52bd 999c b93c a7b1 923d
00000110: 4a7b ea3c 0dcc d23d 8ccf 28be bc73 e3bd
00000120: 12c4 77bd f998 d83c 0de8 603d a2f8 4bbd
00000130: 2fe7 36be 8770 3c3f 825e 90bd edfe a13d
00000140: e45e 5b3c 0c57 0bbd 56d4 cdbd d59b 053e
00000150: bb5b bb3d 47d2 f8bc 833d 653d 57ec 9bbb
00000160: 0bbd 7fbd 46fa cf3d 1a06 43be 2539 e9bd
00000170: 323e c53d e586 ad3d 16b6 5a3b 6e55 30bc
00000180: 1525 4e3c 9da1 17bd b81f cdbd c5cd d0bc
00000190: c036 04bd 7a09 5bbd e4a9 36bd 05e3 e63c
000001a0: 4050 11bc f47f eb3d 7e97 5cbd b830 54be
000001b0: a14f 9d3d 9a82 0e3c 92fa c63d 224e 6e3d
000001c0: ea8c eebb a246 c73d bafe c53d a3dd 64bc
000001d0: 80e7 013e 647c 18bd 12f3 883d 95c0 6e3d
000001e0: 5fe2 1f3d 63b1 1b3e bd1b 62bd dd72 2b3e
000001f0: c93b 9abd 6ddc 4bbd ac4c 213e 4457 263c
00000200: b2b1 37be 40b3 993c 0eb4 89bd 2a57 a23d
00000210: fc24 423d 5034 ce3d 83b5 6fbe e341 95be
00000220: 02aa 33be a891 09bd 0058 8738 d035 d0bd
00000230: b497 e53d 30a3 86bd b007 39bc 80dd 4f3b
00000240: 7c6d 5ebd 7c19 983d 757d 9abe 28be 89bc
00000250: 08c9 a5bd 60ce 973d 405e babd 64ae ca3d
00000260: 8a6a ddbd 76db ffbd 00c9 473b c405 fcbd
00000270: c277 ee3d 5021 ef3d 0ccf 69bd b85a bf3d
00000280: 1ce9 44bd 6880 fa3c ba6e b3bd d0a5 0abc
00000290: 3054 1cbd 70ba e53c e09b 23be cef2 eebd
000002a0: 3062 0a3c 5e3c c63d a83c ce3d d8d7 12be
000002b0: c0b0 3d3b 7aa3 af3d 9ed9 873d 5664 a8bd
000002c0: a0a6 e9bb df53 a1be 2033 103c 7086 1b3c
000002d0: 368a a8bd 488d f43c c808 b13d c8d3 d9bd
000002e0: 040b e4bd bc32 7abd 48b0 843c 2e77 f8bd
000002f0: d0ca cbbc a28f c43d 004a d3bd 68c3 08bd
00000300: d029 4fbd ad19 0a3e 6972 eabd 91aa 1e3e
00000310: 45a5 59bc e082 d63d 1454 e0bd 71c1 b33d
00000320: 051d 2abe 2ebf 88bd faf4 963d d9ba 1dbe
00000330: 6936 393c 1f51 353d 00de 31bc 56af a73d
00000340: 6d20 71bd 1613 073d ade3 4ebe 968a de3d
00000350: 970b 363e b890 86bd ef41 1c3b 4c73 95bd
00000360: 7716 d7bd bd62 c83d 5485 13bd c7a8 fcbd
00000370: b691 023f 4e5e 81be 9e81 c0bc 08ac 2fbd
00000380: c15b 03be 00a7 34bd e59d 4c3d 4cad 1a3e
00000390: f4c6 8fbd 610a dfbd f571 19bd 4320 2bbc
000003a0: 6cbc 6e3d ae31 acbd 13bf b63c aa97 463c
000003b0: 038b 45bd f19e 9f3d 4f0c 123e 5bb6 cfbd
000003c0: 2180 383d ab70 eebd df8b 16bc 1218 03be
000003d0: 22d2 c8bd 3f34 273d 182e c03d e483 8abd
000003e0: 4e4f af3d 4eb1 efbc e502 5a3d ebc8 85bd
000003f0: ffb1 693d e443 d1bb 2296 b33d c9ff c63d
0.025693562 0.035111308 -0.16524325 -0.17562646 0.0654456 -0.033017866 -0.13406524 0.009543419
-0.05975045 -0.12523876 0.026625205 -0.0061813267 -0.11830855 -0.044579774 0.02207245 0.036249883
0.10166003 0.08512543 -0.031659227 0.04152535 -0.016718801 0.043058697 0.14929737 -0.18141149
-0.065112755 -0.04799828 0.035281748 -0.045062307 0.16815892 -0.12455583 -0.029507095 0.14050417
-0.108717985 -0.06644168 -0.083708376 0.002126813 -0.16847064 -0.039839868 0.103281826 -0.10059011
-0.022008896 -0.11000717 0.033631872 -0.060022205 0.085498996 -0.09675177 -0.1364418 -0.10709497
0.1462326 -0.008079697 0.0694271 -0.02387771 -0.050262466 0.05266828 0.09448458 0.14713739
-0.040400483 -0.025142044 -0.010836575 0.0019089998 -0.015607832 0.1473625 0.07693068 -0.04693011
-0.070293315 -0.051446762 0.02265768 0.07162791 0.028623242 0.10292826 -0.16485423 -0.11106059
-0.06048972 0.02644013 0.0549088 -0.04979766 -0.17861627 0.73609203 -0.07049276 0.07909951
0.013389323 -0.03401856 -0.100502655 0.13047726 0.091483556 -0.030373706 0.055966865 -0.0047583985
-0.062436145 0.10155158 -0.19045296 -0.113878526 0.096310034 0.08472995 0.0033372692 -0.0107625555
0.012582083 -0.03701936 -0.100158155 -0.025488744 -0.032278776 -0.053475834 -0.044595614 0.028184423
-0.008869231 0.114990145 -0.05385541 -0.2072171 0.07681204 0.00869813 0.09715761 0.058179982
-0.007279982 0.09730269 0.09667726 -0.013968858 0.12685966 -0.037228003 0.06686987 0.05828913
0.039034244 0.15204386 -0.055202235 0.16743036 -0.07530934 -0.04977076 0.15751904 0.010152642
-0.17938879 0.01876223 -0.06723796 0.079267815 0.047398552 0.100685716 -0.23409085 -0.2915183
-0.17545322 -0.033586174 6.453693e-05 -0.10166514 0.11210576 -0.06574094 -0.011293337 0.0031717718
-0.05430363 0.07426736 -0.3017384 -0.016814306 -0.08094984 0.0741241 -0.09100008 0.098965436
-0.10811336 -0.12493031 0.0030484796 -0.12305787 0.11643936 0.11676276 -0.05708222 0.09343475
-0.048073873 0.030578807 -0.08761354 -0.008462384 -0.038166225 0.028043002 -0.1597743 -0.11667405
0.008446261 0.09679483 0.10070163 -0.1434015 0.0028944463 0.085761026 0.06633304 -0.082222626
-0.007130459 -0.315093 0.008801252 0.009492502 -0.08229487 0.029852524 0.08644253 -0.10636097
-0.111349136 -0.06108354 0.016197339 -0.12132107 -0.024876982 0.09597708 -0.10316849 -0.03338948
-0.050576985 0.13486357 -0.11447603 0.15494753 -0.013284032 0.10474181 -0.10953537 0.087771304
-0.16612633 -0.0667709 0.07370944 -0.15403308 0.011304476 0.044266816 -0.010856152 0.081877396
-0.058868814 0.032977186 -0.20204039 0.10866277 0.17777859 -0.06570572 0.002384301 -0.07297382
-0.10502332 0.09784458 -0.036015823 -0.12336879 0.5100359 -0.2526726 -0.023499306 -0.04288867
-0.1282797 -0.044104576 0.049955267 0.1510517 -0.07020369 -0.108906515 -0.037462194 -0.0104447035
0.05828516 -0.08407913 0.022307908 0.0121211205 -0.048228275 0.077939875 0.14262508 -0.101422034
0.04504407 -0.116425835 -0.009188621 -0.12802151 -0.09805705 0.04082131 0.09383792 -0.067634374
0.08560048 -0.02925935 0.053225417 -0.06532463 0.057054516 -0.006386267 0.0876887 0.09716756

gnn2_layers.0.W1.weight f4 [64, 129]
00000000: ac77 023d 1101 9f3b 91ad 8cbd 0ac4 75bd
00000010: b9f7 9abc 0809 e3bd ddb4 40bb 4a53 643d
00000020: b19e 2a3d 07d1 163e af99 0bbe 607e 553c
00000030: 52fe a33c bbdf 61bd c527 a5bd 9934 ddbd
00000040: dfed 84bd e074 2cbd 7f1c d6bd a83d 5d3d
00000050: 0e44 ef3c 5868 92bd bb28 853c ae0d abbd
00000060: 8ee7 9abd df00 a9bd d2af cd3d 2c36 e8bc
00000070: d552 07be 20da c63d 4b11 5abc 6afb fd3d
00000080: 08c0 283c 85aa f2bd 8fa8 e2bc 8521 babd
00000090: 02dc 80bd 3d76 1fbe 2d83 253d d734 63bd
000000a0: 9d70 04be 1842 073c 15d4 553d 30cd db3b
000000b0: 1b50 c5bc 85e0 11be 4d52 953d 54ba fb3d
000000c0: 7a87 b3bd e0b8 b73d 681c 903c be3b ef3c
000000d0: a2e1 983d 9d71 04be c693 f3bd 2340 003e
000000e0: 3f59 e53b 22c2 0a3e ee5a 7e3d 9de8 9abc
000000f0: fd6d cc3d 4997 f1bd 2e88 d7bd b226 563c
00000100: 3d1a 0a3e 4972 1239 a77d 273d c802 0bbd
00000110: b795 ef3d dfe5 fcbd 3a15 4bbc 0e47 903d
00000120: 8cc2 82bd 6d64 f93b f3eb 42bd 5d61 273d
00000130: 67a4 1c3c 6a08 77bd f55b 6b3d e853 b2bd
00000140: 919d 03be 0486 ac3c 7faa 50bc ac49 d7bc
00000150: b6c8 523c 4621 81bd ff6b 81bd cf2b fcbd
00000160: 6c97 06bd 20b3 8c3c a4a3 843d 7ca6 973b
00000170: 7aed e63c 06d2 c03d a59d c23c 8922 a63d
00000180: adbb 953a 1c56 f8bd faa3 a43c d980 d6bc
00000190: ea83 0dbd 35dc b0bd 9da4 423b f473 3f3b
000001a0: cdae dfbd 56fe 0a3e c20f 113e c276 5abd
000001b0: 6f6c 98bd 136d 79bd ef94 69bc c847 97bc
000001c0: 1d88 9cbd 8eb2 233c fb4e b83c 13ae 0a3c
000001d0: cca6 113d edc5 11be 8823 8fbc d687 573d
000001e0: 3450 d1bd 2793 0d3e ede5 f03c c09f d73c
000001f0: ef3b 0a3e 1e1f fabd 5dcc f2bd 214b ebbb
00000200: 32bc 883d 99a4 a0bd 815f 9dbd 33f7 aebd
00000210: fc25 fbbc 4137 80bd 8f2e 01be d5cb 02be
00000220: 3d0a 29bc 8900 09be 5399 27bd f47a a43d
00000230: 9df1 afbd 56c3 4b3d d9f1 acbc a29f a3bd
00000240: de44 5ebd 7ed3 e6bd d338 b0bd 9bdd 503c
00000250: 61c9 22bd c2bf a9bd 6437 413d b66f c8bb
00000260: ae9c 07bd 104b af3d 6716 b73c a332 293c
00000270: 75a4 c5bd 1630 6ebd ad5e b1bd 820b 0ebd
00000280: e009 08bc 3c88 6f3c 0ffb b4bd 4211 39bd
00000290: 6331 00be 06b6 9dbd 2dd7 78bc 44e0 04bc
000002a0: 8cc3 a0bd 6974 a6bc a465 04bd 2c6a 1fbd
000002b0: 3178 1cbd ea34 85bd ab99 31bd f164 f6bd
000002c0: aa05 eebd b35f 293c 71b7 9fbb 7db4 66bd
000002d0: 5fc3 a33c 7241 353c e57d 17be 600e cebd
000002e0: 3525 f1bc 6056 8abb 1be9 f9bc 98ff ddbd
000002f0: 8ae0 54bc e2bf e2bd 9147 5dbd ff74 05be
00000300: 01ac cfbc bd58 7bbb 3620 6ebc 5b14 82bd
00000310: 839b 1dbc 657e 95bd c5c0 02be 04e1 a13c
00000320: 10eb f6bc 40fa 4fbd 556c 03bd 96ac 1f3d
00000330: b1cb 0ebe 3fea 4d3d cecb 8a3b 3198 49bd
00000340: 0f01 cdbc 0d30 43bd 0f4e c53b 7506 743c
00000350: 2301 ebbd b922 91bb a6aa b03b 7bd6 a83b
00000360: 3fa8 bdbd 9555 9c3d 7e3d fcbd 15ff b7bd
00000370: 9f9c f4bd ebb8 c43b a254 c3bd e8ef 6fbd
00000380: 4476 87bd c75d cf3b c9d5 09be c2d1 d7bd
00000390: 6b24 15be ab88 9cbc c26b 9bbd 6264 f1ba
000003a0: 5a4c d6bc b78b 52bd 5522 53bd fe8e a0bd
000003b0: 8d65 fcbd 73b3 96bd 7189 3e3c 1c0c 32bd
000003c0: c244 35bd e4ec b0bd 316c 6dba 1691 c7ba
000003d0: 87b5 28bd 77ac 103b 1036 5abd 1a0d 6fbd
000003e0: 310c 13bd aa33 14be 1505 7cbb b9eb d8bd
000003f0: 6e7e c9bd 2fcd 85bd 6848 01be 5210 efbd
0.03185241 0.004852422 -0.06869043 -0.06000141 -0.018916951 -0.11085707 -0.0029404678 0.055743493
0.041655246 0.14728175 -0.13632844 0.013030618 0.02001873 -0.055145007 -0.08064226 -0.10801048
-0.06490683 -0.04210365 -0.10454654 0.054013878 0.029207256 -0.07148808 0.016254773 -0.083522186
-0.07563697 -0.08252119 0.10043301 -0.028346144 -0.13215192 0.09709573 -0.013309787 0.12401469
0.01029969 -0.1184893 -0.027668266 -0.090884246 -0.06291963 -0.15572448 0.040408302 -0.055470314
-0.12933584 0.008255504 0.05220421 0.00670781 -0.024086049 -0.14245804 0.07291088 0.12291399
-0.087660745 0.08970809 0.01759167 0.029203292 0.07464911 -0.12933965 -0.1189342 0.12524466
0.0069991644 0.13550618 0.062098436 -0.018909747 0.09981916 -0.117964335 -0.10524021 0.013070749
0.13486572 0.0001396622 0.040891316 -0.0339382 0.11698478 -0.12348532 -0.0123951975 0.070448026
-0.06384763 0.0076108486 -0.0475883 0.040864337 0.009560681 -0.06031076 0.057460744 -0.0870741
-0.12853076 0.021059997 -0.012735962 -0.026280247 0.012865236 -0.063051745 -0.06319427 -0.12313043
-0.03285925 0.017175257 0.064765245 0.004628001 0.02818941 0.09415059 0.023756811 0.08112056
0.001142373 -0.12125799 0.020097721 -0.026184486 -0.03454963 -0.08635751 0.0029700168 0.00292134
-0.109220125 0.13573584 0.14166167 -0.053335913 -0.07442557 -0.060895037 -0.0142567 -0.018466845
-0.07643149 0.009991301 0.022498598 0.008464354 0.03555946 -0.14235659 -0.017472997 0.052619778
-0.10220376 0.13825665 0.029406512 0.026321292 0.13499425 -0.122129664 -0.118553855 -0.007180587
0.066765204 -0.078438945 -0.076842315 -0.08543243 -0.03065776 -0.06260539 -0.12615417 -0.12773068
-0.010317382 -0.1337911 -0.040917706 0.08031264 -0.08591006 0.049746834 -0.021111416 -0.07989432
-0.054264896 -0.11270808 -0.08604588 0.012748147 -0.03974283 -0.08288528 0.047171965 -0.0061168326
-0.033108406 0.08559239 0.02234955 0.010327014 -0.09650508 -0.058151327 -0.08660636 -0.034678943
-0.008303136 0.014619883 -0.08836948 -0.045182474 -0.1251884 -0.07700734 -0.015188021 -0.00811011
-0.078497976 -0.02031918 -0.032323495 -0.038919613 -0.03820056 -0.06504233 -0.04335944 -0.12030972
-0.11622174 0.010337758 -0.004874163 -0.05632447 0.019990621 0.011062967 -0.14794119 -0.100613356
-0.029436687 -0.0042217225 -0.030506661 -0.10839766 -0.012992987 -0.11071755 -0.05402333 -0.13032912
-0.025350573 -0.0038352453 -0.014534047 -0.06351539 -0.009619596 -0.072994985 -0.12768848 0.019760616
-0.030141383 -0.050775766 -0.032085735 0.03898295 -0.1394489 0.050272223 0.004235721 -0.049217407
-0.025024919 -0.047653247 0.006021268 0.014894118 -0.11474826 -0.004429188 0.0053914366 0.005152521
-0.09260606 0.07633511 -0.12316416 -0.089842 -0.119439356 0.0060034893 -0.09537627 -0.0585784
-0.06614354 0.006328318 -0.13460459 -0.10538055 -0.14564674 -0.019108137 -0.075889125 -0.0018416757
-0.026159454 -0.051402774 -0.051546413 -0.078397736 -0.12324057 -0.07358446 0.011629448 -0.04346858
-0.044255026 -0.08638933 -0.00090569543 -0.0015225734 -0.041188743 0.0022075453 -0.053274214 -0.058362104
-0.0359003 -0.14472833 -0.0038455178 -0.105918355 -0.09838568 -0.06533276 -0.12625277 -0.11673035
