checkpoints/mutag_12gnn.pt (torch, 207945 bytes, 14 tensors)

gnn1_layers.0.W1.weight f4 [64, 7]
-0.27979076 -0.10008547 -0.07584295 -0.066768974 -0.112633795 0.56887645 0.30081645 -0.13040923
-0.18348567 -0.104720004 -0.090643294 0.91024774 0.019120933 -0.34328878 -0.25825536 0.21289383
0.03306075 -0.018799037 -0.22787695 -0.23124059 -0.33856803 -0.1204806 0.34436688 0.25145334
0.16896124 -0.33409944 -0.22729364 -0.05964908 0.34086064 0.06272004 -0.10289083 0.038451597
0.6047085 -0.24463964 0.24523361 -0.21885635 -0.19433641 -0.37600067 0.1897162 0.70910555
0.07704777 -0.26354486 -0.37302822 -0.3069748 0.24482651 0.11843205 0.09081175 0.18648192
0.042189457 -0.08486532 -0.26621658 -0.4022079 -0.35352856 0.15472427 -0.18556845 -0.076066315
-0.262103 -0.107869126 -0.32033524 -0.30977765 0.7914401 -0.18550034 0.20412092 -0.2670386
-0.3472296 -0.15426922 -0.1832173 -0.11563504 -0.35982051 0.21146771 -0.3268904 0.15327181
0.15707166 0.27003017 -0.28991842 0.27183083 -0.17868331 -0.0069620586 0.26650083 -0.09148526
-0.12486015 -0.13549878 -0.3155945 0.21006204 -0.538551 0.2759754 0.22246583 0.4385696
-0.089154094 -0.31055146 0.19762608 0.13819453 -0.37619135 -0.04923634 -0.22657287 0.6468466
-0.18603921 -0.15449962 -0.19801635 -0.5052315 0.17687374 0.2314108 0.7174009 -0.11066747
-0.21089321 -0.41441336 -0.45866066 0.05881056 -0.2631088 -0.24298465 -0.15401803 -0.18146504
0.05322686 -0.036242053 -0.08017096 -0.13013786 -0.18097162 -0.30759785 0.27403617 -0.22391587
0.017863646 -0.24990237 -0.010914744 -0.28468272 0.064384975 -0.38101074 0.28728348 0.20659186
0.06466602 0.36646807 -0.17302737 -0.16226518 -0.08729226 -0.34394163 -0.14589587 0.26354945
0.19376191 -0.23917176 -0.30308405 -0.2582872 -0.3730047 -0.2916521 -0.09346962 0.1958107
0.06326455 -0.28748184 -0.30321214 0.18913896 -0.26195857 -0.053763874 0.11111125 -0.17492652
-0.12049773 -0.09379821 -0.17330515 -0.26490405 -0.40477636 -0.34641445 0.45110026 0.17599024
-0.10621824 -0.2538137 0.24639419 0.03511736 0.1515016 0.23030327 0.15183042 -0.37475213
2.4792e-05 0.12524566 -0.06951286 -0.2783155 1.1273918 -0.22597772 -0.26866245 -0.3407558
-0.041075762 0.111103855 0.08366728 0.07474238 -0.2866435 -0.3529762 -0.027383922 0.32612878
0.23992625 -0.32384592 0.6688646 -0.32519898 -0.20150921 0.039838288 0.13764895 0.19830285
-0.34701148 0.10567802 -0.26657534 0.07955272 0.23087564 0.0053075254 0.33675793 -0.32204518
-0.14436701 0.08815948 -0.08234632 -0.1523351 -0.26295793 0.2085947 0.121138416 0.84355307
-0.2124023 -0.3068125 0.9035628 0.21697223 -0.29628748 -0.10575357 0.15618786 0.030108541
0.017053127 0.6764025 -0.5100507 -0.42196617 -0.1806727 -0.19212742 0.11775619 -0.11002952
-0.19485617 0.2554572 0.00073056587 0.21394932 -0.368274 -0.22922134 -0.037163522 -0.26326203
-0.27854362 -0.13776663 -0.21595262 -0.33308223 0.16492677 0.2619414 0.018905796 -0.065808624
-0.35009828 -0.1376693 0.831225 0.3758829 -0.04778132 -0.19148806 0.095032185 -0.34228253
0.14029692 -0.19993272 -0.07174613 -0.14889102 -0.1579431 -0.11422026 0.3830587 -0.0098260045
00000000: bc40 8fbe 9cf9 ccbd 8c53 9bbd 2cbe 88bd
00000010: 8cac e6bd e3a1 113f 9d04 9a3e ff89 05be
00000020: abe3 3bbe 7177 d6bd 31a3 b9bd ff05 693f
00000030: 81a3 9c3c 8cc3 afbe 0c3a 84be d700 5a3e
00000040: b66a 073d 7000 9abc 9358 69be 55ca 6cbe
00000050: ca58 adbe 88be f6bd db50 b03e 7ebe 803e
00000060: 2d04 2d3e 150f abbe aabf 68be 9852 74bd
00000070: 4985 ae3e 5d73 803d 6db8 d2bd 6c7f 1d3d
00000080: 2dce 1a3f d082 7abe 851e 7b3e e11b 60be
00000090: 2000 47be 2983 c0be f744 423e f187 353f
000000a0: 39cb 9d3d 5aef 86be 8efd bebe cd2b 9dbe
000000b0: cdb3 7a3e 818c f23d 83fb b93d 1ef5 3e3e
000000c0: dace 2c3d decd adbd 8a4d 88be 32ee cdbe
000000d0: b201 b5be 0a70 1e3e a805 3ebe a8c8 9bbd
000000e0: 5d32 86be 7dea dcbd fb02 a4be 2d9b 9ebe
000000f0: d29b 4a3f cdf3 3dbe 1305 513e 49b9 88be
00000100: 14c8 b1be c0f8 1dbe 519d 3bbe 10d2 ecbd
00000110: 653a b8be fe8a 583e 2e5e a7be 49f3 1c3e
00000120: 65d7 203e 6541 8a3e 3070 94be 692d 8b3e
00000130: c2f8 36be fb21 e4bb cc72 883e a05c bbbd
00000140: aeb6 ffbd 31c0 0abe 9a95 a1be 811a 573e
00000150: 7ade 09bf a64c 8d3e 15ce 633e 328c e03e
00000160: 6c96 b6bd 9a00 9fbe 7e5e 4a3e de82 0d3e
00000170: 279c c0be 0bac 49bd b802 68be bd97 253f
00000180: 1081 3ebe 2635 1ebe ccc4 4abe da56 01bf
00000190: 641e 353e f4f6 6c3e 96a7 373f a0a5 e2bd
000001a0: 64f4 57be fd2d d4be 92d5 eabe 57e3 703d
000001b0: 32b6 86be f8d0 78be e7b6 1dbe f9d1 39be
000001c0: 6804 5a3d 8c72 14bd ac30 a4bd dc42 05be
000001d0: a050 39be 777d 9dbe 784e 8c3e 344a 65be
000001e0: c856 923c 68e6 7fbe c1d3 32bc efc1 91be
000001f0: 45dc 833d d713 c3be d216 933e d18c 533e
00000200: 9e6f 843d b4a1 bb3e 162e 31be d828 26be
00000210: 49c6 b2bd 1e19 b0be ba65 15be f4ef 863e
00000220: 8669 463e 71e9 74be d52d 9bbe 383e 84be
00000230: 79fa bebe 6d53 95be 006d bfbd 9a82 483e
00000240: d890 813d d230 93be 9f3e 9bbe a5ad 413e
00000250: 6f1f 86be 8237 5cbd 4c8e e33d f01f 33be
00000260: 84c7 f6bd 4719 c0bd e876 31be 81a1 87be
00000270: d93e cfbe 3c5d b1be 9df6 e63e c936 343e
00000280: f388 d9bd dff3 81be c24e 7c3e 39d7 0f3d
00000290: 3c23 1b3e 9fd4 6b3e 6f79 1b3e 83df bfbe
000002a0: 6af8 cf37 6640 003e c25c 8ebd 5f7f 8ebe
000002b0: 604e 903f b466 67be 208e 89be 8b77 aebe
000002c0: 0f3f 28bd 6b8a e33d c059 ab3d 8812 993d
000002d0: f0c2 92be 4cb9 b4be 3f54 e0bc 5afa a63e
000002e0: 3aaf 753e 22cf a5be b63a 2b3f 7b80 a6be
000002f0: 6e58 4ebe 792d 233d d9f3 0c3e e70f 4b3e
00000300: 7dab b1be b86d d83d 907c 88be 89ec a23d
00000310: aa6a 6c3e c0ea ad3b 896b ac3e 1be3 a4be
00000320: f2d4 13be f58c b43d 30a5 a8bd bcfd 1bbe
00000330: 6ca2 86be d999 553e 6b17 f83d 18f3 573f
00000340: fd7f 59be 8716 9dbe e44f 673f f82d 5e3e
00000350: feb2 97be 5495 d8bd b6ef 1f3e 30a6 f63c
00000360: 00b3 8b3c b728 2d3f af92 02bf f30b d8be
00000370: 4402 39be 0dbd 44be 282a f13d 2857 e1bd
00000380: 6088 47be 49cb 823e 7283 3f3a 8815 5b3e
00000390: 698e bcbe 00b9 6abe c738 18bd 48ca 86be
000003a0: 459d 8ebe b212 0dbe af22 5dbe c189 aabe
000003b0: 90e2 283e 2f1d 863e 54e0 9a3c acc6 86bd
000003c0: 1540 b3be 2ef9 0cbe 29cb 543f b973 c03e
000003d0: 58b6 43bd 7215 44be 3ca0 c23d a83f afbe
000003e0: ffa9 0f3e 2abb 4cbe a3ef 92bd e376 18be
000003f0: d6bb 21be 50ec e9bd 4520 c43e 40fd 20bc

gnn1_layers.0.W2.weight f4 [64, 7]
-0.09693942 -0.341769 -0.19490027 -0.33095965 -0.08650491 0.05570049 -0.3541057 0.24103016
0.12356711 -0.464219 -0.2437626 0.89902174 -0.17980896 -0.04226306 -0.26932934 0.1835273
-0.21128146 0.31343713 0.024387121 0.075979084 0.29486212 -0.10060545 -0.20545657 -0.13115872
0.30927116 -0.28044486 0.085790545 -0.37146023 0.20794734 0.11391495 0.034400113 0.06418164
0.79391575 -0.09383485 -0.28623754 -0.13819322 0.089167565 0.26693094 0.19253185 -0.27484608
0.24644248 -0.08428541 -0.1228704 -0.34353557 -0.05949703 0.2673444 0.0527052 -0.22014691
0.11634204 -0.21637511 0.26425496 -0.328056 -0.11938971 -0.3649525 -0.14885381 0.1191524
0.32822645 -0.010990834 0.33743316 0.009023388 0.91565084 0.22951275 0.3299284 -0.2969568
0.25472525 0.15863338 -0.17672825 -0.18036592 -0.31701624 0.09492096 -0.34313452 0.13702972
0.08540933 -0.32837635 0.102995634 -0.030740052 0.17266086 0.07677262 -0.46420124 0.25525063
0.20710492 0.641256 -0.4059755 0.056508034 0.0031051275 -0.19048433 0.24575806 0.13741675
0.29941556 -0.14155644 0.12720004 0.0906675 -0.2671802 -0.38327736 -0.10520664 0.9932419
-0.3834282 -0.03292032 0.14334491 0.053964227 0.15724188 -0.35965785 -0.2766321 0.0984154
0.3064702 0.15362875 -0.021492684 0.0327948 0.30670768 -0.2438643 -0.17160033 0.26812416
-0.30705568 -0.20841436 0.22805353 0.11925614 0.122109026 -0.16019662 -0.005216092 0.27297398
-0.3025686 -0.08470242 0.14531097 -0.3906644 0.2625255 -0.17235965 0.012344417 -0.08371131
-0.5593291 -0.57504994 -0.41416284 0.009280124 -0.5951317 -0.2725815 0.3452508 0.08888239
0.15165624 -0.22613542 -0.16569814 -0.057055295 -0.12839103 -0.25899953 0.03113857 0.037565142
-0.04785824 0.052397907 -0.14980645 0.112392046 0.12656435 -0.27136102 -0.4393616 0.77434784
-0.057129383 -0.23085207 0.28208905 -0.24245769 0.17094874 0.14620724 0.3454664 0.11375894
-0.25735947 -0.2692355 -0.13020997 -0.25476563 0.3692372 -0.07581198 0.15012363 -0.33748898
0.1880047 -0.18945529 -0.3317412 -0.0066717607 0.85595214 0.23794149 -0.24227637 -0.24605294
0.016460199 0.042472064 0.14531687 0.2074553 -0.08570483 0.20998558 0.2599882 -0.0970612
0.28156176 0.07261985 1.0730224 -0.3228983 -0.18661697 -0.15630543 -0.09770667 0.16874245
-0.2157658 0.1892294 -0.13545543 0.16089468 -0.10525105 -0.3391545 -0.26618457 -0.27355254
0.5694931 -0.31349796 -0.07045011 0.0053601796 -0.26213238 0.0069003524 -0.36905333 -0.27043676
-0.34248245 -0.1143257 -0.5083419 -0.27326798 -0.2151155 0.07644141 0.88399935 0.57318
-0.14890572 -1.0418283 0.38386673 -0.18881126 0.19233719 0.25266352 0.14578864 0.35464814
0.3087652 -0.040732384 -0.38191086 0.27870378 -0.3358835 -0.24999474 0.23475584 0.28945273
-0.011347712 -0.020891435 -0.3851231 0.40466338 0.3044888 0.042514183 -0.0117570115 -0.11998622
-0.13182731 0.27929667 0.67322165 0.36634195 -0.013428671 0.13483302 0.037433445 -0.04176008
0.14922038 1.0295795 0.27118406 0.32050005 -0.018957151 -0.5078498 -0.005265196 -0.003298968
00000000: 2d88 c6bd 59fc aebe f093 47be 8b73 a9be
00000010: 7c29 b1bd 3226 643d 584d b5be 9cd0 763e
00000020: c110 fd3d 1dae edbe e79c 79be 4a26 663f
00000030: d71f 38be 081c 2dbd 89e5 89be 95ee 3b3e
00000040: 2b5a 58be d57a a03e 80c7 c73c ec9a 9b3d
00000050: 2bf8 963e 3b0a cebd 3563 52be 794e 06be
00000060: ca58 9e3e 7896 8fbe f4b2 af3d 0930 bebe
00000070: 26f0 543e 3e4c e93d 22e7 0c3d aa71 833d
00000080: 103e 4b3f 7c2c c0bd ba8d 92be 8682 0dbe
00000090: 7c9d b63d 2cab 883e 1227 453e a0b8 8cbe
000000a0: 6b5b 7c3e d49d acbd 7aa3 fbbd e5e3 afbe
000000b0: 28b3 73bd 5de1 883e 68e1 573d 316e 61be
000000c0: bc44 ee3d 7091 5dbe 6d4c 873e f5f6 a7be
000000d0: 9882 f4bd 0edb babe 226d 18be 2c06 f43d
000000e0: 4c0d a83e e612 34bc 0ac4 ac3e d5d6 133c
000000f0: 1868 6a3f 6405 6b3e 60ec a83e b90a 98be
00000100: 596b 823e ca70 223e 40f8 34be d8b1 38be
00000110: f44f a2be ec65 c23d 54af afbe 8551 0c3e
00000120: 16eb ae3d f220 a8be 60ef d23d 90d2 fbbc
00000130: 02ce 303e f73a 9d3d c9ab edbe 36b0 823e
00000140: 5013 543e 5a29 243f 05dc cfbe f874 673d
00000150: 657f 4b3b 530e 43be 00a8 7b3e fab6 0c3e
00000160: ff4c 993e 2cf4 10be ba40 023e e2af b93d
00000170: d8cb 88be ee3c c4be 9476 d7bd 1a45 7e3f
00000180: b350 c4be 75d7 06bd 02c9 123e 9809 5d3d
00000190: 0404 213e 1325 b8be b9a2 8dbe 038e c93d
000001a0: a9e9 9c3e db50 1d3e 6d11 b0bc d753 063d
000001b0: ca08 9d3e 90b7 79be ffb7 2fbe 9247 893e
000001c0: 6736 9dbe 936a 55be dd86 693e 903c f43d
000001d0: 4c14 fa3d 950a 24be c0eb aabb 3fc3 8b3e
000001e0: 46ea 9abe 7678 adbd 66cc 143e 2a05 c8be
000001f0: be69 863e 0c7f 30be 3d40 4a3c d670 abbd
00000200: 3130 0fbf 7936 13bf 270d d4be a90b 183c
00000210: 8d5a 18bf cd8f 8bbe b6c4 b03e f807 b63d
00000220: c64b 1b3e 0b90 67be c6ac 29be d0b2 69bd
00000230: f078 03be 969b 84be 5016 ff3c e8dd 193d
00000240: 0007 44bd 309f 563d dd66 19be cd2d e63d
00000250: 169a 013e d5ef 8abe 01f4 e0be a93b 463f
00000260: 8000 6abd 7c64 6cbe fa6d 903e d446 78be
00000270: 300d 2f3e 5ab7 153e f9e0 b03e 72fa e83d
00000280: 9fc4 83be 3cd9 89be c355 05be a470 82be
00000290: a90c bd3e 5043 9bbd 02ba 193e 5bcb acbe
000002a0: 4e84 403e 9100 42be fcd9 a9be c99e dabb
000002b0: ae1f 5b3f efa6 733e 4c17 78be 4df5 7bbe
000002c0: 8ad7 863c 30f7 2d3d f2cd 143e 2a6f 543e
000002d0: 0486 afbd 7606 573e 2c1d 853e 06c8 c6bd
000002e0: dd28 903e b7b9 943d cc58 893f ed52 a5be
000002f0: 8518 3fbe 880e 20be 6f1a c8bd d2ca 2c3e
00000300: b6f1 5cbe 5ac5 413e d4b4 0abe 93c1 243e
00000310: dd8d d7bd a9a5 adbe 5849 88be 140f 8cbe
00000320: 4dca 113f ce82 a0be 2648 90bd 72a4 af3b
00000330: 3736 86be 5a1c e23b 8ff4 bcbe b076 8abe
00000340: dc59 afbe 9823 eabd b222 02bf c8e9 8bbe
00000350: 3d47 5cbe 508d 9c3d c84d 623f edbb 123f
00000360: be7a 18be a15a 85bf 2e8a c43e bd57 41be
00000370: 0af4 443e 1d5d 813e 9e49 153e 7194 b53e
00000380: 7916 9e3e 00d7 26bd d289 c3be 43b2 8e3e
00000390: ecf8 abbe 9ffe 7fbe d663 703e 2633 943e
000003a0: c1eb 39bc 8424 abbc db2e c5be 0a30 cf3e
000003b0: f5e5 9b3e 5a23 2e3d 7ba0 40bc 56bb f5bd
000003c0: bdfd 06be f9ff 8e3e 4158 2c3f 2c91 bb3e
000003d0: ee03 5cbc ab11 0a3e d053 193d 9e0c 2bbd
000003e0: 3acd 183e 43c9 833f a3d8 8a3e 9518 a43e
000003f0: 074c 9bbc 7202 02bf aa87 acbb 8033 58bb

gnn1_layers.1.W1.weight f4 [64, 64]
-0.11623339 0.021298122 0.019139336 0.029132752 0.071499474 -0.07779773 -0.17681876 0.090056404
0.07051198 -0.17361468 0.0021216113 0.118251584 -0.0336035 -0.062093936 0.102936275 0.084961854
0.08248892 -0.072134756 -0.15842237 -0.14214765 0.059538443 -0.056150712 0.084894694 -0.006478903
0.038052227 -0.049713753 0.048600893 -0.08690038 -0.087059006 -0.028496072 1.0662382 0.89238006
0.045884814 -0.046324067 0.1294391 0.075099014 0.025059182 -0.041825674 -0.09045191 -0.04667125
-0.1089433 0.06368259 -0.15208875 0.029434215 0.14509971 0.03875788 0.07817247 -0.11853014
0.13819975 -0.017817704 -0.38496768 0.1476945 -0.1008654 -0.09307794 0.16120626 -0.14848612
-0.07835652 -0.016705748 -0.01860039 0.005390931 -0.21395916 0.009606278 -0.04422357 -0.12109991
-0.16572575 0.002918522 0.0010724745 -0.17341958 0.029526629 -0.04791026 -0.03238423 -0.14790452
-0.07343178 0.10457447 0.03778847 -0.19024333 0.022159556 -0.052216705 -0.0075321123 0.04475114
0.022774676 -0.16276993 0.026809964 -0.10451898 -0.049149465 -0.1561106 -0.09552011 0.017224332
-0.079830624 -0.039643995 -0.08379127 0.03513726 0.013466034 0.004051506 -0.013333279 0.018749302
-0.07180876 -0.05517508 -0.023829198 -0.20233533 -0.15015016 -0.046879705 -0.11556782 -0.054823264
-0.12007451 -0.06515042 0.043069147 -0.12767826 0.01314392 0.009743076 -0.16892524 -0.15624163
-0.16748388 -0.13604106 -0.086799696 -0.09815954 -0.052273404 -0.10344396 -0.119567335 -0.06922939
0.054178324 -0.13538817 -0.15821576 -0.0401199 -0.044904243 0.030696204 0.009147819 0.06820151
-0.5043352 0.13480027 0.18410873 -0.034850627 0.13665278 0.14458805 -0.020746889 0.6985972
-0.006771741 -0.048648693 0.095724404 0.09312828 -0.08192258 0.07788099 -0.03852221 0.20210417
0.16424768 0.07533054 -0.38248974 0.09875342 -0.18426333 0.050600007 0.079024896 0.6154724
-0.016490065 0.0065537198 0.06871956 0.06598 0.16717999 0.011171106 1.5841383 1.9823514
0.02228998 0.11625618 0.0024772086 -0.04861534 -0.09748153 0.04662973 0.07774473 -0.015122483
-0.14347765 -0.03586012 0.036219668 0.08519018 0.20238347 -0.07186565 -0.296522 0.107324384
-0.03415804 0.07627443 -0.58497745 -0.0054377606 -0.025758302 0.17785129 0.2368467 -0.07886798
-0.15225023 0.06814867 -0.1067332 0.050540753 -0.1490813 0.008024098 0.10069302 -0.13521235
0.02657228 0.04651175 0.008878268 -0.03886862 -0.018886458 -0.15049848 -0.09128913 -0.07198843
-0.12961577 -0.1523825 0.024022112 0.024775576 -0.17357853 -0.020278584 -0.0092047965 0.058691017
0.012264135 0.054862037 -0.10096232 0.027493214 0.10167517 -0.17809603 -0.16039334 -0.034754347
0.008199653 -0.12215665 -0.046288244 -0.060236502 -0.028416615 -0.12722369 0.070504874 0.08312617
-0.14678729 -0.058844116 -0.059708204 -0.019915605 0.05639308 -0.023397144 -0.08845777 0.05221179
-0.107621625 -0.0963515 -0.051520634 -0.15524359 -0.04645288 -0.14486445 0.012852557 -0.048079107
-0.042752452 -0.16546695 -0.17877804 -0.0025403984 0.047144443 -0.17097655 -0.013755782 -0.1520702
0.067816645 0.05623968 0.03477235 -0.15144747 0.017266404 0.0052345777 -0.060246784 0.061035957
00000000: c60b eebd 6679 ae3c 19ca 9c3c cfa7 ee3c
00000010: 516e 923d 6b54 9fbd fa0f 35be 7e6f b83d
00000020: 9668 903d 0cc8 31be bb0a 0b3b e32d f23d
00000030: d3a3 09bd 3656 7ebd 41d0 d23d 7b00 ae3d
00000040: f3ef a83d 63bb 93bd 7939 22be 278f 11be
00000050: 95de 733d 4afe 65bd 45dd ad3d fa4c d4bb
00000060: a7dc 1b3d a6a0 4bbd bb11 473d d4f8 b1bd
00000070: fe4b b2bd 9870 e9bc 7e7a 883f 0573 643f
00000080: b7f1 3b3d 4ebe 3dbd af8b 043e 83cd 993d
00000090: ea48 cd3c 6651 2bbd da3e b9bd 5a2a 3fbd
000000a0: aa1d dfbd 056c 823d 27bd 1bbe 0620 f13c
000000b0: 0595 143e 95c0 1e3d e318 a03d eebf f2bd
000000c0: 3c84 0d3e 6ff6 91bc 7c1a c5be 3a3d 173e
000000d0: 8592 cebd a69f bebd 4113 253e bf0c 18be
000000e0: 6279 a0bd 7eda 88bc d85f 98bc 68a6 b03b
000000f0: 1c18 5bbe a663 1d3c c623 35bd 3b03 f8bd
00000100: 03b4 29be ad44 3f3b 4692 8c3a e794 31be
00000110: d4e1 f13c 8c3d 44bd 54a5 04bd 4874 17be
00000120: 6763 96bd 242b d63d 15c8 1a3d 26cf 42be
00000130: f587 b53c 2fe1 55bd f0cf f6bb f94c 373d
00000140: f591 ba3c 29ad 26be 92a0 db3c 0c0e d6bd
00000150: f350 49bd 75db 1fbe 0ca0 c3bd 0b1a 8d3c
00000160: 3d7e a3bd be61 22bd c29a abbd 16ec 0f3d
00000170: a4a0 5c3c 7fc2 843b d373 5abc 2398 993c
00000180: 7910 93bd 44ff 61bd 7335 c3bc fe30 4fbe
00000190: f7c0 19be ef04 40bd d2ae ecbd 5c8e 60bd
000001a0: a0e9 f5bd 956d 85bd 4669 303d 17be 02be
000001b0: 9959 573c 6ca1 1f3c bdfa 2cbe cefd 1fbe
000001c0: e580 2bbe 594e 0bbe 0ac4 b1bd de07 c9bd
000001d0: a31c 56bd 6dda d3bd b8df f4bd 23c8 8dbd
000001e0: 17ea 5d3d 32a3 0abe 5003 22be c454 24bd
000001f0: 83ed 37bd 9b76 fb3c bce0 153c 3cad 8b3d
00000200: 1d1c 01bf 1509 0a3e 0087 3c3e 88bf 0ebd
00000210: b5ee 0b3e e40e 143e 61f5 a9bc 44d7 323f
00000220: 7be5 ddbb da43 47bd 280b c43d 0aba be3d
00000230: 07c7 a7bd 1280 9f3d 77c9 1dbd 65f4 4e3e
00000240: 8b30 283e e646 9a3d b2d5 c3be 3c3f ca3d
00000250: 87af 3cbe f441 4f3d ced7 a13d 998f 1d3f
00000260: 2c16 87bc 96c0 d63b d7bc 8c3d 8620 873d
00000270: 3b31 2b3e 0407 373c 0bc5 ca3f b1bd fd3f
00000280: 7a99 b63c b817 ee3d aa58 223b e120 47bd
00000290: 65a4 c7bd d1fe 3e3d a138 9f3d 4ac4 77bc
000002a0: ceeb 12be 10e2 12bd 135b 143d 3078 ae3d
000002b0: 9d3d 4f3e 4c2e 93bd bbd1 97be e3cc db3d
000002c0: 4de9 0bbd c535 9c3d 15c1 15bf 3e2f b2bb
000002d0: 1303 d3bc a61e 363e f187 723e 8985 a1bd
000002e0: 7ce7 1bbe 8891 8b3d f096 dabd d203 4f3d
000002f0: c5a8 18be 8277 033c 2438 ce3d 1b75 0abe
00000300: 1cae d93c 1b83 3e3d 2876 113c b434 1fbd
00000310: c6b7 9abc 461c 1abe ccf5 babd ac6e 93bd
00000320: ffb9 04be 280a 1cbe 05ca c43c 26f6 ca3c
00000330: 92be 31be 461f a6bc b7cf 16bc fe65 703d
00000340: 83ef 483c 04b7 603d 55c5 cebd 7339 e13c
00000350: 123b d03d ce5e 36be 273e 24be 935a 0ebd
00000360: d657 063c 442d fabd be98 3dbd 8dba 76bd
00000370: f6c9 e8bc ed46 02be dc64 903d 0e3e aa3d
00000380: 684f 16be 8706 71bd 9790 74bd 0d26 a3bc
00000390: 6efc 663d 5eab bfbc 5929 b5bd 08dc 553d
000003a0: ba68 dcbd ef53 c5bd 4d07 53bd 2df8 1ebe
000003b0: 6045 3ebd 5957 14be 8893 523c 99ee 44bd
000003c0: 321d 2fbd 2b70 29be 9711 37be d07c 26bb
000003d0: 881a 413d 7a14 2fbe ee5f 61bc 4ab8 1bbe
000003e0: 74e3 8a3d 945b 663d 746d 0e3d 0c15 1bbe
000003f0: 4672 8d3c d286 ab3b 55c5 76bd d700 7a3d

gnn1_layers.1.W2.weight f4 [64, 64]
-0.14626764 0.03332318 0.0052747093 -0.016848298 -0.065671325 -0.0337039 -0.13939007 -0.053726446
0.056891363 0.0037598084 0.018641135 0.013975461 -0.031037102 0.014899186 0.0707774 -0.053202502
0.018286495 0.08546002 -0.14653727 -0.09126199 0.024636075 -0.08327632 0.079188146 0.14580125
0.013167376 0.027727874 -0.1159764 -0.07260341 -0.018203067 -0.09549369 -0.08676894 0.05978037
-0.0016944977 0.1276609 -0.0778347 0.050846614 0.05557896 0.14386651 -0.035429623 -0.17055994
-0.07183973 0.06829426 -0.0029583678 0.08816602 -0.0777833 -0.09988023 -0.21184368 0.03925668
-0.061870497 0.12207695 -0.11580358 -0.08103316 0.0013290865 -0.11537648 -0.008812528 -0.13260034
-0.47763038 0.02678785 0.08692049 -0.09491726 -0.06655868 0.12451412 -0.05082292 -0.10429602
-0.07265119 -0.17905343 -0.17791787 0.028012903 -0.04566213 -0.03429101 -0.001688342 -0.013587353
0.018512852 0.0031118968 -0.044163343 0.03431052 -0.012603229 -0.07877748 -0.060568813 -0.12625423
-0.1485586 0.059333287 -0.18584222 -0.16355321 -0.18551508 -0.1671993 -0.03305725 -0.021989161
-0.168747 -0.07425782 -0.15882707 -0.07052607 0.023006951 -0.10726 -0.12157749 0.0020260913
-0.14858769 -0.09327712 -0.15143162 0.020063026 -0.0072932686 -0.117732316 0.017981788 0.067654274
-0.044055045 -0.1485599 -0.11511361 0.0090649305 0.04091707 -0.1096555 0.0069597247 -0.17256977
-0.031741142 0.040453717 -0.06456501 -0.15441976 -0.0482733 -0.015702412 0.073233254 -0.1669442
-0.09015685 -0.09937358 -0.088733956 -0.09093664 -0.1337968 -0.026724478 -0.007445868 -0.06988153
-0.5583849 0.060057107 0.08747466 0.00472267 -0.007565693 0.081048876 -0.13510513 0.14856856
-0.011600196 0.004755087 -0.08009555 0.017881462 0.09091304 0.14534923 -0.052558407 0.038463503
0.14571027 -0.009665927 -0.17032376 0.024077972 0.029880598 0.05403014 -0.020454075 0.14404202
-0.059175037 0.13565342 -0.0036896947 0.15888196 -0.01394573 -0.027756622 0.17193754 0.10936861
0.05973685 -0.059984118 -0.030914275 -0.012025887 -0.22831336 0.10920782 0.14862145 0.2386078
-0.05103494 0.16505493 0.103769414 0.12115075 -0.07988717 -0.094968356 -0.28015545 0.1425825
0.13971558 0.066282086 -0.59157443 -0.023916462 -0.039852973 0.048014086 -0.06693648 0.036829125
-0.6828713 0.123428434 0.13866875 -0.039680395 -0.20246866 0.01573533 0.0866559 0.048647776
0.025510073 0.024522055 0.041086107 0.03807628 -0.17405863 -0.1417216 -0.008172959 -0.060511168
-0.04951733 0.044956185 0.053161528 -0.09662764 -0.11784215 -0.049930494 -0.044238884 0.017034853
-0.015645906 -0.02110363 -0.019018115 0.033011112 0.07444514 -0.072350204 -0.14727712 0.024231907
-0.070246145 -0.14960653 -0.080886856 0.031919908 -0.1175127 -0.07210794 0.04216902 0.08988465
-0.07876309 -0.14984114 -0.112308905 -0.1004042 0.013636246 -0.14492926 0.05008549 -0.027100125
-0.15010129 0.008207513 -0.053746916 0.06224614 -0.06256689 -0.06170349 -0.06058668 -0.16330378
-0.059617903 0.046024535 -0.13735524 -0.035581008 -0.1461984 -0.15693705 -0.10601746 -0.14373998
-0.10342391 -0.09842302 -0.077134155 0.0021785246 -0.0025849226 -0.061695803 -0.08860499 -0.026555926
00000000: 2fc7 15be e37d 083d 78d7 ac3b 7105 8abc
00000010: b07e 86bd 1a0d 0abd 45bc 0ebe 4310 5cbd
00000020: eb06 693d 1e67 763b 4bb5 983c 55f9 643c
00000030: 8541 febc b71b 743c bef3 903d deea 59bd
00000040: 8fcd 953c aa05 af3d de0d 16be 91e7 babd
00000050: 98d1 c93c c68c aabd 652d a23d ec4c 153e
00000060: fabb 573c 9125 e33c 0985 edbd 19b1 94bd
00000070: 991e 95bc 3292 c3bd eab3 b1bd 43dc 743d
00000080: e819 deba 8ab9 023e cd67 9fbd 8a44 503d
00000090: c3a6 633d be51 133e a71e 11bd 44a7 2ebe
000000a0: b520 93bd dcdd 8b3d 2de1 41bb 6390 b43d
000000b0: da4c 9fbd 028e ccbd 8ded 58be 9dcb 203d
000000c0: eb6b 7dbd 7b03 fa3d 6d2a edbd b7f4 a5bd
000000d0: be34 ae3a 814a ecbd 6c62 10bc 62c8 07be
000000e0: f88b f4be 3172 db3c 5f03 b23d fb63 c2bd
000000f0: eb4f 88bd 4201 ff3d b22b 50bd 2799 d5bd
00000100: 26ca 94bd c859 37be 1a30 36be 517b e53c
00000110: 3708 3bbd bb74 0cbd 5b4b ddba 7d9d 5ebc
00000120: 44a8 973c f7f0 4b3b 9fe4 34bd 3089 0c3d
00000130: c67d 4ebc 1656 a1bd 0117 78bd ca48 01be
00000140: bf1f 18be 7607 733d 6c4d 3ebe 7e7a 27be
00000150: aaf7 3dbe 4b36 2bbe 0a67 07bd 9d22 b4bc
00000160: 03cc 2cbe 7c14 98bd 90a3 22be f96f 90bd
00000170: 1379 bc3c 22ab dbbd 9efd f8bd 2cc8 043b
00000180: 5f27 18be 1308 bfbd e410 1bbe 375b a43c
00000190: 5ffc eebb a41d f1bd 8b4e 933c 538e 8a3d
000001a0: 1073 34bd 1620 18be afc0 ebbd 1385 143c
000001b0: a898 273d 1093 e0bd 670e e43b 21b6 30be
000001c0: 0003 02bd ccb2 253d a93a 84bd 3720 1ebe
000001d0: 39ba 45bd 58a2 80bc 51fb 953d 6cf3 2abe
000001e0: 28a4 b8bd 6084 cbbd 26ba b5bd fd3c babd
000001f0: 0702 09be 4bed dabc 78fc f3bb 0c1e 8fbd
00000200: 50f2 0ebf 71fe 753d ea25 b33d a1c0 9a3b
00000210: a2e9 f7bb f4fc a53d 0059 0abe 5b22 183e
00000220: c00e 3ebc 90d0 9b3b 2309 a4bd 257c 923c
00000230: 9e30 ba3d 6ed6 143e 7c47 57bd e88b 1d3d
00000240: 1335 153e d65d 1ebc 5a69 2ebe 2b3f c53c
00000250: 28c8 f43c b54e 5d3d 4e8f a7bc c07f 133e
00000260: 8661 72bd bbe8 0a3e cece 71bb f4b1 223e
00000270: a27c 64bc db61 e3bc 6510 303e a6fc df3d
00000280: a1ae 743d e8b1 75bd ef3f fdbc 3a08 45bc
00000290: faca 69be 59a8 df3d 3930 183e 9a55 743e
000002a0: 030a 51bd 2904 293e 0f85 d43d e21d f83d
000002b0: e29b a3bd c57e c2bd 8970 8fbe 2601 123e
000002c0: 9a11 0f3e e7be 873d 6c71 17bf 75ec c3bc
000002d0: df3c 23bd 6baa 443d fe15 89bd 23da 163d
000002e0: a7d0 2ebf 0cc8 fc3d 2eff 0d3e e987 22bd
000002f0: f253 4fbe 61e7 803c a678 b13d e442 473d
00000300: 80fa d03c 7ae2 c83c e849 283d e0f5 1b3d
00000310: 6d3c 32be 781f 11be e0e7 05bc 8fda 77bd
00000320: afd2 4abd fa23 383d e7bf 593d b6e4 c5bd
00000330: 3a57 f1bd eb83 4cbd d533 35bd ad8c 8b3c
00000340: d82b 80bc 85e1 acbc e1cb 9bbc a936 073d
00000350: b276 983d 582c 94bd d0cf 16be fe81 c63c
00000360: 36dd 8fbd 7432 19be 02a8 a5bd 73be 023d
00000370: 80aa f0bd 54ad 93bd 6cb9 2c3d 7215 b83d
00000380: 8b4e a1bd f56f 19be 3602 e6bd b8a0 cdbd
00000390: 906a 5f3c 5668 14be 7126 4d3d 1501 debc
000003a0: 27b4 19be ce78 063c ba25 5cbd cff5 7e3d
000003b0: 1223 80bd ccbc 7cbd bd29 78bd 1b39 27be
000003c0: e731 74bd 3984 3c3d daa6 0cbe 64bd 11bd
000003d0: 09b5 15be 1bb4 20be af1f d9bd 9330 13be
000003e0: eacf d3bd 0292 c9bd 83f8 9dbd 94c5 0e3b
000003f0: ce67 29bb bdb4 7cbd 8876 b5bd d08b d9bc

gnn1_layers.2.W1.weight f4 [64, 64]
-0.09548888 -0.027394364 -0.052685328 0.14961344 -0.05484103 -0.037848517 -0.14887068 -0.15191022
-0.06030876 -0.012042314 -0.012365712 -0.026194872 -0.05266181 -0.0023822784 -0.11324078 0.16625127
0.1805314 -0.0007125288 -0.032185387 0.02314286 0.18233739 0.004715177 0.039228857 -0.14512835
-0.00883496 0.11768136 -0.1689358 0.102330424 0.082645185 0.05544606 0.011314564 -0.03272669
-0.02069256 -0.028730307 0.07524237 -0.10517061 -0.19432871 -0.15088616 -0.12010661 -0.06420362
0.08202982 -0.016469225 0.13934581 0.039629407 0.166045 0.028774083 0.13897444 0.046483055
-0.02413983 0.1224933 -0.161881 -0.1256892 -0.075537935 0.027060019 0.0542908 0.06787428
-0.16131012 0.12068839 0.14330174 0.12001947 -0.16934003 0.12956685 0.09385374 0.03997832
-0.15205881 0.08978027 -0.137304 -0.04105327 0.15653421 0.089130305 0.021048365 0.02637074
-0.0037256354 -0.06554923 -0.06784833 0.058079183 -0.029945359 -0.10441092 -0.08637884 -0.078060165
0.031987105 0.09140417 0.019517202 0.0890673 0.07957572 -0.08048433 0.15732802 0.02988765
-0.116300896 -0.023219181 -0.17022891 -0.016023388 0.10301199 -0.040404595 -0.09665515 0.09485028
-0.11720856 0.07890209 0.08534621 0.11941976 -0.08361344 -0.10505446 0.0006505497 0.019255443
-0.030631527 -0.00028328598 -0.024395335 -0.07474361 -0.052573405 -0.14829324 0.16722266 -0.09037379
0.15185037 0.13760765 -0.05285755 -0.09634268 0.0041502416 0.011365777 -0.0741625 0.12675646
-0.05485355 -0.019217893 -0.070883594 0.049761027 -0.024039809 0.13787042 0.008729651 0.12152825
-0.21937507 0.06635971 -0.06472535 -0.02155222 0.048997357 -0.05567795 -0.12193161 -0.24548511
-0.29453433 0.12599495 -0.20200635 -0.09939143 -0.091377676 0.12121223 -0.017482027 -0.10518466
-0.018018737 -0.060934305 -0.28602442 -0.061168432 0.09467815 0.05042161 0.073036045 0.010316864
-0.0522594 -0.05101651 0.0053097126 -0.090309605 -0.107775256 0.022207335 0.0655911 0.10200462
-0.0031744242 -0.018214166 -0.010390222 0.049249932 -0.019799247 -0.19328229 -0.034442157 -0.12210691
-0.09626526 -0.053505316 0.012110829 -0.07851118 0.047873154 -0.06836426 0.120938316 -0.37450537
0.06969991 -0.064901784 -0.0443217 -0.11671735 -0.11584918 -0.118297264 -0.0024008602 0.11513409
0.057314336 0.0782686 0.033183705 -0.048296258 -0.11161957 -0.03713201 -0.11678591 0.06870937
-0.058587234 -0.005112659 0.027041564 0.060058232 0.12803482 -0.017090373 0.13268565 -0.07504533
0.019772448 0.15584342 -0.0312855 -0.044050697 -0.12074018 0.071653344 -0.11703335 0.033637293
0.15686108 -0.09722562 0.08222688 0.06803696 0.1236771 0.07171274 0.09351982 0.10102664
-0.13070735 0.08707607 -0.07754635 0.17191333 0.1622044 -0.04152965 0.046477553 0.03876922
0.04990472 0.037845306 -0.073148966 0.11200534 0.10616568 0.08961404 0.011880663 -0.021808952
0.03193593 0.0075237453 0.15390761 0.11133117 0.16758357 0.035609208 -0.034705438 -0.0525073
0.17295004 0.17200577 0.06189077 -0.10774521 0.1448079 0.118301466 -0.09863065 0.11013655
0.086650304 -0.022505872 0.12201149 0.08844058 -0.064106874 0.15969309 0.17392276 0.17639521
00000000: ad8f c3bd 256a e0bc 92cc 57bd 4434 193e
00000010: fda0 60bd 0c07 1bbd 8e71 18be 5a8e 1bbe
00000020: 5106 77bd 204d 45bc 8e99 4abc a196 d6bc
00000030: e9b3 57bd 0020 1cbb c8ea e7bd c63d 2a3e
00000040: 39dd 383e 00c9 3aba d3d4 03bd 1896 bd3c
00000050: a7b6 3a3e c681 9a3b 70ae 203d 879c 14be
00000060: 82c0 10bc ed02 f13d 82fd 2cbe 9d92 d13d
00000070: e141 a93d 681b 633d b960 393c 6c0c 06bd
00000080: 7283 a9bc d25b ebbc ac18 9a3d b063 d7bd
00000090: 1bfe 46be e781 1abe 74fa f5bd 307d 83bd
000000a0: 40ff a73d 78ea 86bc abb0 0e3e 7252 223d
000000b0: b307 2a3e a0b7 eb3c 514f 0e3e 0465 3e3d
000000c0: e5c0 c5bc c4dd fa3d 22c4 25be abb4 00be
000000d0: a2b3 9abd f9ac dd3c 0860 5e3d ac01 8b3d
000000e0: 7b2e 25be 7a2b f73d b1bd 123e c5cc f53d
000000f0: 7967 2dbe 2cad 043e 6436 c03d 4fc0 233d
00000100: 4eb5 1bbe b8de b73d 6b99 0cbe 7927 28bd
00000110: 814a 203e f389 b63d 9f6d ac3c 7307 d83c
00000120: ca29 74bb ad3e 86bd 11f4 8abd 70e4 6d3d
00000130: f84f f5bc 64d5 d5bd 64e7 b0bd 02de 9fbd
00000140: e904 033d 1c32 bb3d 8ae2 9f3c eb68 b63d
00000150: 98f8 a23d f8d4 a4bd 991a 213e f2d6 f43c
00000160: 2a2f eebd 2736 bebc 7d50 2ebe 7b43 83bc
00000170: f3f7 d23d 4a7f 25bd 23f3 c5bd dd40 c23d
00000180: 0b0b f0bd 6b97 a13d fec9 ae3d 5992 f43d
00000190: 863d abbd cb26 d7bd a789 2a3a 97bd 9d3c
000001a0: f8ee fabc 0086 94b9 bad8 c7bc 2e13 99bd
000001b0: 3657 57bd 2fda 17be 6b3c 2b3e e515 b9bd
000001c0: aa7e 1b3e 05e9 0c3e 2981 58bd 504f c5bd
000001d0: c0fe 873b 8637 3a3c 82e2 97bd 72cc 013e
000001e0: 1eae 60bd d86e 9dbc 6b2b 91bd 38d2 4b3d
000001f0: 22ef c4bc e72d 0d3e cf06 0f3c cee3 f83d
00000200: dca3 60be 9ae7 873d b98e 84bd 488e b0bc
00000210: 74b1 483d 900e 64bd 48b7 f9bd 7360 7bbe
00000220: 34cd 96be d204 013e c1da 4ebe bc8d cbbd
00000230: 3824 bbbd 1e3e f83d 7836 8fbc 0e6b d7bd
00000240: 089c 93bc 4096 79bd cb71 92be c08b 7abd
00000250: 9ee6 c13d e486 4e3d ec93 953d 1008 293c
00000260: f40d 56bd b0f6 50bd 19fd ad3b 3ef4 b8bd
00000270: 46b9 dcbd 28ec b53c a054 863d cce7 d03d
00000280: 000a 50bb e035 95bc c03b 2abc 4cba 493d
00000290: 0832 a2bc cbeb 45be 3813 0dbd 3013 fabd
000002a0: b826 c5bd 6428 5bbd 806c 463c 78ca a0bd
000002b0: a416 443d 9002 8cbd 82ae f73d 2bbf bfbe
000002c0: d4be 8e3d 3aeb 84bd ac8a 35bd 8209 efbd
000002d0: 5642 edbd d645 f2bd c057 1dbb 6ccb eb3d
000002e0: 70c2 6a3d 4a4b a03d a3eb 073d 4cd2 45bd
000002f0: cd98 e4bd bc17 18bd 742d efbd 80b7 8c3d
00000300: 2bf9 6fbd 1888 a7bb 4586 dd3c 9fff 753d
00000310: 8f1b 033e 1c01 8cbc bfde 073e 5eb1 99bd
00000320: d4f9 a13c 6b95 1f3e 3925 00bd 816e 34bd
00000330: a146 f7bd fdbe 923d 2eaf efbd 42c7 093d
00000340: 31a0 203e 3a1e c7bd 9166 a83d f656 8b3d
00000350: 6b4a fd3d 21de 923d 5287 bf3d 0ee7 ce3d
00000360: 26d8 05be f054 b23d 9fd0 9ebd 0c0a 303e
00000370: e918 263e ff1a 2abd 3f5f 3e3d 79cc 1e3d
00000380: e468 4c3d ae03 1b3d 20cf 95bd 0e63 e53d
00000390: 646d d93d 9187 b73d 1da7 423c b0a8 b2bc
000003a0: 40cf 023d c089 f63b f599 1d3e 9901 e43d
000003b0: 079b 2b3e f6da 113d 4a27 0ebd e511 57bd
000003c0: d119 313e 4822 303e 2d81 7d3d 85a9 dcbd
000003d0: 8648 143e 0a48 f23d defe c9bd 468f e13d
000003e0: b775 b13d 3c5e b8bc 29e1 f93d 5620 b53d
000003f0: 774a 83bd 9686 233e cf18 323e f2a0 343e

gnn1_layers.2.W2.weight f4 [64, 64]
-0.01797361 -0.047130447 -0.16682196 -0.055516575 0.0654456 -0.03204391 -0.12455643 -0.023397665
-0.053015504 -0.13287933 -0.025566893 -0.008949651 -0.10821178 -0.044579774 0.02207245 0.08352743
0.10325883 0.08512543 -0.06301175 0.04152535 -0.016652228 -0.0077286162 0.15265104 -0.20847227
-0.12213762 -0.047998276 0.041828863 0.04255234 0.16958211 -0.14256601 -0.080261864 0.14050964
-0.1617691 -0.063756466 -0.083708376 0.002126813 -0.15805833 -0.03456096 0.055358697 -0.0788069
-0.022008896 -0.11000717 0.032897115 0.07039326 0.08564333 -0.108876966 -0.016332759 -0.039512288
0.14624493 -0.007951529 -0.031658456 -0.059893835 -0.050262466 0.05461076 0.09448458 0.1413128
-0.07949058 -0.025142044 -0.044269938 -0.0010925366 -0.067964084 0.15267964 0.076436184 -0.06020352
-0.064656354 -0.13679959 -0.007787665 0.07162794 0.028328463 0.0992219 -0.13983795 -0.095698856
-0.04752947 0.0318485 0.061662037 -0.0495952 -0.1698405 0.023091555 -0.07049276 0.12736335
0.0077666175 -0.03401856 -0.07696837 0.10554055 0.076577626 -0.10497853 0.047022533 -0.0025704445
-0.06027525 0.10155158 -0.17555194 -0.049489025 0.096967496 0.06053797 0.0048956624 -0.010762603
0.015159074 -0.043640558 -0.100158155 -0.024804508 -0.03048145 -0.0317534 -0.03923696 0.10258141
-0.008869231 0.114990145 -0.053945355 -0.12440564 0.07626077 0.018958813 0.097157605 0.096342385
-0.006923248 0.17703691 0.022399992 -0.0050396086 -0.056675024 -0.040393844 0.06686987 0.048916765
0.03883267 0.15204386 -0.0804155 0.14753431 -0.06526449 -0.062120188 0.15245233 0.0018005859
-0.14210595 0.01876223 -0.12456024 0.079267815 0.047398552 0.100685716 -0.21891236 -0.19485591
-0.047890265 -0.10058382 -0.16660447 -0.10166514 0.11210576 -0.06574094 -0.011293337 0.0031717718
-0.05430363 0.07426736 -0.20412637 -0.016814306 -0.08094984 0.0741241 -0.09100008 0.098965436
-0.10811336 -0.12493031 -0.016472995 -0.12305787 0.11643936 0.11676276 -0.05708222 0.09343475
-0.048073873 0.030578807 -0.08761354 -0.008462384 -0.038166225 -0.044553127 0.040184125 -0.11667405
0.008446261 0.09679483 0.10070163 0.05659525 0.0028944463 0.085761026 0.06633304 -0.21953568
-0.007130459 -0.11579968 0.008801252 0.009492502 -0.08229487 0.029852524 0.08644253 -0.10636097
-0.111349136 -0.06108354 0.026027337 -0.12132107 -0.1560529 0.09597708 -0.10316849 -0.03338948
-0.04911279 0.14603199 -0.05658009 0.15494753 -0.0025947767 0.11487467 -0.02855106 0.07812052
-0.08587487 0.015887348 0.088767715 -0.044299547 0.03653682 0.010825039 -0.010856152 0.18896894
-0.043547604 -0.069953114 -0.09636382 0.10737993 0.19798233 -0.062263735 0.014052261 -0.06320373
-0.09384693 0.09784457 -0.019716565 -0.040664427 -0.0067722993 -0.058244966 -0.015700422 -0.04288867
-0.11354836 -0.030706147 0.100824594 0.1508063 -0.025230538 -0.0088896165 -0.044433735 -0.025905387
0.05828516 -0.08407913 0.026886106 0.15346862 -0.04629992 0.1963539 0.14262508 0.079685815
0.044375364 0.011432645 -0.054413244 -0.103394814 -0.06837946 0.053332344 0.024851978 -0.045219317
0.089396805 -0.029259346 0.072119795 0.0139558185 0.093794495 0.030489072 0.09632624 0.09773056
00000000: 643d 93bc db0b 41bd 60d3 2abe 5965 63bd
00000010: 5808 863d 7a40 03bd 7117 ffbd 76ac bfbc
00000020: c926 59bd 8511 08be a971 d1bc 8fa1 12bc
00000030: 239e ddbd 4899 36bd 48d1 b43c 6e10 ab3d
00000040: 5e79 d33d 3e56 ae3d 4e0c 81bd 7c16 2a3d
00000050: 416a 88bc 5540 fdbb 8e50 1c3e c179 55be
00000060: 4a23 fabd d799 44bd be54 2b3d 5d4b 2e3d
00000070: efa6 2d3e d3fc 11be 5560 a4bd c2e1 0f3e
00000080: cda6 25be c092 82bd 4c6f abbd 0062 0b3b
00000090: 0bda 21be cb8f 0dbd cdbf 623d 8365 a1bd
000000a0: 004c b4bc 704b e1bd 20bf 063d 572a 903d
000000b0: c565 af3d e3fa debd 47cc 85bc a3d7 21bd
000000c0: 3bc1 153e 2147 02bc 4cac 01bd 3d53 75bd
000000d0: 04e0 4dbd 88af 5f3d 2281 c13d 4db4 103e
000000e0: f5cb a2bd b0f6 cdbc 6554 35bd 7233 8fba
000000f0: c130 8bbd 0d58 1c3e 938a 9c3d f797 76bd
00000100: 8d6a 84bd 3115 0cbe ab2f ffbb abb1 923d
00000110: 1811 e83c da34 cb3d ae31 0fbe c3fd c3bd
00000120: 43ae 42bd 9373 023d 5591 7c3d 5624 4bbd
00000130: abea 2dbe 802a bd3c 825e 90bd 8a6b 023e
00000140: 1c7f fe3b 0c57 0bbd 98a1 9dbd a525 d83d
00000150: bbd4 9c3d fcfe d6bd b39a 403d e774 28bb
00000160: 2ee3 76bd 46fa cf3d e3c3 33be 01b5 4abd
00000170: e596 c63d aaf6 773d cb6b a03b a155 30bc
00000180: c45d 783c 71c0 32bd b81f cdbd d332 cbbc
00000190: 3cb4 f9bc da0f 02bd efb6 20bd 3416 d23d
000001a0: 4050 11bc f47f eb3d cef5 5cbd 62c8 febd
000001b0: 9b2e 9c3d 834f 9b3c 91fa c63d 284f c53d
000001c0: 6adc e2bb 2a49 353e 3080 b73c 4d23 a5bb
000001d0: 1224 68bd 0474 25bd 12f3 883d f25c 483d
000001e0: 010f 1f3d 63b1 1b3e e2b0 a4bd 3c13 173e
000001f0: 64a9 85bd bd71 7ebd 771c 1c3e a301 ec3a
00000200: 3984 11be 40b3 993c 7019 ffbd 2a57 a23d
00000210: fc24 423d 5034 ce3d 902a 60be 4f88 47be
00000220: 9528 44bd e4fe cdbd 5d9a 2abe d035 d0bd
00000230: b497 e53d 30a3 86bd b007 39bc 80dd 4f3b
00000240: 7c6d 5ebd 7c19 983d 8106 51be 28be 89bc
00000250: 08c9 a5bd 60ce 973d 405e babd 64ae ca3d
00000260: 8a6a ddbd 76db ffbd 60f2 86bc c405 fcbd
00000270: c277 ee3d 5021 ef3d 0ccf 69bd b85a bf3d
00000280: 1ce9 44bd 6880 fa3c ba6e b3bd d0a5 0abc
00000290: 3054 1cbd 577d 36bd 1c98 243d cef2 eebd
000002a0: 3062 0a3c 5e3c c63d a83c ce3d 6cd0 673d
000002b0: c0b0 3d3b 7aa3 af3d 9ed9 873d f6cd 60be
000002c0: a0a6 e9bb 6228 edbd 2033 103c 7086 1b3c
000002d0: 368a a8bd 488d f43c c808 b13d c8d3 d9bd
000002e0: 040b e4bd bc32 7abd 4837 d53c 2e77 f8bd
000002f0: 55cc 1fbe a28f c43d 004a d3bd 68c3 08bd
00000300: 7e2a 49bd 6989 153e 86c0 67bd 91aa 1e3e
00000310: 210d 2abb 6943 eb3d eae3 e9bc a7fd 9f3d
00000320: 2adf afbd 2f26 823c d9cb b53d 7173 35bd
00000330: a2a7 153d 815b 313c 00de 31bc 1381 413e
00000340: f95e 32bd 9443 8fbd 655a c5bd 02ea db3d
00000350: e1bb 4a3e 4208 7fbd 743b 663c f570 81bd
00000360: d232 c0bd bc62 c83d a284 a1bc be8f 26bd
00000370: 2aea ddbb 4692 6ebd 2c9e 80bc 08ac 2fbd
00000380: 0b8c e8bd 758b fbbc 207d ce3d f76c 1a3e
00000390: 46b0 cebc c1a5 11bc 2600 36bd 8937 d4bc
000003a0: 6cbc 6e3d ae31 acbd 4040 dc3c e126 1d3e
000003b0: fca4 3dbd ff10 493e 4f0c 123e 5132 a33d
000003c0: f1c2 353d fd4f 3b3c 6ce0 5ebd a9c0 d3bd
000003d0: 880a 8cbd 0473 5a3d 6096 cb3c e437 39bd
000003e0: ac15 b73d 4cb1 efbc 8bb3 933d f2a6 643c
000003f0: 5417 c03d 38c4 f93c b146 c53d f626 c83d

gnn2_layers.0.W1.weight f4 [64, 129]
-0.08526295 0.004192956 -0.2015497 -0.06565205 0.072674945 -0.112633474 -0.01060995 0.04183653
0.035272233 0.14728859 -0.13051528 0.013030688 0.020018734 -0.058166597 -0.13623093 -0.108908966
-0.028147006 0.009154312 -0.09484387 0.054013878 0.028962312 -0.10800296 0.06664051 -0.095541805
-0.07563697 -0.08542204 0.100433014 -0.03290515 -0.13215184 0.047644548 -0.041725755 0.09725775
-0.06906528 -0.120043285 -0.04640411 -0.09136517 -0.18899943 0.06571151 0.32778868 -0.05904746
-0.13085505 0.008255744 0.057271797 0.0024632332 -0.027174298 -0.086869195 0.04031853 0.12064971
-0.08882769 0.10100798 0.016939553 0.027481651 0.074649274 -0.13191134 -0.118753605 0.19205964
-0.07112009 0.13550662 0.011667778 -0.018909702 0.09981948 -0.11978869 -0.111052826 -0.023176083
0.124956205 -0.0033402543 -0.13739747 -0.039989173 0.16295305 -0.12745366 -0.012395215 -0.07277171
-0.06680759 0.008715376 -0.014483563 0.040864527 0.009560682 -0.06567864 -0.033911657 -0.08753474
-0.12857057 0.021059997 -0.16992076 -0.026280247 0.011272028 0.02510276 -0.0119379535 -0.1269756
-0.03285925 0.014380694 0.06476528 -0.00012953111 0.02829957 -0.021319967 0.020395802 0.07402758
-0.009514386 -0.12366348 0.019681301 -0.026184758 -0.039087296 -0.13447227 0.18360236 -0.0010693867
-0.11191234 0.13573594 0.14165694 -0.056696553 -0.07963608 -0.0053061247 -0.08302584 -0.22725259
-0.07294644 0.02974925 0.021811536 0.00521732 0.03555579 -0.1439284 -0.018477278 0.08105642
-0.10237587 0.13825683 0.008905863 0.026321663 0.13499437 -0.12403285 -0.122518115 -0.10853939
0.034836553 -0.07843894 -0.07684232 -0.08543243 -0.030202622 -0.062605396 -0.12615415 -0.1277307
-0.010293721 -0.1337911 -0.040917706 -0.03379011 -0.08591005 0.04974684 -0.021111408 -0.07989432
-0.054264896 -0.11270808 -0.08604588 0.1765363 -0.039742827 -0.08288526 0.047171965 -0.00611683
-0.033108406 0.08559239 0.02234955 0.010327019 -0.09650508 -0.05804937 -0.08660637 -0.03467894
-0.008301633 0.014619887 -0.088369474 -0.04518247 -0.12518841 -0.19284056 -0.015188023 -0.008110106
-0.2299501 -0.020319182 -0.032323495 -0.038903676 -0.038200554 -0.114257105 0.016406596 -0.12030972
-0.11622116 -0.11086723 -0.0048741605 -0.05632447 0.019990642 0.011068034 -0.14794119 -0.100613356
-0.029436676 -0.0042217225 -0.030506672 -0.10839767 -0.012992984 -0.11071754 -0.05402334 -0.13032912
-0.14078113 -0.0038352462 -0.014534044 -0.06351538 -0.009607295 -0.07299496 -0.12768848 0.019760612
-0.034335133 -0.05077579 -0.032085728 -0.075116284 -0.1394489 0.050272226 0.004235745 -0.049217433
-0.02502492 -0.047653247 0.0060212687 -0.1451607 -0.114748254 -0.004429177 0.005391434 0.0051525235
-0.09260605 0.07633512 -0.12316416 -0.089842 -0.11943936 0.006004249 -0.09537627 -0.058578406
-0.066602245 0.006328341 -0.13460459 -0.10538054 -0.14564674 -0.13557562 -0.075889125 -0.0018416792
-0.056427855 -0.05140278 -0.051546402 -0.07839775 -0.12324058 -0.14831288 0.07166174 -0.043468587
-0.044411212 -0.25066808 -0.00090568344 -0.0015225653 -0.041188736 0.0008235579 -0.0532742 -0.058362097
-0.0359003 -0.14472833 -0.0038455206 -0.10591837 -0.09838569 -0.06533275 -0.12625277 -0.116730355
00000000: 579e aebd 1065 893b 0b63 4ebe 9574 86bd
00000010: 9ad6 943d 61ac e6bd 5bd5 2dbc c85c 2b3d
00000020: 9e79 103d d2d2 163e cca5 05be ab7e 553c
00000030: 54fe a33c 1940 6ebd 1f80 0bbe aa0b dfbd
00000040: 8d94 e6bc f8fb 153c 813d c2bd a83d 5d3d
00000050: 5f42 ed3c a830 ddbd d27a 883d 6cab c3bd
00000060: 8ee7 9abd c0f1 aebd d3af cd3d 8dc7 06bd
00000070: d052 07be ee26 433d a0e8 2abd 122f c73d
00000080: 1972 8dbd 41d9 f5bd 3c12 3ebd aa1d bbbd
00000090: 1189 41be c293 863d ebd3 a73e c0db 71bd
000000a0: defe 05be 1a43 073c d595 6a3d 326e 213b
000000b0: a29c debc 7ae8 b1bd 0b25 253d 3217 f73d
000000c0: 4beb b5bd 46dd ce3d d1c4 8a3c 3321 e13c
000000d0: b8e1 983d c413 07be 1735 f3bd 48ab 443e
000000e0: 69a7 91bd 3fc2 0a3e 352a 3f3c 85e8 9abc
000000f0: 286e cc3d c653 f5bd aa6f e3bd c5db bdbc
00000100: 0ae9 ff3d 2be8 5abb ecb1 0cbe b0cb 23bd
00000110: 2add 263e 3683 02be 4d15 4bbc 5609 95bd
00000120: 6bd2 88bd f0ca 0e3c 774c 6dbc 9061 273d
00000130: 68a4 1c3c 8682 86bd f3e6 0abd 6a45 b3bd
00000140: 01a8 03be 0486 ac3c b5ff 2dbe ac49 d7bc
00000150: 50ae 383c 4ea4 cd3c 6897 43bc e405 02be
00000160: 6c97 06bd 019d 6b3c a9a3 843d bed2 07b9
00000170: 80d4 e73c 36a7 aebc 1915 a73c c69b 973d
00000180: 3ae2 1bbc 4743 fdbd ae3a a13c 6b81 d6bc
00000190: 001a 20bd 19b3 09be 4202 3c3e aa2a 8cba
000001a0: 4c32 e5bd 5dfe 0a3e 840e 113e a53a 68bd
000001b0: 3e18 a3bd 00df adbb 7409 aabd e7b4 68be
000001c0: f164 95bd b3b4 f33c 1bae b23c 0df6 aa3b
000001d0: f3a2 113d f761 13be a95d 97bc e900 a63d
000001e0: 71aa d1bd 3393 0d3e e6e9 113c 87a0 d73c
000001f0: f73b 0a3e ef04 febd c7ea fabd e649 debd
00000200: c6b0 0e3d 98a4 a0bd 825f 9dbd 33f7 aebd
00000210: 7d6b f7bc 4237 80bd 8e2e 01be d6cb 02be
00000220: ffa6 28bc 8900 09be 5399 27bd 8067 0abd
00000230: 9cf1 afbd 58c3 4b3d d5f1 acbc a29f a3bd
00000240: de44 5ebd 7ed3 e6bd d338 b0bd efc5 343e
00000250: 60c9 22bd bfbf a9bd 6437 413d b06f c8bb
00000260: ae9c 07bd 104b af3d 6716 b73c a832 293c
00000270: 75a4 c5bd 2dc5 6dbd ae5e b1bd 810b 0ebd
00000280: 9303 08bc 4088 6f3c 0efb b4bd 4111 39bd
00000290: 6431 00be ff77 45be 30d7 78bc 40e0 04bc
000002a0: 0a78 6bbe 6a74 a6bc a465 04bd 7659 1fbd
000002b0: 2f78 1cbd a1ff e9bd 2067 863c f164 f6bd
000002c0: 5c05 eebd 5c0e e3bd 6cb7 9fbb 7db4 66bd
000002d0: 6ac3 a33c b356 353c e57d 17be 600e cebd
000002e0: 2f25 f1bc 6056 8abb 21e9 f9bc 99ff ddbd
000002f0: 86e0 54bc e1bf e2bd 9447 5dbd ff74 05be
00000300: ee28 10be c158 7bbb 3320 6ebc 5a14 82bd
00000310: ea67 1dbc 627e 95bd c5c0 02be 02e1 a13c
00000320: ffa2 0cbd 46fa 4fbd 536c 03bd 91d6 99bd
00000330: b1cb 0ebe 40ea 4d3d 01cc 8a3b 3898 49bd
00000340: 1001 cdbc 0d30 43bd 104e c53b 02a5 14be
00000350: 2201 ebbd a122 91bb a0aa b03b 80d6 a83b
00000360: 3ea8 bdbd 9655 9c3d 7e3d fcbd 15ff b7bd
00000370: a09c f4bd 4bbf c43b a254 c3bd e9ef 6fbd
00000380: c266 88bd f95d cf3b c9d5 09be c1d1 d7bd
00000390: 6b24 15be 56d4 0abe c26b 9bbd 8064 f1ba
000003a0: e520 67bd b98b 52bd 5222 53bd 008f a0bd
000003b0: 8f65 fcbd 55df 17be 64c3 923d 1e0c 32bd
000003c0: 88e8 35bd 9157 80be 636b 6dba d090 c7ba
000003d0: 85b5 28bd 09e4 573a 0c36 5abd 180d 6fbd
000003e0: 310c 13bd aa33 14be 2105 7cbb bbeb d8bd
000003f0: 707e c9bd 2dcd 85bd 6848 01be 5310 efbd

gnn2_layers.0.W2.weight f4 [64, 129]
0.04745031 -0.10716004 -0.07196341 -0.038635947 0.109988004 -0.048835665 -0.06334773 -0.011285083
-0.060625754 -0.016035708 0.005864479 0.103860326 -0.08723343 -0.0044503533 -0.11173226 -0.093513645
0.06198328 -0.007781528 -0.119312294 0.110887796 -0.03732787 -0.14699703 0.06169881 -0.08366226
-0.05766713 -0.0767534 0.13093914 -0.072787404 -0.018424826 -0.016734239 -0.08416317 0.06203079
0.03455907 0.02450901 -0.04442592 -0.047972135 -0.12752482 0.011446208 0.06900858 -0.0024873395
0.015873607 0.07092854 0.051375583 -0.123624854 -0.056123007 -0.05843116 -0.011572272 0.05521419
-0.028290935 0.1355274 -0.05048944 -0.03312811 0.020658588 -0.11208218 -0.12264932 0.13151632
-0.035489734 0.13764344 0.004228309 0.06320885 0.031895828 0.013862482 -0.12551165 -0.102502905
0.07651425 -0.13241394 -0.0851349 -0.07490545 0.18444595 -0.06136519 -0.10835399 -0.04153454
-0.10015026 -0.0021935042 -0.07206648 0.11416293 0.029051222 0.02091174 -0.06390311 -0.05645294
-0.074260406 0.08398193 -0.22171596 -0.08200364 -0.02756516 -0.00911702 0.011927649 -0.023736717
-0.043447293 -0.12702622 0.051265847 -0.10968671 0.040533513 -0.08122965 -0.06536289 0.11107625
-0.07629536 -0.04703924 -0.13316537 -0.017521955 0.012198729 -0.14458092 0.096938096 0.010014031
-0.0017411367 0.057097312 0.050653506 0.031366892 -0.009078521 -0.049836427 -0.076572075 -0.15127021
-0.10888792 0.02962335 -0.1192183 -0.019317444 0.04268216 0.021659557 -0.085732214 0.11888452
-0.11469972 -0.0005531804 -0.12847623 0.061304614 0.08109958 -0.01011937 0.036090624 -0.030880947
-0.046276912 -0.011210663 -0.1419448 0.08450729 -0.13416351 -0.009026773 -0.11324749 0.02400287
-0.035378907 -0.018116664 -0.032313436 -0.1546481 -0.055615015 0.023330197 -0.033039093 -0.03346339
0.07234265 -0.07142809 -0.054233912 0.20587166 0.0064038606 0.0034322196 -0.05994118 -0.0011561662
-0.038845364 -0.0017581582 -0.019633612 -0.14172274 -0.011642371 -0.08607841 -0.0440713 -0.07841697
-0.1390011 -0.025319738 -0.05847622 -0.068061 0.008058901 -0.04092197 -0.038060483 -0.023668014
-0.23882389 -0.12258185 -0.13944787 -0.09933116 -0.11010723 -0.12347357 -0.0076751187 0.0023526687
-0.067747615 -0.075046115 -0.14486432 -0.068489544 -0.07364581 -0.03257281 0.00049855525 -0.00082610315
-0.042974368 -0.02226344 0.004131555 0.012804466 -0.024011876 -0.12085009 -0.0021607822 -0.034784105
-0.05387633 -0.03138774 -0.035764202 0.0068070665 -0.003114356 0.009886703 0.027115975 -0.13520715
-0.019347275 0.0109397955 -0.10574039 -0.1945215 -0.013921746 0.010025382 0.0120727 -0.023092514
0.067182034 -0.13372408 -0.026963964 -0.2448534 -0.046438586 -0.0019638357 -0.062170297 0.058291256
-0.13724309 0.05938369 -0.13362455 -0.12858742 -0.10478192 -0.035050217 -0.13978694 -0.018394722
-0.14306484 -0.067146674 -0.08822776 -0.07646266 -0.11666857 -0.032013636 0.08114259 -0.08784366
-0.107020475 -0.12830146 -0.13469654 -0.08979626 -0.0043091644 -0.21021271 0.08156106 0.017532706
-0.023345679 -0.15771352 -0.045682754 -0.016586283 -0.014577589 -0.13962828 -0.03749281 -0.063258804
-0.14509723 0.008296757 -0.08781429 -0.04791628 -0.10446121 -0.0039513055 -0.05457184 -0.093168885
00000000: 425b 423d b976 dbbd 8d61 93bd ba40 1ebd
00000010: 6441 e13d e807 48bd 74bc 81bd 12e5 38bc
00000020: b652 78bd 515d 83bc d12a c03b b9b4 d43d
00000030: 71a7 b2bd 45d4 91bb e2d3 e4bd 1584 bfbd
00000040: 2ee2 7d3d 30fc febb 015a f4bd 2419 e33d
00000050: 1ce5 18bd 6486 16be e4b7 7c3d 1e57 abbd
00000060: 5e34 6cbd e330 9dbd e914 063e 9011 95bd
00000070: a9ef 96bc 3e16 89bc bd5d acbd ff13 7e3d
00000080: d08d 0d3d 1fc7 c83c f4f7 35bd 6e7e 44bd
00000090: de95 02be e088 3b3c 5f54 8d3d a202 23bb
000000a0: 5e09 823c fb42 913d 346f 523d 072f fdbd
000000b0: 3de1 65bd 8355 6fbd a099 3dbc 4628 623d
000000c0: 64c2 e7bc b2c7 0a3e 04ce 4ebd 57b1 07bd
000000d0: 333c a93c 588b e5bd 912f fbbd 37ac 063e
000000e0: af5d 11bd 67f2 0c3e a08d 8a3b a473 813d
000000f0: 33a5 023d 771f 633c 2086 00be 0bed d1bd
00000100: 81b3 9c3d 8597 07be 355b aebd 0768 99bd
00000110: 66df 3c3e 115a 7bbd b2e8 ddbd 1f20 2abd
00000120: 941b cdbd e5c0 0fbb 9797 93bd 41ce e93d
00000130: d4fc ed3c 194f ab3c a2df 82bd 333b 67bd
00000140: d715 98bd b8fe ab3d 8209 63be 86f1 a7bd
00000150: 55d0 e1bc 8e5f 15bc 306c 433c 8173 c2bc
00000160: caf5 31bd 2913 02be 23fc 513d 6da3 e0bd
00000170: 7806 263d bb5b a6bd fbdc 85bd f27b e33d
00000180: be40 9cbd 38ac 40bd 815c 08be 348a 8fbc
00000190: 2edd 473c 050d 14be 7b87 c63d e411 243c
000001a0: da36 e4ba dfde 693d 0d7a 4f3d 927a 003d
000001b0: 14be 14bc 4821 4cbd d2d1 9cbd 94e6 1abe
000001c0: a100 dfbd abac f23c b928 f4bd 9e3f 9ebc
000001d0: 7dd3 2e3d 626f b13c 5f94 afbd ba79 f33d
000001e0: b0e7 eabd 4f03 11ba 468f 03be 8c1a 7b3d
000001f0: 8917 a63d b7cb 25bc c3d3 133d 0afa fcbc
00000200: dc8c 3dbd eeac 37bc fa59 11be 2812 ad3d
00000210: 2962 09be 08e5 13bc 4dee e7bd aba1 c43c
00000220: 79e9 10bd 6669 94bc 185b 04bd 125c 1ebe
00000230: 92cc 63bd f81e bf3c 0054 07bd e810 09bd
00000240: 6228 943d e448 92bd 6124 5ebd 05d0 523e
00000250: 7ad7 d13b 17ef 603b e284 75bd 808a 97ba
00000260: 511c 1fbd 0072 e6ba abd6 a0bc c41f 11be
00000270: a5bf 3ebc e149 b0bd 1c84 34bd 1499 a0bd
00000280: 4e56 0ebe 576b cfbc c384 6fbd 9163 8bbd
00000290: 7b09 043c cc9d 27bd 4fe5 1bbd 6ce3 c1bc
000002a0: 408e 74be 310c fbbd 6ccb 0ebe 236e cbbd
000002b0: e67f e1bd b6df fcbd 907f fbbb 3b2f 1a3b
000002c0: 43bf 8abd c7b1 99bd 5057 14be 3f44 8cbd
000002d0: 9dd3 96bd 116b 05bd 7ab1 023a d88e 58ba
000002e0: e405 30bd d161 b6bc ff61 873b d3c9 513c
000002f0: 8eb4 c4bc 4180 f7bd e99b 0dbb c779 0ebd
00000300: 6dad 5cbd 6e90 00bd 7c7d 12bd d00d df3b
00000310: 391a 4cbb d7fb 213c 5222 de3c be73 0abe
00000320: 2d7e 9ebc d43c 333c 6b8e d8bd a530 47be
00000330: 0918 64bc 8041 243c 93cc 453c 832c bdbc
00000340: bc96 893d f7ee 08be 88e3 dcbc daba 7abe
00000350: 6336 3ebd b2b3 00bb 48a6 7ebd d0c2 6e3d
00000360: 7489 0cbe 503c 733d e0d4 08be 6cac 03be
00000370: e797 d6bd d190 0fbd 4f24 0fbe 87b0 96bc
00000380: 977f 12be 3284 89bd c1b0 b4bd 7598 9cbd
00000390: eeef eebd bb20 03bd 162e a63d 60e7 b3bd
000003a0: 8d2d dbbd 7561 03be e4ed 09be 1ae7 b7bd
000003b0: e433 8dbb 0042 57be 7c09 a73d c0a0 8f3c
000003c0: 703f bfbc a77f 21be d71d 3bbd f5df 87bc
000003d0: d7d6 6ebc b7fa 0ebe 1092 19bd d58d 81bd
000003e0: 5e94 14be 1fef 073c fad7 b3bd dc43 44bd
000003f0: c2ef d5bd f479 81bb b986 5fbd 54cf bebd
