checkpoints/proteins_12gnn.pt (torch, 205957 bytes, 14 tensors)

gnn1_layers.0.W1.weight f4 [64, 3]
0	0xbeabd10b	-0.33557925
1	0x3ea6e9ab	0.3260015
2	0xbe5edd92	-0.2176421
3	0x3e42b4c3	0.19014268
4	0xbe9ca255	-0.305926
5	0x3ecce464	0.40017998
6	0x3e6838be	0.22677895
7	0x3dcbc253	0.09949174
8	0xbe9e70ec	-0.30945528
9	0xbeec9b79	-0.46212366
10	0x3d099ef1	0.033598844
11	0xbe8ac3e7	-0.27102587
12	0x3f0ddf04	0.5541842
13	0xbeb3589e	-0.35028547
14	0x3ec10852	0.3770166
15	0x3f058ea7	0.52170795
16	0x3e4e4022	0.20141652
17	0x3e255606	0.16146097
18	0xbf0e34f6	-0.5554956
19	0x3eee8b26	0.46590537
20	0xbdedddaf	-0.116145484
21	0xbf16b03a	-0.5886265
22	0x3ef59a87	0.47969458
23	0xbe910184	-0.2832147
24	0xbc79e807	-0.015253074
25	0x3ef47743	0.4774724
26	0xbece81b3	-0.40333328
27	0xbf02cacf	-0.5109071
28	0xbcb337b5	-0.02187715
29	0xbe309add	-0.17246576
30	0x3daac184	0.083376914
31	0xbf08aea1	-0.5339146
32	0xbce68636	-0.028140169
33	0xbe944544	-0.28959095
34	0xbe97daa0	-0.29658985
35	0xbf0862b0	-0.53275585
36	0x3e8b349a	0.2718857
37	0x3d589bc1	0.052882914
38	0xbef9ea74	-0.48811686
39	0x3eac8c83	0.33700952
40	0x3d8ee69d	0.0697758
41	0x3d4d77b4	0.050162986
42	0xbee3eeeb	-0.44518217
43	0x3c657373	0.014004576
44	0x3f014e46	0.5051006
45	0x3eb3dfd3	0.35131702
46	0xbee63c94	-0.44968092
47	0x3f059539	0.5218082
48	0xbd039076	-0.03212019
49	0x3e415d6d	0.18883295
50	0x3ebe5fa6	0.3718235
51	0x3ecf1efa	0.4045332
52	0xbf06103a	-0.5236851
53	0x3ed20ef6	0.4102704
54	0xbee05941	-0.43818095
55	0x3ce0dfbc	0.027450435
56	0xbece8e8e	-0.40343136
57	0xbe74b032	-0.23895338
58	0xbe22d329	-0.15900864
59	0xbe4b2c34	-0.19841081
60	0xbe42f713	-0.19039564
61	0xbcdf6f1d	-0.027274663
62	0x3f12014d	0.57033235
63	0x3e6ffff8	0.23437488
64	0x3e6e1c17	0.23252903
65	0x3e2a571c	0.16634792
66	0x3ea1e683	0.3162118
67	0xbe37d045	-0.17950542
68	0x3cb5ad9e	0.022177514
69	0x3c83c959	0.016087221
70	0xbf194708	-0.5987401
71	0xbf145597	-0.579431
72	0xbc18c950	-0.00932534
73	0xbe895f86	-0.2683069
74	0xbdbad7bf	-0.091231816
75	0xbe66a480	-0.2252369
76	0x3bf6d23a	0.007532385
77	0x3eaa0cdb	0.33212933
78	0xbe0aeb56	-0.13566336
79	0x3eff5ad9	0.49874
80	0x3ebd4942	0.36969954
81	0xbf007aa6	-0.50187147
82	0xbef5364f	-0.47892997
83	0xbf03ece3	-0.51533335
84	0xbea1ff22	-0.31639963
85	0xbe66248a	-0.22474876
86	0xbd31ffd0	-0.043456852
87	0xbe267fae	-0.16259643
88	0xbe895451	-0.2682214
89	0xbe24afb8	-0.16082656
90	0xbe84a0bf	-0.2590389
91	0x3ef232a6	0.47304267
92	0xbea45ece	-0.3210358
93	0xbed53f55	-0.4164988
94	0x3e98a8fc	0.29816425
95	0x3dfecb35	0.124411024
96	0x3ebba1a4	0.3664676
97	0x3e7ceeeb	0.24700515
98	0x3f0550a4	0.5207617
99	0xbed87ce8	-0.42282796
100	0x3ea01f34	0.31273806
101	0x3ee31514	0.4435202
102	0xbe91fa6e	-0.28511375
103	0x3efb1b1e	0.49044126
104	0x3ea3664c	0.31913984
105	0xbd98c2c6	-0.07459025
106	0x3e582f7d	0.21111865
107	0xbe5b619c	-0.21423954
108	0xbf00e904	-0.50355554
109	0x3db3e064	0.087830335
110	0x3d87c2d7	0.066289596
111	0xbec131b8	-0.37733245
112	0x3e3e55bf	0.18587397
113	0xbefc82d5	-0.49318567
114	0x3ed9daa2	0.42549616
115	0x3f065bd8	0.5248389
116	0x3d60f80b	0.054924052
117	0xbebf7284	-0.37392056
118	0x3e84b96b	0.25922713
119	0x3e0edd26	0.13951549
120	0x3d9707b3	0.073745154
121	0x3ddf3a8a	0.10899837
122	0x3ecbaefa	0.39781934
123	0xbe7e1f32	-0.24816588
124	0xbe04fd30	-0.12987208
125	0x3e2139bc	0.1574468
126	0xbcf482af	-0.029847471
127	0x3ec226f6	0.3792035
128	0xbef4bf8a	-0.47802383
129	0xbe040eca	-0.12896267
130	0x3cef831f	0.029237328
131	0xbe5952fa	-0.2122306
132	0x3ea3dbd8	0.32003665
133	0xbc395425	-0.0113115655
134	0xbf13f13e	-0.5778998
135	0xbe1a52b3	-0.1507061
136	0xbe8efd12	-0.27927452
137	0x3c3e2e91	0.011607782
138	0xbd896a50	-0.067097306
139	0xbf129c0a	-0.57269347
140	0xbdd77738	-0.10520786
141	0xbd30672f	-0.043067154
142	0xbe59335b	-0.21210997
143	0x3f0b6c54	0.5446217
144	0xbe010034	-0.12597734
145	0x3e9f6643	0.31132707
146	0x3dd64226	0.104618356
147	0xbef381d2	-0.47559983
148	0x3ded23d8	0.11579102
149	0x3ef8d8ad	0.4860281
150	0xbee6d1a9	-0.45081833
151	0xbed2a29d	-0.4113969
152	0x3ef8db6f	0.48604915
153	0x3ebc7f9e	0.36816114
154	0xbed2e967	-0.41193697
155	0x3e7c1d5b	0.24620573
156	0xbdd30d65	-0.10305289
157	0xbf1d7e85	-0.6152118
158	0xbc31c52e	-0.010850234
159	0x3d6b8259	0.057497356
160	0xbe3156c0	-0.17318249
161	0x3e4dabc8	0.2008506
162	0xbf13b80f	-0.57702726
163	0x3eb199f4	0.3468777
164	0x3eca91ef	0.39564463
165	0x3e49df1d	0.19714017
166	0xbcdc0ce4	-0.026861615
167	0x3da25a7a	0.07927413
168	0xbef42286	-0.4768259
169	0xbe4c0802	-0.1992493
170	0xbe0fda36	-0.14048085
171	0xbe890478	-0.26761222
172	0xbecd92af	-0.40150973
173	0x3e992a41	0.2991505
174	0x3ec0b6e4	0.37639534
175	0xbf063b53	-0.5243427
176	0x3e019f84	0.12658507
177	0x3dd5d5c7	0.104411654
178	0x3ed45696	0.4147231
179	0x3e838a68	0.25691533
180	0x3ef53e15	0.47898927
181	0xbe8284c0	-0.25491905
182	0x3e9cf31b	0.30654225
183	0x3ed53a1c	0.41645896
184	0xbf14f0e6	-0.5818008
185	0xbeca64d6	-0.39530057
186	0xbc793770	-0.015210971
187	0x3e80639c	0.25075996
188	0xbe92dc0e	-0.28683513
189	0x3e4d92af	0.20075487
190	0xba5bb800	-0.0008381605
191	0x3e15a390	0.14613175

gnn1_layers.0.W2.weight f4 [64, 3]
0	0xbede6033	-0.4343277
1	0x3e4cbcb3	0.19993858
2	0x3ea5e3d1	0.32400373
3	0xbedfd1f5	-0.43714872
4	0xbbeff386	-0.0073227314
5	0xbd05a0f7	-0.03262421
6	0x3d9056e6	0.070478246
7	0x3edd4308	0.43215203
8	0x3e17564d	0.14779015
9	0xbdeb251a	-0.11481686
10	0x3f0782f5	0.529342
11	0xbdf75843	-0.120773815
12	0xbdb58c1e	-0.08864616
13	0x3e12d163	0.14337687
14	0xbe92a87a	-0.28644162
15	0x3b859dd4	0.0040776525
16	0xbeec9d24	-0.4621364
17	0x3cfdbf73	0.03097508
18	0xbd18c845	-0.037300367
19	0xbb65304c	-0.0034971414
20	0xbf0ebc3b	-0.55755967
21	0xbf1fe29c	-0.62455153
22	0x3e2f0217	0.17090641
23	0x3ee48de7	0.44639513
24	0xbf0cdf23	-0.5502798
25	0x3e2bc956	0.16776022
26	0xbefe103d	-0.49621764
27	0xbd822146	-0.06354003
28	0x3ed7f9d6	0.42182797
29	0x3eb01c5f	0.34396645
30	0xbeef16fe	-0.4669723
31	0x3e9becb5	0.3045403
32	0x3e74f454	0.23921329
33	0xbd19c48e	-0.037540965
34	0x3f0b333c	0.5437505
35	0xbe42c7e4	-0.19021565
36	0xbe35cd60	-0.17754126
37	0xbeaa629b	-0.33278355
38	0x3d510969	0.051034365
39	0x3d0fa306	0.03506758
40	0xbd6bffc3	-0.05761696
41	0xbec48af2	-0.38387257
42	0xbe92d03a	-0.2867449
43	0x3dfb9ac0	0.122853756
44	0xbf123344	-0.57109475
45	0xbe20f785	-0.15719421
46	0xbd353fa7	-0.044250157
47	0xbe7436eb	-0.23849075
48	0x3e063ad1	0.13108374
49	0xbd46b7f1	-0.048515264
50	0x3ea16c95	0.31528154
51	0xbe08aeb9	-0.13347901
52	0xbef5b4e0	-0.4798956
53	0x3e9c126b	0.30482802
54	0x3d0aae39	0.033857558
55	0xbe89c87e	-0.26910776
56	0xbec2d53e	-0.38053316
57	0x3cf35f86	0.029708635
58	0xbf2064fa	-0.6265408
59	0x3cba6984	0.022755392
60	0x3e416707	0.18886958
61	0xbf115a9f	-0.567789
62	0xbec67d05	-0.38767257
63	0xbf02e73e	-0.511341
64	0x3ec9f7d9	0.39446905
65	0x3ec932f9	0.39296702
66	0xbdbeec39	-0.093224
67	0x3ec6804a	0.38769752
68	0xbe49e71d	-0.19717069
69	0xbf2b1357	-0.66826385
70	0x3dc7c257	0.09753864
71	0x3db2a414	0.08722702
72	0x3f007044	0.50171304
73	0xbd2adb4a	-0.041713037
74	0x3eb99732	0.36248165
75	0x3e873710	0.26409197
76	0x3eaa80f7	0.33301517
77	0xbf21b9ca	-0.63174117
78	0x3f07d970	0.5306616
79	0xbee23311	-0.44179586
80	0x3ed689a4	0.41901886
81	0xbdc65e7e	-0.09685992
82	0xbf02fc00	-0.5116577
83	0x3db1e3cd	0.08686028
84	0xbdf0ad28	-0.11751777
85	0xbf04c125	-0.51857215
86	0xbe5655c4	-0.20931154
87	0x3d27815b	0.040894847
88	0x3ef12b65	0.4710342
89	0xbe14db1a	-0.14536706
90	0x3e946ad6	0.2898776
91	0xbc1bd041	-0.009510101
92	0xbdb4c9d4	-0.08827558
93	0x3e168149	0.14697756
94	0xbea10ec4	-0.31456578
95	0xbee601c9	-0.44923237
96	0xbe865f07	-0.26244375
97	0xbf09bac5	-0.5380061
98	0xbe8f4616	-0.2798316
99	0xbd13ca98	-0.03608188
100	0xbee4f4f3	-0.4471813
101	0xbe8372d7	-0.25673553
102	0xbe2699ff	-0.16269682
103	0xbdc13461	-0.094338186
104	0xbed1c706	-0.40972155
105	0xbd0ad634	-0.033895686
106	0xbe16f1bd	-0.14740653
107	0x3e128a47	0.14310561
108	0xbd002aba	-0.031290747
109	0xbe939d88	-0.28831124
110	0xbe848507	-0.25882742
111	0xbde33fdd	-0.11096165
112	0xbedf9156	-0.4366557
113	0xbc687de0	-0.014190167
114	0xbde3c674	-0.11121836
115	0x3e3eb2cf	0.18622898
116	0x3d24b792	0.04021413
117	0x3edda128	0.43287015
118	0xbd192772	-0.037391134
119	0xbec49988	-0.38398385
120	0x3e33e07b	0.17566101
121	0xbef50c48	-0.47860932
122	0xbde171a4	-0.11008003
123	0xbe3f6f30	-0.18694758
124	0xbe605482	-0.21907237
125	0xbe5abcaa	-0.21361032
126	0x3ee0bd30	0.4389434
127	0x3e7d8474	0.24757558
128	0xbc6b4ab4	-0.014361072
129	0x3edf2622	0.4358378
130	0xbf1b47eb	-0.60656613
131	0x3cb75449	0.022379057
132	0x3e986cb0	0.29770422
133	0x3e9e2cc3	0.30893525
134	0xbee266f3	-0.4421917
135	0x3df7070a	0.120618895
136	0xbed083dc	-0.407256
137	0xbdc44e3e	-0.09585236
138	0xbdf6bc08	-0.12047583
139	0xbef6d17c	-0.482067
140	0xbf0cfd7a	-0.55074275
141	0xbeca0374	-0.3945576
142	0x3e61c9bc	0.22049612
143	0x3e8e71bc	0.27821147
144	0xbf008d72	-0.5021583
145	0xbe493314	-0.19648391
146	0xbd8314a6	-0.06400423
147	0xbef9c86e	-0.48785728
148	0x3e9aaf2c	0.3021177
149	0x3f09d487	0.53839916
150	0x3c6db0f1	0.014507518
151	0xbefc5726	-0.4928524
152	0x3d673aba	0.05645249
153	0x3ded9c5a	0.11602087
154	0x3ebb764c	0.3661369
155	0xbecb23af	-0.39675662
156	0xbf179375	-0.59209377
157	0x3e51b17b	0.2047786
158	0x3cbf492a	0.023350317
159	0xbe40a178	-0.18811595
160	0xbe77ba92	-0.24192265
161	0xbe986af2	-0.29769093
162	0x3ec6dafe	0.38838953
163	0xbe22c572	-0.15895632
164	0x3e9ccc08	0.30624413
165	0x3ecc2ed5	0.3987948
166	0xbd5128a9	-0.051064167
167	0xbc330e61	-0.010928721
168	0xbdcaf7ee	-0.0991057
169	0x3eafb15f	0.3431501
170	0xbf1e0de2	-0.61739933
171	0x3e8fb784	0.280697
172	0xbd2e63f5	-0.042575795
173	0x3e2643e3	0.16236834
174	0xbbf210f0	-0.007387273
175	0xbe71ec75	-0.23625357
176	0xbe06a57f	-0.13149069
177	0x3e383c98	0.17991865
178	0xbf08bf62	-0.53417027
179	0xbed8ccc3	-0.4234372
180	0xbe40a132	-0.18811491
181	0xbe84f054	-0.25964606
182	0x3e137082	0.14398387
183	0x3eac0521	0.33597663
184	0xbdead706	-0.11466794
185	0x3f1e9779	0.6194988
186	0xbe85ab1a	-0.26107103
187	0xbec25796	-0.37957448
188	0xbe845701	-0.2584763
189	0xbecba99b	-0.39777836
190	0xbecf32c8	-0.4046843
191	0xbf03b18e	-0.514428

gnn1_layers.1.W1.weight f4 [64, 64]
0	0xbe2fe93f	-0.1717882
1	0xbd0f998e	-0.03505855
2	0xbb9dc8d4	-0.0048152003
3	0x3d645485	0.055744667
4	0x3cdd2472	0.026994918
5	0xbdb874ef	-0.09006678
6	0xbd148c96	-0.036266886
7	0xbe0b0a05	-0.13578041
8	0xbc433794	-0.011915106
9	0xbe3deabd	-0.18546577
10	0xbb2a9209	-0.0026026985
11	0xbd3545fb	-0.04425619
12	0xbd128397	-0.035770025
13	0xbd2ceb4f	-0.042216595
14	0xbdf12702	-0.11775018
15	0x3c6c3c07	0.0144186085
16	0xbcf70968	-0.030155852
17	0xbc8c37d3	-0.017116463
18	0xbd8a91f0	-0.067661166
19	0x3a704f2a	0.000916707
20	0x3bcb173e	0.006197839
21	0xbbb71528	-0.005587239
22	0x3c990004	0.018676765
23	0xbdaceb7a	-0.08443351
24	0xbb8ab0f2	-0.0042325193
25	0xbd5f3a03	-0.054498684
26	0xbc0f38e7	-0.008741594
27	0x3d7cb3af	0.061694797
28	0x3ce7df20	0.028304636
29	0xbdf54e74	-0.11977854
30	0xbdcb2e50	-0.09920943
31	0xbd492739	-0.04910967
32	0xbd4ff088	-0.050766498
33	0xbdc0ec9a	-0.09420128
34	0x3d1997e4	0.03749837
35	0xbc6a3480	-0.014294744
36	0xbe0d0107	-0.13769923
37	0xbd8fda18	-0.0702402
38	0xbdb4112a	-0.08792336
39	0xbe29f316	-0.16596636
40	0xbd810000	-0.06298828
41	0xbd1d2e2c	-0.03837411
42	0xbe1a7668	-0.15084231
43	0xbdf76685	-0.12080101
44	0xbe060625	-0.13088281
45	0x3d2ecf99	0.04267845
46	0x3d44638c	0.047946498
47	0x3d7a20ba	0.061066367
48	0xbcd331dd	-0.025780613
49	0xbd0ab2de	-0.033861987
50	0xbd07d2b2	-0.03315992
51	0xbd83d262	-0.06436612
52	0xbe221b61	-0.15830757
53	0xbd9762f2	-0.07391919
54	0xbdf34cc8	-0.11879879
55	0xbdb0fc51	-0.086418755
56	0xbc7bb652	-0.015363293
57	0xbd1610d7	-0.036637153
58	0x3c750151	0.014953927
59	0xbd6967d0	-0.05698377
60	0xbe138365	-0.14405592
61	0xbe376bc3	-0.17912202
62	0xbe1b3ea8	-0.1516062
63	0xbd98eb1c	-0.074667186
64	0xbcb72110	-0.022354633
65	0x3bf511f7	0.007478948
66	0x3d49f847	0.04930904
67	0xbdcbf7ed	-0.099593975
68	0xbd8eff31	-0.06982268
69	0xbdc703ec	-0.09717545
70	0xbd77db2f	-0.060511764
71	0xbca34406	-0.019929897
72	0xbd809e0b	-0.06280144
73	0xbd5e4853	-0.054268192
74	0xbd351f23	-0.044219147
75	0xbc5d3ac5	-0.013502781
76	0xbdc8a9d5	-0.09798018
77	0xbe09d288	-0.13459218
78	0xbcfa625f	-0.030564485
79	0xbd994df2	-0.0748557
80	0xbdeef7c4	-0.11668351
81	0xbbf7b75d	-0.0075597004
82	0x3a949680	0.0011336356
83	0xbda03b4b	-0.07823809
84	0xbdf6eb08	-0.120565474
85	0xbd9cac6f	-0.076500766
86	0xbe2a5683	-0.16634564
87	0xbd0182ad	-0.031618763
88	0xbd6e4d55	-0.05817922
89	0x3c816de9	0.01579948
90	0xbd54ece7	-0.05198374
91	0xbd4d0cc3	-0.050061
92	0x3d0b79b8	0.034051627
93	0x3d0f9d56	0.035062157
94	0xbdf3f7ab	-0.11912473
95	0x3c6eba45	0.014570777
96	0x3cfa6e58	0.030570194
97	0xbe12e323	-0.14344458
98	0xbc876d0d	-0.016531492
99	0xbe0a4320	-0.13502169
100	0xbdcb9387	-0.09940248
101	0xbdf50518	-0.11963862
102	0xbe149398	-0.14509428
103	0x3d1d404c	0.038391396
104	0xbe2fe7c8	-0.17178261
105	0x3d8000fc	0.06250188
106	0xbe30b2a6	-0.17255649
107	0xbd9a2640	-0.07526827
108	0xbd5772db	-0.05259977
109	0x3cec005a	0.028808761
110	0xbd394a1c	-0.04523669
111	0xbcc53c60	-0.02407664
112	0xbd26ac71	-0.040691797
113	0x3c5d11e5	0.013493036
114	0xbd578bda	-0.052623607
115	0xbc591465	-0.013249491
116	0xbe0ad1e8	-0.13556635
117	0xbdb1e5b0	-0.086863875
118	0x3d523f10	0.051329672
119	0xbe1ac405	-0.15113838
120	0xbda692f2	-0.08133496
121	0xbd99f021	-0.07516504
122	0x3d7eb072	0.06217999
123	0xbdb25155	-0.08706919
124	0xbe1ef17a	-0.15521803
125	0xbdbbe36f	-0.09174239
126	0x3d840cda	0.06447764
127	0x3d4ae68c	0.049536273
128	0x3dec1078	0.11526579
129	0xbdcc7fc8	-0.0998531
130	0x3d92e330	0.07172239
131	0xbdaeceae	-0.08535515
132	0x3d8bedb0	0.06832445
133	0x3d0ead7d	0.03483342
134	0x3df32a65	0.118733205
135	0xbd85d7ea	-0.06535323
136	0x3c7e9c34	0.015540171
137	0x3d125236	0.035722934
138	0xbdae8849	-0.08522088
139	0xbd86d7cc	-0.06584129
140	0xbe4dd5b4	-0.20101053
141	0x3ccffd2c	0.025389276
142	0x3df89e52	0.12139572
143	0x3c2187c3	0.009859028
144	0xbc47314b	-0.012157748
145	0xbc59a9f8	-0.013285153
146	0xbd4e2d3e	-0.050336115
147	0xbce63e95	-0.028106013
148	0xbd017a4c	-0.031610772
149	0xbd6bb1cd	-0.05754261
150	0x3e078719	0.1323513
151	0xbda1cc85	-0.07900337
152	0x3bfc2e6b	0.007695963
153	0xbdb163c6	-0.086616084
154	0xbd104958	-0.035226196
155	0xbddfcb3c	-0.10927436
156	0x3d288604	0.041143432
157	0xbd42f637	-0.04759809
158	0x3dbc2533	0.09186783
159	0xbd9f03b9	-0.07764382
160	0x3df03b9b	0.11730119
161	0xbd96e359	-0.07367582
162	0x3ddd00ad	0.107911445
163	0xbd92c64d	-0.07166729
164	0x3cb2dc36	0.02183352
165	0xbcf9b2de	-0.030480798
166	0x3db873c1	0.09006453
167	0x3d5f073c	0.05445026
168	0xbde80f1c	-0.11331007
169	0x3c3c4b50	0.011492565
170	0xbd9b161e	-0.07572578
171	0x3dba0c58	0.09084386
172	0x3d2c2528	0.042027622
173	0xbd16df97	-0.036834326
174	0xbd829a76	-0.06377117
175	0x3d063108	0.032761604
176	0xbdf04504	-0.11731914
177	0x3d32293f	0.043496367
178	0x3c13a3d0	0.009011224
179	0x3dc29e46	0.095028445
180	0x3d80676d	0.06269727
181	0xbdbde1b0	-0.09271562
182	0x3d8fdedd	0.0702493
183	0xbd130fc8	-0.035903722
184	0x39f7dbad	0.00047275182
185	0xbd5ba9b4	-0.05362864
186	0x3d8fb9a5	0.07017831
187	0x3dd7f2dc	0.105443686
188	0xbd243624	-0.040090695
189	0x3d296a7a	0.04136131
190	0xbe186b0e	-0.14884588
191	0x3cd56164	0.026047416
192	0xbe2ef255	-0.1708463
193	0xbc95af5b	-0.018272093
194	0xbe181640	-0.14852238
195	0xbdd7c6ca	-0.10535963
196	0x3ccafb62	0.024778072
197	0x3d90bdcb	0.0706745
198	0xbe0a5853	-0.13510256
199	0xbe048ce2	-0.12944368
200	0xbd369387	-0.044574287
201	0xbc4130e8	-0.011791445
202	0xbda67133	-0.0812706
203	0xbdcd22dc	-0.100164145
204	0xbe1189da	-0.14212742
205	0xbb88c988	-0.004174415
206	0x3d7fa711	0.062415186
207	0xbdf41e23	-0.119198106
208	0x3a850a3d	0.0010150146
209	0x3bf56774	0.007489139
210	0x3d258f00	0.04041958
211	0xbd6c0cba	-0.057629324
212	0xbd22c822	-0.039741643
213	0x3cfb3264	0.030663677
214	0x3c9b02c8	0.018922225
215	0x3d81d701	0.06339837
216	0xbdbd7fe8	-0.09252912
217	0xbc1ca9d7	-0.009561977
218	0x3d0bc2f9	0.034121487
219	0xbe14627d	-0.14490695
220	0x3ccb6d38	0.024832353
221	0xbdb5ef94	-0.088835865
222	0x3cbb02c8	0.022828475
223	0xbdedf81f	-0.11619591
224	0xbd414c2e	-0.04719179
225	0x3c7165e9	0.01473377
226	0xbe32c261	-0.17456962
227	0xbe241274	-0.16022664
228	0xbdfe1c9e	-0.12407802
229	0x3ca4d707	0.020122064
230	0x3cc4bf2f	0.024016945
231	0xbe110857	-0.14163338
232	0xbcd8adcb	-0.026450058
233	0xbd87a646	-0.06623511
234	0xbdee3eba	-0.11633058
235	0x3d6836b5	0.056692798
236	0x3b04875f	0.002022229
237	0xbda0e05f	-0.078552954
238	0x3c96bc00	0.018400192
239	0xbd158add	-0.036509383
240	0xbcfc1bbc	-0.030774944
241	0xbdd3c615	-0.103405155
242	0xbe09c72b	-0.13454883
243	0x3cc28024	0.023742743
244	0xbd312fcc	-0.043258473
245	0x3d564c24	0.052318707
246	0xbdd49fee	-0.10382067
247	0x3b58e234	0.0033093812
248	0x3cf62a1b	0.030049374
249	0x3ca736c8	0.020411864
250	0xbc4e413f	-0.012588798
251	0x3d9299f0	0.071582675
252	0xbd5c4fed	-0.05378716
253	0xbcf28d48	-0.029608384
254	0x3d707b48	0.05871132
255	0x3df8ce3e	0.121487126

gnn1_layers.1.W2.weight f4 [64, 64]
0	0xbc4e2252	-0.012581425
1	0xbb702281	-0.003664166
2	0xbe02c645	-0.12770946
3	0xbddab59e	-0.10679172
4	0xbe208189	-0.15674414
5	0xbd4705d4	-0.048589543
6	0xbcd27c41	-0.025694015
7	0xbddd4789	-0.1080466
8	0x3d1f04cc	0.038822934
9	0xbdb5c2de	-0.088750586
10	0xbda7564a	-0.08170755
11	0x3cdf0200	0.027222633
12	0xbd59da1b	-0.053186517
13	0xbca779e4	-0.020443864
14	0x3c3c7c63	0.0115042655
15	0xbe30148e	-0.17195341
16	0xbdbad6ce	-0.09123002
17	0x3c5a46e6	0.013322568
18	0xbe2028cb	-0.15640561
19	0xbd7638d3	-0.060112786
20	0x3c81ea7c	0.015858881
21	0xbd51d352	-0.05122692
22	0xbdd91a11	-0.10600675
23	0xbc9984bb	-0.018740049
24	0xbe413c82	-0.18870738
25	0x3c95efe4	0.018302865
26	0x3c84f879	0.016231762
27	0xbddadfc3	-0.106872104
28	0xbd393848	-0.04521969
29	0xbdcd432d	-0.100225784
30	0x3d170b03	0.036875736
31	0xbe08b232	-0.13349226
32	0xbd0d0d22	-0.034436353
33	0xbe5e2969	-0.21695484
34	0xbcf2cd42	-0.02963889
35	0xbc62fd24	-0.013854299
36	0xbd32312f	-0.043503936
37	0xbddc5017	-0.107574634
38	0xbd8e1067	-0.06936722
39	0x3cb06f6d	0.021537507
40	0xbcd0e596	-0.0255001
41	0xbcec9ea8	-0.028884247
42	0xbe3fd4fc	-0.18733591
43	0x3c407310	0.011746183
44	0xbe084949	-0.13309206
45	0x3ae3cf71	0.0017380548
46	0xbccdcce0	-0.025122106
47	0xbd7602ca	-0.060061254
48	0xbe2ea9f3	-0.17057018
49	0xbde4b2ce	-0.11166917
50	0xbd9e33c4	-0.07724717
51	0xbe538a8c	-0.2065832
52	0xbdb1bd69	-0.08678705
53	0x3d94bfa8	0.07263118
54	0x3a4727b0	0.00075971615
55	0x3b9c48c6	0.0047694175
56	0xbdd68b72	-0.10475816
57	0xbd9619a7	-0.073291115
58	0xbe3b78f2	-0.18307856
59	0xbc8156cc	-0.015788458
60	0xbda74dc7	-0.08169132
61	0x3ca8bfea	0.020599324
62	0xbdacbf63	-0.084349416
63	0x3df4d62a	0.11954911
64	0x3af5a821	0.0018742123
65	0x3d3ef620	0.04662144
66	0xbd8ba733	-0.06819
67	0xbe21edb2	-0.1581333
68	0xbe21e146	-0.15808591
69	0xbe362fa5	-0.17791612
70	0xbd20e217	-0.039278116
71	0xbe207a62	-0.15671685
72	0xbdce9e0e	-0.1008874
73	0x3b62f3c9	0.003463017
74	0x3d5b77da	0.053581096
75	0xbdbb32b8	-0.09140533
76	0x3cd8ff13	0.026488816
77	0xbd8e6433	-0.06952705
78	0xbdae38ec	-0.08506951
79	0xbd9949de	-0.07484792
80	0xbdef123c	-0.116734
81	0xbcd3b49f	-0.025842963
82	0xbd787ff5	-0.060668904
83	0xbdf7b970	-0.12095916
84	0x3c9f5a42	0.019452218
85	0xbded5b93	-0.11589732
86	0xbe143020	-0.14471483
87	0xbc887e90	-0.016661912
88	0xbd8ab67b	-0.06773087
89	0xbe03f57b	-0.12886612
90	0xbe25fc9b	-0.16209643
91	0xbdc7b166	-0.09750633
92	0xbdc402bc	-0.09570834
93	0x3c01f4e1	0.007931919
94	0xbd9ae140	-0.07562494
95	0x3b8dcba1	0.004327253
96	0x3d793968	0.060845762
97	0xbd4cbede	-0.049986713
98	0xbda26884	-0.07930091
99	0xbdff0600	-0.12452316
100	0xbd02b7ec	-0.031913683
101	0xbe2ccc63	-0.16874842
102	0xbdf7bd3a	-0.12096639
103	0x3d225128	0.039628178
104	0xbdacae7a	-0.08431716
105	0x3dce8568	0.10084039
106	0x3c64d469	0.013966658
107	0xbdb0f57f	-0.08640575
108	0xbe2485cc	-0.16066664
109	0x3d2532ba	0.04033158
110	0x3c2c8710	0.010530248
111	0x3d6ddfbc	0.058074698
112	0xbe3142d6	-0.17310652
113	0xbd0c79e4	-0.03429593
114	0xbe2bc7a3	-0.16775374
115	0xbd9a12fb	-0.075231515
116	0xbe2db09c	-0.16961902
117	0xbde90154	-0.113772064
118	0xbd5c2821	-0.053749207
119	0x3d816454	0.06317964
120	0xbd4ec122	-0.050477155
121	0xbd92b5d2	-0.07163586
122	0x3d67455c	0.05646263
123	0xbd471e39	-0.048612807
124	0xbe04f796	-0.12985072
125	0x3c9f2d5c	0.019430809
126	0x3db6ab20	0.08919358
127	0x3dddfa2a	0.10838731
128	0x3dbc8b32	0.09206237
129	0x3d0efca4	0.034908906
130	0xbd1adba7	-0.037807133
131	0x3d061832	0.03273792
132	0xbd2e1bd8	-0.042507023
133	0xbcf716e7	-0.030162288
134	0x3e060912	0.13089398
135	0xbdea5193	-0.1144134
136	0x3dc32fcb	0.095306
137	0xbd9ecf34	-0.077543646
138	0xbcdeb252	-0.02718464
139	0x3b9b9902	0.0047484646
140	0xbde67c7f	-0.112542145
141	0x3d0be5bc	0.03415464
142	0xbd27b98f	-0.040948447
143	0x3dc38d06	0.095483825
144	0xbd6fa194	-0.058503702
145	0x3cbf675b	0.023364713
146	0x3cd9bc8a	0.02657916
147	0xbe0f4078	-0.13989437
148	0x3de19558	0.11014813
149	0xbd4c2cd9	-0.049847458
150	0xbd129fef	-0.035797056
151	0xbc7b5594	-0.015340228
152	0xbad35825	-0.0016124292
153	0x3d6faa58	0.05851206
154	0xbd40b0fd	-0.04704379
155	0xbe01da11	-0.12680842
156	0x3d8c1106	0.068391845
157	0x3d8f3cfb	0.06994053
158	0x3e03b082	0.12860301
159	0x3d86f3ab	0.06589445
160	0x3cfd6de1	0.030936183
161	0x3c46d4d7	0.012135706
162	0x3bcee114	0.0063134525
163	0xbd5bada7	-0.053632405
164	0xbb08f390	-0.0020897128
165	0xbd4fe04c	-0.050751016
166	0x3d219f1b	0.039458375
167	0x3d9a0730	0.07520902
168	0x3dd93a4c	0.10606822
169	0xbdf91f22	-0.12164141
170	0x3de18ff2	0.110137835
171	0xbc59d327	-0.013294972
172	0xbdccb58d	-0.099955656
173	0x3db5b17f	0.08871745
174	0xbd912410	-0.070869565
175	0xbddf737f	-0.10910701
176	0xbcb27966	-0.021786403
177	0xbc6f635f	-0.014611094
178	0x3cf3d159	0.02976291
179	0xbd917948	-0.07103211
180	0x3d81af82	0.063323036
181	0x3d856f00	0.06515312
182	0x3d912b52	0.07088341
183	0xbcf69d70	-0.030104369
184	0x3d353785	0.0442424
185	0x3c0575e6	0.008145785
186	0x3dd72ee6	0.10506992
187	0xbd4d7512	-0.050160475
188	0xbe32ef41	-0.1747408
189	0xbdfe1efc	-0.124082536
190	0x3bf02596	0.0073286993
191	0xbdc29048	-0.09500176
192	0xbdabb05e	-0.08383249
193	0xbdf7726a	-0.120823696
194	0xbd152d9d	-0.036420453
195	0xbe188d43	-0.14897637
196	0x3c8bf481	0.017084362
197	0xbe34b228	-0.17646086
198	0xbe048770	-0.1294229
199	0xbd115c0c	-0.035488173
200	0xbe3bbb92	-0.18333271
201	0xbcf355e4	-0.029704042
202	0xbdddeab8	-0.10835785
203	0xbdfc4ffa	-0.12319942
204	0x3ceb5b3c	0.028730027
205	0xbdc8f024	-0.09811428
206	0xbcfa155f	-0.030527769
207	0xbdd88513	-0.10572257
208	0xb8dd3d06	-0.00010549468
209	0x3d669af0	0.056300104
210	0x3d7f8d13	0.0623904
211	0xbdff3fd3	-0.124633454
212	0xbe32c9df	-0.1745982
213	0xbe17ac35	-0.14811786
214	0xbcc536aa	-0.024073917
215	0xbc5aff8f	-0.013366594
216	0x3c0732b1	0.008251832
217	0xbb941b46	-0.004519853
218	0x3d857f68	0.065184414
219	0xbe1e8fd6	-0.15484557
220	0xbdc8b2ee	-0.09799753
221	0xbdca573b	-0.09879919
222	0x3d1d4f0a	0.038405456
223	0xbe1df38d	-0.15424938
224	0x3d09e250	0.033663094
225	0xbd249379	-0.040179703
226	0x3c80ab0c	0.015706562
227	0x3d83a1f5	0.06427375
228	0x3d7f338f	0.06230503
229	0x3d786e58	0.060652107
230	0xbdb8fb9e	-0.09032367
231	0xbde407c2	-0.11134292
232	0xba72dcda	-0.0009264477
233	0x3dda4f86	0.10659699
234	0xbd63387d	-0.055473793
235	0xbdac2b34	-0.08406678
236	0xbda09502	-0.07840921
237	0xbdc14ed9	-0.09438867
238	0x3d75d7f8	0.060020417
239	0xbe3e6acf	-0.18595432
240	0x3d3daf70	0.04630989
241	0xbd87440c	-0.06604776
242	0xbe080f07	-0.13286982
243	0xbdd29c4a	-0.10283716
244	0xbe0e8022	-0.13916066
245	0xbdde718e	-0.108615026
246	0xbd3b0b2c	-0.04566495
247	0xbdb06cb1	-0.08614481
248	0xbdee576b	-0.116377674
249	0xbd9dba71	-0.077015765
250	0xbd8f87eb	-0.07008346
251	0xba32637f	-0.0006804987
252	0xbe234672	-0.15944842
253	0xbd72d32f	-0.05928343
254	0xbd7cf90a	-0.06176094
255	0xbdd14690	-0.10218537

gnn1_layers.2.W1.weight f4 [64, 64]
0	0x3e3fef4d	0.1874363
1	0x3cb70a4c	0.022343777
2	0xbd36d5f5	-0.04463764
3	0x3db0457c	0.08607003
4	0x3bedcc31	0.0072570075
5	0x3dc47c13	0.09593978
6	0xbd5743e7	-0.05255499
7	0x3e21d6f5	0.15804656
8	0x39b92c10	0.0003531878
9	0xbe15da75	-0.14634116
10	0x3d3e58a3	0.04647125
11	0xbc61a472	-0.013772117
12	0xbb4ae909	-0.0030961654
13	0x3df1a855	0.11799685
14	0x3d12b6e2	0.035818942
15	0x3c2cde2f	0.01055102
16	0x3bde0156	0.0067750616
17	0xbacedb40	-0.0015781894
18	0x3d503264	0.050829306
19	0x3cf005e5	0.029299686
20	0x3cf3cbec	0.029760323
21	0x3e24b596	0.16084895
22	0xbdfd5836	-0.123703405
23	0xbdacae76	-0.08431713
24	0xbc07cdd2	-0.0082888175
25	0xbd0dfc20	-0.034664273
26	0xbcc6bad3	-0.024259007
27	0x3decab7d	0.11556146
28	0x3dd5dd2c	0.10442576
29	0x3dd89706	0.105756804
30	0xbd9dabfc	-0.07698819
31	0xbc722c70	-0.014781103
32	0xbda48edd	-0.080350615
33	0x3c75831e	0.014984874
34	0x3dd554a2	0.10416533
35	0x3c71389c	0.014722969
36	0x3d92ad6c	0.07161984
37	0xbe41f13a	-0.18939677
38	0xbb48749c	-0.0030587083
39	0x3dac9c78	0.084282815
40	0x3d26d893	0.040733885
41	0x3dd0b848	0.10191399
42	0x3d9444b0	0.072396636
43	0xbd86fd4c	-0.06591281
44	0xbd2a5f62	-0.04159487
45	0x3d7d2c6a	0.061809935
46	0xbde2bad4	-0.11070791
47	0xbe0fe22a	-0.14051118
48	0x3dd317cc	0.10307273
49	0x3c8fa9a2	0.017536942
50	0x3d500a8b	0.050791305
51	0xbdec34b6	-0.11533491
52	0x3d9e040f	0.07715618
53	0x3dd8bb1e	0.10582565
54	0x3db8b9a0	0.0901978
55	0xbd49420a	-0.049135245
56	0xbb46f3fa	-0.0030357824
57	0x3ded782f	0.11595189
58	0x3e1eb0be	0.1549711
59	0xbdb45dd4	-0.08806959
60	0x3e0395b7	0.1285008
61	0xbccd766e	-0.025080886
62	0x3a71f1e8	0.0009229467
63	0x3d5fcbba	0.05463765
64	0x3cd08915	0.02545599
65	0xbe17dc38	-0.148301
66	0xbe0b34e7	-0.135944
67	0xbc8137a6	-0.015773606
68	0x3c76efa2	0.015071781
69	0xbdb699a7	-0.089160256
70	0x3e2ed4da	0.17073384
71	0xbd987be7	-0.074455075
72	0xbdfcd080	-0.12344456
73	0xbc510c10	-0.012759224
74	0xbe2a7122	-0.16644719
75	0xbcaeb2cb	-0.02132549
76	0xbe332d1e	-0.1749768
77	0x3d651a9e	0.055933587
78	0xbe1e9e8d	-0.1549017
79	0x3cae9b4c	0.021314286
80	0xbe1d81eb	-0.15381591
81	0xbda04d3e	-0.07827233
82	0xbd8dc674	-0.069226176
83	0x3b7a3e20	0.0038184002
84	0x3c4bdfa7	0.01244346
85	0xbe3530b8	-0.17694366
86	0xbe2b6239	-0.16736688
87	0xbd32955a	-0.043599464
88	0xbd807fa3	-0.06274345
89	0xbd730449	-0.05933026
90	0xbcb4aaac	-0.022054039
91	0xbdad966f	-0.084759586
92	0x3dd807c0	0.10548353
93	0xbd51911f	-0.05116379
94	0xbd6bdedc	-0.057585582
95	0xbc88a7df	-0.01668161
96	0xbe20ceaa	-0.15703836
97	0xbdf56cc3	-0.11983635
98	0x3d1546a8	0.036444336
99	0xbde66538	-0.11249775
100	0xbe37b26a	-0.17939153
101	0x3d802050	0.06256163
102	0xbce46b0e	-0.027883079
103	0xbcc1ede9	-0.023673015
104	0x3dd3f964	0.10350302
105	0xbe3bcda2	-0.18340161
106	0xbdea8533	-0.11451187
107	0xbdf75961	-0.120775945
108	0x3d73edfe	0.05955314
109	0xbde6d872	-0.112717524
110	0xbe11962c	-0.14217442
111	0xbd33b320	-0.043872
112	0xbd44ca45	-0.04804446
113	0xbc1e9b48	-0.009680577
114	0x3d031199	0.031999204
115	0x3cf7473f	0.03018534
116	0xbd416754	-0.047217682
117	0x3d5c7317	0.053820696
118	0x3bd1ee78	0.0064066015
119	0x3bd985f8	0.006638285
120	0xbe2b41bf	-0.16724299
121	0xbd4c2808	-0.049842864
122	0xbdb15d39	-0.08660359
123	0xbe372354	-0.1788457
124	0xbdf96b42	-0.12178661
125	0x3d0f952d	0.035054374
126	0xbc68e6cb	-0.014215182
127	0x3d63329d	0.05546819
128	0x3ba1fc11	0.0049433787
129	0xbd79e6f7	-0.06101128
130	0x3d39294b	0.045205396
131	0xbd0c89e3	-0.034311187
132	0xbdc84eb6	-0.09780638
133	0xbde823fa	-0.11334987
134	0x3bd1e902	0.0064059505
135	0xbb70111e	-0.0036631296
136	0x3ce8543c	0.028360479
137	0xbcb1e380	-0.021714926
138	0xbe4aa27a	-0.19788542
139	0xbd6dc11e	-0.0580455
140	0xbd55b09a	-0.052170373
141	0xbe1009f9	-0.14066304
142	0xbd5303d6	-0.05151733
143	0xbd99f9c9	-0.07518346
144	0x3cce0f42	0.02515376
145	0xbd9ffa92	-0.07811464
146	0xbd7cdee0	-0.061735988
147	0x3cbbe8ae	0.022938099
148	0xbd910233	-0.070804976
149	0xbda65ed4	-0.08123556
150	0xbc129b34	-0.008948136
151	0x3d2d029e	0.042238824
152	0xbc0d0ae1	-0.008608551
153	0xbd845759	-0.06461973
154	0x3d0fde46	0.035124086
155	0xbe038187	-0.1284238
156	0x3de23eee	0.11047159
157	0xbe1ea8dd	-0.15494104
158	0x3b161a80	0.0022903979
159	0x3d5bfd67	0.05370846
160	0xbc73d9a4	-0.014883433
161	0xbdb0a489	-0.086251326
162	0x3d9db89c	0.07701227
163	0xbb57f879	-0.0032954498
164	0xbe4171d4	-0.18891078
165	0xbc644250	-0.013931826
166	0xbe280fe8	-0.16412318
167	0xbdb22c33	-0.086998366
168	0xbda90f81	-0.0825491
169	0xbe07dfd2	-0.13268974
170	0xbe049902	-0.12948993
171	0x3b685127	0.0035448761
172	0xbd83e999	-0.064410396
173	0xbe3cda76	-0.18442711
174	0xbd80ae43	-0.06283238
175	0xbdfbc2a6	-0.122929856
176	0xbe15b92b	-0.14621417
177	0xbb27a9ca	-0.002558338
178	0x3d11a1b4	0.035554603
179	0xbdcc2a89	-0.099690504
180	0xbe206b6d	-0.1566598
181	0xbcc0a0f9	-0.023514258
182	0xbe37c54e	-0.1794636
183	0xbbe3202b	-0.006931325
184	0x3c514d43	0.012774768
185	0xbbf4dec2	-0.007472844
186	0xbd080145	-0.033204336
187	0xbd0c1b72	-0.03420586
188	0xbe1f9f6e	-0.15588161
189	0xbe09da14	-0.13462096
190	0x3c578bef	0.013155921
191	0x3cf636d0	0.030055434
192	0xbd684f4f	-0.05671626
193	0x3dbcc324	0.092169076
194	0xbe276d75	-0.16350348
195	0x3ce6e8d9	0.028187202
196	0xbb9782d5	-0.0046237507
197	0xbbd04e1a	-0.0063569667
198	0x3d819ece	0.06329118
199	0xbdc46093	-0.095887326
200	0x3e280cdf	0.1641116
201	0x3c8cdb18	0.017194316
202	0x3e4b064f	0.19826625
203	0x3d5b3d8f	0.053525504
204	0xbd4b2029	-0.049591217
205	0x3e156b1b	0.14591639
206	0x3e1dc4cc	0.15407103
207	0xbda5c75b	-0.08094665
208	0xbe27a5ca	-0.16371837
209	0xbd683318	-0.05668935
210	0xbd2ded10	-0.04246241
211	0xbcf3c32d	-0.029756153
212	0xbe0f071a	-0.13967553
213	0xbe135a90	-0.14390016
214	0xbe1d5cf3	-0.15367489
215	0xbd146028	-0.036224514
216	0x3cc4eeee	0.024039712
217	0xbe3c6d76	-0.18401131
218	0xbd83da27	-0.06438094
219	0xbe0c7e81	-0.13720132
220	0xbd57591c	-0.052575216
221	0xbdc7da16	-0.097583935
222	0x3d703270	0.05864185
223	0x3cc49693	0.02399758
224	0x3d13ebb4	0.036113456
225	0xbd654a01	-0.05597878
226	0xbab43880	-0.0013749748
227	0x3e2c6be8	0.16838038
228	0xbb8477c3	-0.004042597
229	0xbcd49dd0	-0.025954157
230	0x3cc96eb6	0.024588924
231	0xbd276e99	-0.04087696
232	0x3de07473	0.10959711
233	0x3d086a4f	0.03330451
234	0xbe006b98	-0.12541044
235	0xbc5552c5	-0.013020222
236	0xbb339369	-0.0027401096
237	0xbd37913c	-0.04481624
238	0xbcd32833	-0.025776004
239	0x3dc198f0	0.09452999
240	0xbd46f797	-0.048575964
241	0xbdac787a	-0.084214166
242	0xbddf51a4	-0.109042436
243	0xbe12734e	-0.14301798
244	0x3d64f950	0.055901825
245	0xbe4b24a2	-0.19838193
246	0xbd4047cc	-0.04694347
247	0xbdd79eee	-0.1052836
248	0xbe367fbd	-0.17822166
249	0x3d681bc0	0.05666709
250	0xbdcd7b05	-0.1003323
251	0xbe018c80	-0.12651253
252	0xbcea8fb5	-0.028632978
253	0x3d765c5d	0.06014668
254	0x3cd8e011	0.02647403
255	0xbd574fe7	-0.052566435

gnn1_layers.2.W2.weight f4 [64, 64]
0	0xbac618cf	-0.0015113595
1	0x3df2ee47	0.11861854
2	0xbdede170	-0.116152644
3	0xbcd18c66	-0.025579643
4	0x3d9d4496	0.07679097
5	0x3dd9dfd4	0.10638395
6	0x3d60793b	0.054803114
7	0x3d9c9edc	0.076474875
8	0x3cf6e9ac	0.03014072
9	0xbd29f688	-0.041494876
10	0x3d9e9cde	0.07744764
11	0xbdbed803	-0.09318545
12	0x3e40a58e	0.18813154
13	0x3d75f05e	0.060043685
14	0x3df3697f	0.11885356
15	0x3bdd8568	0.006760288
16	0x3dc0d977	0.09416478
17	0xbd550575	-0.052007157
18	0xbdd1bfdc	-0.102416724
19	0x3dcb2a44	0.09920171
20	0x3cb30897	0.021854682
21	0x3e386c52	0.18010071
22	0x3c950e56	0.018195312
23	0xbd205a42	-0.039148577
24	0xbd6bb76f	-0.057547983
25	0x3dcfa1e7	0.10138302
26	0x3d2dc4bd	0.042423952
27	0xbda5130a	-0.08060272
28	0xbdbd1460	-0.09232402
29	0xbd9cb473	-0.076516055
30	0xbd5711c0	-0.052507162
31	0xbe2467e8	-0.16055262
32	0x3e10eca0	0.14152765
33	0x3d989232	0.074497595
34	0x3d28eaf4	0.041239694
35	0xbd505137	-0.050858703
36	0x3ca843f7	0.02054022
37	0x3ca46070	0.020065516
38	0xbdc6e708	-0.097120345
39	0x3e24d6b2	0.16097525
40	0xbc99d599	-0.01877861
41	0xbd0c1f69	-0.034209643
42	0xbd99c414	-0.07508102
43	0xbdc9ad5b	-0.09847518
44	0x3dd92625	0.106029786
45	0xbca8a3fc	-0.020586006
46	0xbd80746b	-0.06272205
47	0xbdd5975b	-0.104292594
48	0xbd2802fd	-0.041018475
49	0xbdb6a314	-0.089178234
50	0xbcd5cf23	-0.026099747
51	0x3da65e4c	0.081234545
52	0x3c1f3336	0.0097167995
53	0xbd20e04a	-0.0392764
54	0x3d4b4b05	0.04963209
55	0x3e0d0cbd	0.1377439
56	0xbd1ce5d8	-0.038305134
57	0x3dde8c01	0.108665474
58	0x3d30a20d	0.043123294
59	0xbd3d0805	-0.046150226
60	0x3cb94e07	0.022620214
61	0x3d23d5ea	0.039998926
62	0x3daad713	0.083418034
63	0x3d1b1db7	0.037870135
64	0xbd228f3c	-0.03968738
65	0xbcb12442	-0.021623734
66	0xbe1d0e42	-0.1533747
67	0x3d7769ae	0.06040352
68	0xbe0ff2c7	-0.14057456
69	0x3ce67773	0.02813313
70	0xbda2176a	-0.07914622
71	0xbe19ffc7	-0.15038978
72	0xbc0bec79	-0.008540266
73	0x3da7c65e	0.081921324
74	0xbdc0b823	-0.09410121
75	0xbccd2bd7	-0.025045319
76	0xbe2d10aa	-0.16900888
77	0xbd97bd4f	-0.074091546
78	0x3d4dc0e9	0.0502328
79	0x3d686c54	0.056743935
80	0xbdcc826a	-0.09985812
81	0xbc633dab	-0.013869683
82	0x3dec1a24	0.115284234
83	0xbc606bcc	-0.013697576
84	0xbd182100	-0.037140846
85	0xbe24a39f	-0.16078041
86	0xbcc59641	-0.024119498
87	0xbcda9642	-0.026682977
88	0xbe059955	-0.13046773
89	0x3b1ac1ef	0.0023614129
90	0xbe10fe1c	-0.14159435
91	0x3d742cc2	0.059612997
92	0xbbce1ee0	-0.0062903017
93	0x3ccd3346	0.025048863
94	0xbd0670ac	-0.032822296
95	0xbdfd0888	-0.12355143
96	0x3cfcf925	0.03088052
97	0x3c81bd9f	0.015837489
98	0x3dfb5dc0	0.12273741
99	0xbcbef436	-0.023309808
100	0xbde67727	-0.11253195
101	0xbd965522	-0.073404565
102	0xbe37a2bc	-0.17933172
103	0xbd558a12	-0.052133627
104	0x3e38086e	0.17971966
105	0xbdcfd9e0	-0.10148978
106	0xbdac6701	-0.08418084
107	0x3ce54c1b	0.027990391
108	0x3d51762e	0.051138096
109	0xbcd5cab9	-0.026097642
110	0xbd4d5215	-0.050127108
111	0x3dfa577a	0.12223716
112	0x3d36cfa0	0.0446316
113	0xbe0ef1e2	-0.13959458
114	0xbe16cca1	-0.14726497
115	0xbdb5b903	-0.08873179
116	0xbc2c5533	-0.01051836
117	0xbe0bd440	-0.13655186
118	0xbde89462	-0.11356427
119	0xbd4b7ba2	-0.049678452
120	0xbdbbac13	-0.0916368
121	0x3cc2fef5	0.023803214
122	0x3c9ca76e	0.019122805
123	0x3e102198	0.14075315
124	0x3bd2bef1	0.0064314534
125	0xbe078cbc	-0.1323728
126	0xbe200300	-0.15626144
127	0xbe1381c3	-0.14404969
128	0xbdcb31b5	-0.0992159
129	0x3d1c74a0	0.03819716
130	0xbdc22d87	-0.0948134
131	0x3d5ce9c6	0.05393388
132	0x3c448675	0.011994948
133	0xbe36df36	-0.17858586
134	0x3df1290e	0.11775409
135	0xbde6a7b1	-0.11262453
136	0xbe3ad5b6	-0.18245587
137	0x3d3373d4	0.043811634
138	0xbdfc6f12	-0.123258725
139	0xbe47fb93	-0.19529562
140	0xbe1d7dd3	-0.1538003
141	0x3d053ab0	0.032526672
142	0xbde7416d	-0.11291776
143	0x3d1b50fa	0.037919022
144	0xbe016a0b	-0.12638108
145	0x3d21f41c	0.03953944
146	0xbd00280c	-0.03128819
147	0x3d200f43	0.039077055
148	0xbcb7f2f0	-0.022454709
149	0xbe1de52a	-0.1541945
150	0xbc580fb8	-0.013187341
151	0xbcce59b6	-0.025189262
152	0xbe2ea07c	-0.17053407
153	0xbe332253	-0.17493562
154	0xbd7a5ecb	-0.061125558
155	0xbb7389a3	-0.0037160895
156	0x3dda1fe6	0.106506154
157	0xbdf41836	-0.1191868
158	0xbdefbba6	-0.11705713
159	0xbb41b517	-0.00295574
160	0xbd6991b1	-0.057023708
161	0xbd68ed95	-0.0568672
162	0x3da19f6e	0.07891737
163	0xbd833ba8	-0.06407863
164	0x3cf65b60	0.030072868
165	0x3dc48756	0.09596126
166	0xbd0a195d	-0.033715595
167	0x3d07662b	0.03305642
168	0xbce026d8	-0.027362272
169	0xbe4f53fb	-0.2024688
170	0x3ce1fb43	0.027585631
171	0xbd7a7345	-0.061145086
172	0xbd9c73da	-0.076392844
173	0x3d2ff514	0.042958334
174	0x3cd2fe71	0.025756093
175	0xbdca915c	-0.09891006
176	0xbc3a997f	-0.011389135
177	0xbe194193	-0.14966421
178	0xbdbca6ff	-0.092115395
179	0xbcf4ec21	-0.029897751
180	0xbe03c3eb	-0.12867706
181	0xbe071719	-0.13192405
182	0x3b0ec62c	0.00217856
183	0xbdeaf4d2	-0.11472477
184	0xbce54cc1	-0.0279907
185	0x3d741c1d	0.059597123
186	0xbd497091	-0.049179617
187	0x3db6867a	0.08912368
188	0x3d4b3490	0.049610674
189	0xbe05c0f7	-0.13061891
190	0xbd899c47	-0.06719261
191	0xbe48e08a	-0.19616905
192	0xbde7fc03	-0.11327364
193	0x3d4de018	0.05026254
194	0x3dbb6f76	0.09152119
195	0x3c2d0d87	0.010562307
196	0x3d8209d0	0.06349528
197	0x3cd74e60	0.02628249
198	0xbcf13f4b	-0.029449126
199	0xbdea28a0	-0.1143353
200	0x3e5f6d89	0.21819128
201	0x3d079208	0.03309825
202	0x3ce5bbc6	0.028043639
203	0x3d00c88d	0.03144126
204	0xbc2d0052	-0.010559158
205	0x3d43839f	0.047732946
206	0x3d2314a8	0.03981462
207	0x3d9471fc	0.07248303
208	0xbc009d8b	-0.007850061
209	0xbccfbcac	-0.02535852
210	0xbd0b96f8	-0.034079522
211	0x3dc1b3b5	0.094581045
212	0xbe3d7ff4	-0.18505841
213	0xbe1ae929	-0.15128006
214	0xbe2183fa	-0.15773001
215	0x3d37954a	0.044820108
216	0x3d18ebae	0.037334137
217	0xbddbbd10	-0.1072942
218	0x3c9ad17e	0.018898722
219	0xbdc7068b	-0.09718045
220	0x3d990ce0	0.07473159
221	0xbdb96282	-0.09051992
222	0xbd5446e8	-0.051825434
223	0x3dc60ec3	0.09670784
224	0x3e01db54	0.12681323
225	0xbd103de0	-0.03521526
226	0xbc156a40	-0.00911957
227	0x3d9a8c82	0.07546331
228	0xbd18b649	-0.037283216
229	0x3df990dc	0.12185833
230	0xbe2db3ab	-0.16963069
231	0x3d3ef193	0.046617102
232	0x3dff5eb6	0.124692366
233	0xbdfd1290	-0.12357056
234	0xbdddd0e7	-0.108308606
235	0x3dd67838	0.10472149
236	0xbe1dd88c	-0.15414637
237	0x3e353057	0.17694221
238	0xbddf3c46	-0.10900168
239	0x3d4440a0	0.047913194
240	0xbd1329b0	-0.03592843
241	0xbddea6ee	-0.10871683
242	0xbe35f48e	-0.17769071
243	0xbd5017b6	-0.050803863
244	0xbd51a6b4	-0.05118437
245	0xbddf6ad8	-0.10909051
246	0xbd0a54f5	-0.033772428
247	0xbdd49e0a	-0.10381706
248	0x3c39cdb8	0.011340551
249	0xbe307f03	-0.17235951
250	0xbe228b73	-0.15873508
251	0x3bd5914a	0.006517564
252	0xbe0027dd	-0.12515207
253	0x3dcca736	0.099928305
254	0xbdd0dca3	-0.10198333
255	0xbd36d853	-0.044639897

gnn2_layers.0.W1.weight f4 [64, 129]
0	0xbd805577	-0.06266301
1	0x3bed31e1	0.007238612
2	0x3d17a9b0	0.03702706
3	0x3cc47ef8	0.023986325
4	0xbc702769	-0.014657834
5	0x3d6969d9	0.05698571
6	0x3b9dbf47	0.004814062
7	0x3d282b16	0.041056715
8	0xbd1815b6	-0.03713008
9	0xbdf4eb5e	-0.11958955
10	0xbdf2e0ee	-0.11859308
11	0xbe0e7e90	-0.13915467
12	0xbd9b19c1	-0.075732715
13	0xbe389764	-0.18026501
14	0xbda3f924	-0.08006504
15	0xbc22a60a	-0.009927282
16	0x3c02d8cb	0.007986258
17	0xbd05200b	-0.03250126
18	0xbbe366c5	-0.0069397413
19	0x3b786064	0.003789925
20	0xbd57e965	-0.052712817
21	0xbdfeb61a	-0.12437077
22	0x3c89ba0b	0.016812345
23	0xbd004dac	-0.031324074
24	0x3d132ab5	0.0359294
25	0xbdf391d4	-0.11893049
26	0x3d9cc91e	0.076555476
27	0xbe15f807	-0.14645396
28	0x3c7a4f6e	0.015277727
29	0xbe44b6b5	-0.19210322
30	0x3da19745	0.078901805
31	0x3c1d219b	0.009590532
32	0xbda8696c	-0.082232326
33	0x3dff6d7f	0.124720566
34	0x3d843f38	0.064573705
35	0xbc3df7b3	-0.011594701
36	0x3d1da98a	0.038491763
37	0xbdae757c	-0.08518502
38	0xbd9aa003	-0.07550051
39	0x3c4d8441	0.012543739
40	0x3dd06975	0.10176364
41	0xbd74c969	-0.059762392
42	0xbdb61643	-0.08890965
43	0xbd99785e	-0.07493661
44	0x3d00ac8d	0.031414557
45	0xbc9cbcda	-0.01913302
46	0x3e108c35	0.14115985
47	0xbdaaf2dc	-0.08347103
48	0xbd08ff98	-0.03344688
49	0xbd64f522	-0.05589784
50	0xbd88f9d6	-0.066882774
51	0xbb28cc2f	-0.0025756469
52	0xbd71bc6d	-0.059017587
53	0xbdeca19a	-0.115542606
54	0xbd34eb78	-0.044169873
55	0xbd82a34a	-0.06378801
56	0xbdd9d4ee	-0.10636316
57	0x3d05b068	0.032638937
58	0xbebf8677	-0.37407276
59	0x3db80f2c	0.08987269
60	0xbc3b55db	-0.011434044
61	0xbc468258	-0.012116037
62	0x3d896bf6	0.06710045
63	0xbcedbcc2	-0.02902067
64	0xbd842211	-0.0645181
65	0x3b476491	0.0030424932
66	0xbd4aef5a	-0.04954467
67	0x3d8865fa	0.066600755
68	0x3e13be00	0.14427948
69	0xbc848205	-0.01617528
70	0x3be0e9f7	0.0068638283
71	0x3da7dcba	0.08196397
72	0xbe077541	-0.13228323
73	0xbdea9a9d	-0.114552714
74	0xbd93ddca	-0.07220037
75	0x3c8f34cc	0.01748123
76	0x3d5c2f3c	0.053755984
77	0xbe154c7f	-0.14579962
78	0xbdbe2792	-0.09284891
79	0xbdce709d	-0.10080073
80	0xbde6ecf9	-0.11275668
81	0xbd3cc4c9	-0.046086106
82	0xbdf5479b	-0.11976548
83	0xbc97caf2	-0.018529389
84	0xbd8ec256	-0.069706604
85	0xbc8f8ea0	-0.017524064
86	0xbd0cd68c	-0.034384295
87	0xbc732fe7	-0.014842964
88	0x3e0876c6	0.13326558
89	0xbc8ad0af	-0.016945211
90	0x3cd3e369	0.025865274
91	0xbccda6c8	-0.025103942
92	0xbdaf0d28	-0.08547431
93	0x3d9b99d4	0.075977
94	0x3cd720ce	0.02626076
95	0xbdcd3268	-0.1001938
96	0xbd2c2607	-0.042028453
97	0x3c337341	0.010952772
98	0xbd02f00a	-0.0319672
99	0xbdabde56	-0.083920166
100	0xbcffa4f1	-0.03120658
101	0xbd9c73a8	-0.07639247
102	0xbdf89e28	-0.12139541
103	0xbe18a7bd	-0.14907737
104	0xbb6bd12c	-0.003598283
105	0xbda7ca03	-0.081928276
106	0xbe835f5b	-0.25658688
107	0x3ccffa8e	0.025388028
108	0x3de49358	0.11160916
109	0xbb388692	-0.0028156382
110	0x3de42f7b	0.11141869
111	0xbd07b13e	-0.033128016
112	0xbd941ffb	-0.07232662
113	0xbd9b4b98	-0.07582778
114	0xbd9bc938	-0.07606739
115	0xbbba51a3	-0.0056860014
116	0xbd304645	-0.043035764
117	0xbdf13b74	-0.11778918
118	0xbcf0ec71	-0.029409619
119	0xbe3dff1b	-0.18554346
120	0xbbb9f6c3	-0.0056751682
121	0xbd657f7f	-0.056029793
122	0xbe847ebc	-0.2587794
123	0x3c030a53	0.007998067
124	0xbd5bfd9e	-0.053708665
125	0xbd5a445b	-0.053287845
126	0x3c86f30d	0.016473318
127	0xbdd6af8d	-0.104827024
128	0xbdb23994	-0.087023884
129	0xbdcdf8c5	-0.10057215
130	0x3ba45f9a	0.0050162794
131	0x3cf5aee0	0.029990613
132	0xbd9b2fde	-0.07577489
133	0x3e161334	0.14655763
134	0xbcbe98c8	-0.023266211
135	0x3cf05517	0.029337449
136	0x3d82a32c	0.06378779
137	0xbc9019be	-0.0175904
138	0x3cff5202	0.031167034
139	0x3dcf6327	0.10126334
140	0x3ce1bfac	0.027557217
141	0xbd814256	-0.06311481
142	0x3d822aae	0.06355797
143	0x3d3143cf	0.043277558
144	0x3d91adf0	0.07113254
145	0x3b4007d9	0.0029301553
146	0x3d5c604b	0.05380277
147	0x3b5674ee	0.0032723504
148	0x3e002fa3	0.12518172
149	0xbdfe69a8	-0.12422496
150	0xbc9e4140	-0.019318223
151	0x3d32a86a	0.043617643
152	0x3dbc7ec8	0.09203869
153	0x3e068bd9	0.13139285
154	0x3ca54c0f	0.02017787
155	0x3c84f40d	0.016229654
156	0x3e0ef071	0.13958909
157	0x3e1011ba	0.14069262
158	0x3dd9bd8d	0.10631857
159	0xbc6d4f45	-0.014484231
160	0x3d95da89	0.07317073
161	0xbd57cf70	-0.052688062
162	0xbbf99a6c	-0.0076172855
163	0x3d0af4bd	0.033924807
164	0x3cb9bab1	0.02267203
165	0x3db2d188	0.08731371
166	0x3c76b70b	0.015058289
167	0x3d98de08	0.07464224
168	0x3d9b9f5a	0.07598753
169	0x3d531544	0.051533952
170	0x3d4adbb8	0.049525946
171	0xbc46b0e9	-0.01212714
172	0x3d59e84f	0.053200062
173	0x3df5535b	0.119787894
174	0xbc91cc33	-0.017797565
175	0xb9e26960	-0.0004318459
176	0xbce79b86	-0.028272402
177	0xbd920966	-0.07130699
178	0x3daded93	0.08492579
179	0x3db898b2	0.09013499
180	0x3cceb301	0.02523184
181	0xbd1e3f0d	-0.03863435
182	0x3dec932d	0.11551509
183	0x3d8c47a6	0.06849603
184	0xbe08bd1d	-0.13353391
185	0xbb31356f	-0.0027039906
186	0x3d0a4a19	0.03376207
187	0xbd953d1e	-0.07287048
188	0x3cc1cedf	0.023658214
189	0x3d2f4448	0.042789727
190	0xb98e84c3	-0.00027183266
191	0xbdac6753	-0.08418145
192	0x3d8cf5d7	0.06882828
193	0x3c334c7b	0.010943527
194	0x3da16771	0.07881058
195	0x3e0eeb2d	0.139569
196	0xbc3e09ef	-0.011599048
197	0x3cf33036	0.029686075
198	0x3be9ed8a	0.0071389126
199	0xbcc84fab	-0.024452051
200	0x3bc5ba08	0.0060341395
201	0x3d88073e	0.06642006
202	0x3e0dd2c2	0.13849929
203	0xbcd30317	-0.02575831
204	0x3dec178b	0.11527928
205	0xbc2b86b8	-0.010469131
206	0x3cb006ab	0.021487555
207	0x3dc94429	0.09827454
208	0x3e2b21bd	0.16712089
209	0x3a192361	0.00058417587
210	0x3ddd03ad	0.10791717
211	0x3d652f2d	0.055953193
212	0x3dbded34	0.092737585
213	0xbc2117ab	-0.009832303
214	0x3ccc7b53	0.02496115
215	0x3dd9e6d2	0.106397286
216	0x3e2d3952	0.16916397
217	0x3e01204f	0.12609981
218	0x3d674bb1	0.05646867
219	0x3d560952	0.052254982
220	0x3dc00b84	0.093771964
221	0x3df9c2ce	0.12195359
222	0x3cac72e2	0.021050874
223	0x3d938830	0.0720371
224	0x3c4cc87a	0.012498969
225	0x3e02e952	0.12784317
226	0x3dae3ead	0.08508048
227	0xbca916cd	-0.020640755
228	0x3d1b0118	0.03784284
229	0x3e14f79f	0.14547585
230	0x3d1bf686	0.0380769
231	0x3c8611d4	0.016365923
232	0x3e234c49	0.15947069
233	0xbbf5dbb2	-0.0075029964
234	0xbbec5dc0	-0.0072133243
235	0xbe2d9fe0	-0.16955519
236	0x3d08701e	0.03331005
237	0x3dbd2334	0.0923523
238	0xbd23f305	-0.040026683
239	0x3dcf91ff	0.101352684
240	0xbd0b5ceb	-0.03402416
241	0x3d6ef973	0.058343362
242	0xbd0639b2	-0.032769866
243	0x3e05459f	0.1301484
244	0x3d918f01	0.07107354
245	0x3de25334	0.11051026
246	0x3d8c4805	0.06849674
247	0x3dc3ced9	0.095609374
248	0xbe0f7f8c	-0.14013499
249	0x3c542f83	0.012950781
250	0x3e05c30c	0.13062686
251	0xbe26889f	-0.16263054
252	0x3e0032b5	0.12519343
253	0x3df3fc12	0.11913313
254	0x3c6b9c04	0.014380459
255	0xbdc88391	-0.09790719
