checkpoints/proteins_1gnn.pt (torch, 89189 bytes, 10 tensors)

layers.0.W1.weight f4 [64, 3]
0	0xbea70a1f	-0.3262491
1	0x3e1bbae5	0.15208013
2	0xbf0e124f	-0.55496687
3	0x3f2619fa	0.6488339
4	0xbfc90d16	-1.5707119
5	0x3f220e57	0.6330313
6	0x3e0c42c1	0.1369734
7	0xbdfd6872	-0.12373437
8	0xbe6e1c95	-0.2325309
9	0xbe8cb712	-0.27483422
10	0xbf01fdfa	-0.5077816
11	0x3dc3381d	0.09532187
12	0x3eb8bbf5	0.360809
13	0xbeffe75f	-0.4998121
14	0xbe03def6	-0.12878022
15	0x3ecc8262	0.39943224
16	0x3e2e6d4e	0.17033884
17	0xbd5b4728	-0.053534657
18	0xbf205d88	-0.6264272
19	0x3eb3298b	0.34992632
20	0xbe073612	-0.1320422
21	0xbf3e9270	-0.74442196
22	0x3ea69a0f	0.32539412
23	0xbf08a8b6	-0.5338243
24	0xbe71957f	-0.23592184
25	0x3e9102ca	0.2832244
26	0xbec05c04	-0.37570202
27	0xbeefc7b6	-0.46832055
28	0xbe0a4f91	-0.13506915
29	0xbe2dfb67	-0.16990434
30	0xbecbca79	-0.39802912
31	0xbf4eaaa2	-0.80729115
32	0x3ea3323b	0.3187426
33	0xbf0b780d	-0.5448006
34	0xbf3ef0fa	-0.7458645
35	0xbe6e2162	-0.23254922
36	0xbd24c039	-0.04022238
37	0xbd90267e	-0.07038592
38	0xbf141ae8	-0.57853556
39	0x3e9daed5	0.3079745
40	0x3d3ea006	0.04653933
41	0xbe010fea	-0.12603727
42	0x3d2b99c6	0.041894697
43	0xbdba9f45	-0.091124095
44	0x3f8a6b1e	1.081394
45	0x3e9ac2d0	0.30226755
46	0xbf0065a4	-0.5015509
47	0x3e23b21f	0.15985917
48	0xbe0a195d	-0.13486238
49	0x3db6041c	0.088875026
50	0x3e0f7b72	0.14011934
51	0x3e4caecc	0.19988555
52	0xbf21e1f9	-0.6323543
53	0x3d886b93	0.06661143
54	0xbf943f38	-1.1581793
55	0x3e1c0ca3	0.15239196
56	0xbf85ed9b	-1.0463136
57	0xbe882074	-0.2658726
58	0xbda2f88c	-0.07957563
59	0xbe9c3f27	-0.3051693
60	0xbeb39847	-0.35077116
61	0x3dc8a06e	0.097962245
62	0x3f5bfea3	0.8593542
63	0x3dc23a0a	0.09483726
64	0xbe312e8b	-0.17302911
65	0xbe5a54f8	-0.21321476
66	0x3e37e81d	0.17959638
67	0xbea5b6af	-0.3236594
68	0x3e4f6f72	0.20257357
69	0x3d920747	0.07130294
70	0xbf312fbe	-0.69213474
71	0xbf4b0cfe	-0.793167
72	0xbecab42c	-0.39590585
73	0xbebfc7ec	-0.37457216
74	0xbe984f62	-0.29748064
75	0xbec0dde2	-0.37669283
76	0xbe1068a1	-0.14102413
77	0x3f0d6a96	0.5524076
78	0xbedf0a4c	-0.43562543
79	0x3f48ee5b	0.784887
80	0x3ea573e2	0.32314974
81	0xbf1b0002	-0.60546887
82	0x3f6a3bb0	0.91497326
83	0xbf4988e5	-0.7872451
84	0xbea1ff22	-0.31639963
85	0xbe66248a	-0.22474876
86	0xbd31ffd0	-0.043456852
87	0xbeba718e	-0.3641476
88	0xbefe4891	-0.4966474
89	0xbdd659de	-0.104663596
90	0xbede1aa1	-0.4337969
91	0x3e8d24a1	0.27567008
92	0xbef8bd89	-0.48582104
93	0xbf3dfe60	-0.7421627
94	0x3e8ee729	0.27910736
95	0xbf035a9d	-0.5131014
96	0x3e6ceac5	0.23136432
97	0xbde84d1c	-0.113428324
98	0x3ccb885c	0.024845295
99	0xbf4d58a9	-0.8021341
100	0x3e66ec3f	0.22551058
101	0xbe994748	-0.29937196
102	0xbe91fa6e	-0.28511375
103	0x3f82e756	1.0226848
104	0x3ccee3a8	0.02525504
105	0xbdab35b4	-0.083598524
106	0x3ec8409d	0.39111796
107	0xbec0eca5	-0.37680545
108	0xbf00e904	-0.50355554
109	0x3d61fe4e	0.055174164
110	0x3dd369c7	0.1032291
111	0xbf938536	-1.1525028
112	0x3f55bb86	0.83489263
113	0xbfb04185	-1.3769995
114	0x3edf60e8	0.4362862
115	0x3dc410c0	0.09573507
116	0xbd136c1d	-0.035991777
117	0xbf470042	-0.7773477
118	0x3e303a11	0.1720965
119	0x3ec92252	0.39283997
120	0xbca3b4b9	-0.019983636
121	0x3e639773	0.22225742
122	0x3e9cbc2a	0.30612308
123	0xbe7e1f32	-0.24816588
124	0xbe04fd30	-0.12987208
125	0x3e2139bc	0.1574468
126	0xbedafe10	-0.4277196
127	0x3ca48ab3	0.020085668
128	0xbd65e8b5	-0.05613013
129	0xbeddd61c	-0.43327415
130	0xbd9b59b9	-0.075854726
131	0x3c59050b	0.013245831
132	0x3e1dc786	0.15408143
133	0x3c5ee167	0.013603545
134	0x3e335023	0.17511038
135	0xbe643cd2	-0.22288826
136	0xbea475f2	-0.32121235
137	0xbe17b50f	-0.14815162
138	0xbd896a50	-0.067097306
139	0xbf129c0a	-0.57269347
140	0xbdd77738	-0.10520786
141	0x3d8d2efb	0.068937264
142	0xbef1f416	-0.47256535
143	0x3ead0e2e	0.3379988
144	0xbf104c14	-0.56366086
145	0x3e9dc410	0.30813646
146	0xbce18ea1	-0.027533831
147	0xbf3f1cba	-0.7465321
148	0xbd499292	-0.049212046
149	0xbd2d53eb	-0.04231636
150	0xbf80405a	-1.0019639
151	0xbf603c85	-0.87592345
152	0x3f5452eb	0.8293902
153	0x3e7769ec	0.241615
154	0xbeeef258	-0.4666927
155	0x3f4ea07f	0.8071365
156	0xbf08f1fe	-0.5349425
157	0xbf77ec18	-0.96844625
158	0xbe0c3ab9	-0.13694276
159	0xbd4061a2	-0.04696811
160	0xbe3156c0	-0.17318249
161	0x3e4dabc8	0.2008506
162	0xbf5376ff	-0.8260345
163	0x3eac61ca	0.33668357
164	0xbe2c4980	-0.16824913
165	0x3c9ed296	0.019387525
166	0x3defaa97	0.11702459
167	0x3e593be2	0.2121425
168	0xbecc6392	-0.39919716
169	0xbf2468f9	-0.64222676
170	0x3edf881d	0.43658534
171	0xbed7cce6	-0.42148513
172	0xbf1550bb	-0.5832631
173	0xbdbe6288	-0.09296137
174	0x3e77f4a6	0.2421442
175	0xbf063b53	-0.5243427
176	0xbe2c78e8	-0.16842997
177	0x3c8cc93e	0.017185804
178	0x3f344610	0.70419407
179	0x3f44b5cd	0.76839906
180	0x3ea9b763	0.33147725
181	0xbf32f92b	-0.6991145
182	0x3e022961	0.12711097
183	0x3cc04032	0.02346811
184	0xbeafca52	-0.34334046
185	0xbf243fe1	-0.6415997
186	0x3ec98fbc	0.39367473
187	0x3d55031f	0.05200493
188	0xbe92dc0e	-0.28683513
189	0xbd2519d7	-0.040307846
190	0xba5bb800	-0.0008381605
191	0x3e15a390	0.14613175

layers.0.W2.weight f4 [64, 3]
0	0xbeefc080	-0.46826553
1	0x3c3cd03f	0.011524259
2	0xbd214196	-0.03936919
3	0xbfe8ff57	-1.8202924
4	0x3dfb741f	0.12278008
5	0xbf24acd7	-0.6432623
6	0xbd483dcc	-0.04888706
7	0x3e74015f	0.23828648
8	0x3d93c895	0.07215992
9	0xbec169b3	-0.37775955
10	0x3e92d681	0.28679278
11	0xbf4f81e0	-0.8105755
12	0xbebc05b0	-0.3672309
13	0xbe595b82	-0.21226314
14	0xbf2ff476	-0.6873239
15	0xbe10cfa7	-0.14141713
16	0xbf0a31f5	-0.5398248
17	0xbd55b05f	-0.052170154
18	0xbdbb5fd3	-0.091491364
19	0xbe40e925	-0.18838938
20	0xbe7632da	-0.24042836
21	0xbf34d5d6	-0.7063879
22	0xbe284786	-0.16433534
23	0x3d58145f	0.052753802
24	0xbf307fc5	-0.6894496
25	0xbe9fba32	-0.31196743
26	0xbf316237	-0.6929049
27	0xbd232280	-0.039827824
28	0x3e98facb	0.2987884
29	0x3c94ab2d	0.01814803
30	0xbf12e6df	-0.5738353
31	0x3edf47b4	0.43609393
32	0xbe01f7fa	-0.12692252
33	0xbe7173a0	-0.23579264
34	0x3eba026b	0.3632997
35	0xbf114bf6	-0.5675653
36	0xbe4afc40	-0.19822788
37	0xbf09d3c4	-0.53838754
38	0xbdb0539d	-0.08609698
39	0xbcf9e5b7	-0.030505044
40	0xbd9bc132	-0.076052085
41	0xbeb2c872	-0.34918553
42	0xbeed76c4	-0.46379673
43	0x3dabe3a3	0.08393028
44	0xbfbdacd8	-1.4818373
45	0xbe894493	-0.2681013
46	0xbddffe4f	-0.109371774
47	0xbec27a16	-0.3798377
48	0x3c76a97c	0.015055057
49	0xbe0578a8	-0.13034308
50	0x3dd6d0d5	0.1048905
51	0xbe379aeb	-0.1793019
52	0xbf341179	-0.7033916
53	0xbdc369b0	-0.09541643
54	0x3e296915	0.16543992
55	0xbf7ba0a9	-0.9829202
56	0xbf8699b3	-1.0515655
57	0x3c9ddb7c	0.019269697
58	0xbf258622	-0.64657795
59	0xbde892d1	-0.11356128
60	0x3da2ece8	0.079553425
61	0xbf2d9771	-0.67809206
62	0xbf029685	-0.51010925
63	0xbf200238	-0.62503386
64	0x3e7f31e9	0.24921383
65	0x3dfad6a2	0.12247969
66	0xbe3589f5	-0.17728408
67	0x3e1a166c	0.15047616
68	0xbea6f4de	-0.32608694
69	0xbf2b125c	-0.6682489
70	0x3d5fcde4	0.054639712
71	0xbe372555	-0.17885335
72	0x3ddf2706	0.10896115
73	0xbe594964	-0.21219403
74	0x3e84c32d	0.25930157
75	0x3df1679a	0.117873386
76	0x3dbc0875	0.091813006
77	0xbeec9da8	-0.46214032
78	0x3e3e784f	0.18600582
79	0xbf41c728	-0.75694513
80	0x3ebeb4fe	0.3724746
81	0xbf89c25a	-1.0762436
82	0xc026a2d3	-2.603688
83	0x3f0bb318	0.5457015
84	0xbdf0ad28	-0.11751777
85	0xbf04c125	-0.51857215
86	0xbe5655c4	-0.20931154
87	0xbddb6f93	-0.107146405
88	0x3e836ee1	0.2567053
89	0xbcab0b54	-0.020879425
90	0xbc8bcfaf	-0.017066805
91	0xbe70442c	-0.23463506
92	0x3d21712c	0.03941457
93	0x3d5f313f	0.054490324
94	0xbf5890aa	-0.8459574
95	0xbf4a2ad7	-0.7897162
96	0xbe82f59d	-0.25578013
97	0xbf5025cb	-0.8130767
98	0xbf2f36f4	-0.68443227
99	0xbdf621bb	-0.12018152
100	0xbf55fc71	-0.8358832
101	0xbf3a5a70	-0.72794247
102	0xbecc475f	-0.39898202
103	0xbe96883e	-0.2940082
104	0xbf0937b4	-0.5360062
105	0xbe2e5cbd	-0.17027564
106	0xbe57f1a9	-0.2108828
107	0xbe0ac62f	-0.13552164
108	0xbd76d8e6	-0.060265444
109	0xbe939d88	-0.28831124
110	0xbe5e49df	-0.21707867
111	0x3e389cc1	0.18028547
112	0xc001b440	-2.0266266
113	0x3e95555d	0.2916669
114	0xbe176b7a	-0.14787093
115	0xbd584972	-0.052804418
116	0xbe544f0c	-0.20733279
117	0x3df432ec	0.11923775
118	0xbdb97366	-0.09055214
119	0xbebda28b	-0.37038073
120	0x3dcb36ae	0.09922539
121	0xbf08ff28	-0.5351434
122	0xbe97f3b8	-0.2967813
123	0xbe3f6f30	-0.18694758
124	0xbe605482	-0.21907237
125	0xbe5abcaa	-0.21361032
126	0x3dae0ded	0.0849875
127	0x3d71e4de	0.059056155
128	0x3e954aa2	0.29158503
129	0x3e2f11b1	0.17096592
130	0xbf439604	-0.7640078
131	0x3b7db2dc	0.0038711345
132	0x3e22f72f	0.15914606
133	0x3e92d1ac	0.28675592
134	0xbe64f9a4	-0.22360855
135	0x3cc4de20	0.024031699
136	0xbedf17b5	-0.43572775
137	0xbe322c3f	-0.17399691
138	0xbdf6bc08	-0.12047583
139	0xbef6d17c	-0.482067
140	0xbf0cfd7a	-0.55074275
141	0xbf14cdc9	-0.58126503
142	0x3e7368d8	0.23770463
143	0xbcc399da	-0.023877073
144	0xbf51cc7a	-0.8195263
145	0xbf4f45e3	-0.80966014
146	0xbd2421c2	-0.040071256
147	0xbf2c4615	-0.67294437
148	0x3e013ef9	0.12621678
149	0xbe62552c	-0.22102803
150	0x3db22682	0.08698751
151	0xbfa55a62	-1.2918208
152	0x3c5b496d	0.013384205
153	0x3bf867a8	0.007580716
154	0x3e82ce96	0.25548238
155	0xbd260f09	-0.040541682
156	0xbf4942f0	-0.78617764
157	0x3f08b958	0.5340781
158	0xbe86f77c	-0.2636069
159	0xbed4ac03	-0.41537485
160	0xbf37969c	-0.71714187
161	0xbebfda4e	-0.3747124
162	0x3e73ef87	0.23821841
163	0xbe014bdb	-0.12626593
164	0xbe3a8182	-0.18213466
165	0x3e630cdb	0.22172873
166	0x3d79b714	0.060965613
167	0x3d7f44a1	0.06232131
168	0xbde34bf0	-0.11098468
169	0x3e580790	0.21096635
170	0xbf89da2b	-1.0769705
171	0x3cb8e644	0.022570737
172	0xbe8c7a52	-0.27437073
173	0xbd8f72a5	-0.070042886
174	0xbe3e79f9	-0.18601216
175	0xbe97135a	-0.29506952
176	0xbe913ef7	-0.2836835
177	0x3d3ebd84	0.046567455
178	0xbf0bb2e2	-0.5456983
179	0x3dffef61	0.1249683
180	0xbe822158	-0.25416064
181	0xbf05b411	-0.52227885
182	0xbe131247	-0.14362441
183	0xbdf815c6	-0.12113528
184	0xbd656024	-0.05599989
185	0x3ed1f107	0.41004202
186	0xbe74a922	-0.23892644
187	0xbf224289	-0.63382775
188	0xbf22a25d	-0.63528997
189	0xbecba99b	-0.39777836
190	0xbecf32c8	-0.4046843
191	0xbf03b18e	-0.514428

layers.1.W1.weight f4 [64, 64]
0	0xbe2e9b1f	-0.17051362
1	0xbbfa9398	-0.007646989
2	0x3be1e031	0.006893181
3	0x3d67227d	0.056429375
4	0x3cf60ba9	0.030034857
5	0xbd8f4bbc	-0.06996867
6	0xbd163509	-0.036671672
7	0xbe0969f5	-0.13419326
8	0xbc480751	-0.012208776
9	0xbe3a8632	-0.18215254
10	0x39b2639c	0.0003402502
11	0xbd24e244	-0.040254846
12	0x3d651801	0.055931095
13	0xbcfabbe4	-0.030607171
14	0xbdf15173	-0.11783113
15	0x3ce925d8	0.028460428
16	0xbc3929c8	-0.011301465
17	0x3d587431	0.052845184
18	0x3d98844e	0.0744711
19	0x3cd224db	0.02565234
20	0x3ca005d3	0.019534027
21	0xbb40af3f	-0.002940133
22	0x3cd96453	0.026537096
23	0xbda2af53	-0.07943597
24	0x3bf6ae3d	0.007528095
25	0xbd2c6333	-0.04208679
26	0x3bfdec0d	0.0077490867
27	0x3def1f23	0.11675861
28	0x3ce7df20	0.028304636
29	0xbde9732c	-0.113989204
30	0xbdac25fe	-0.08405684
31	0x3d1c02e7	0.038088705
32	0x3daec71f	0.08534073
33	0x3d226291	0.03964478
34	0x3d155807	0.036460903
35	0x3c9d4c30	0.019201368
36	0xbc8c54c0	-0.017130256
37	0x3d4c4410	0.049869597
38	0xbda25886	-0.07927041
39	0xbe1d1de1	-0.15343429
40	0xbd4e247a	-0.050327756
41	0xbd1d2e2c	-0.03837411
42	0xbe0c6d6b	-0.13713615
43	0xbde5429c	-0.11194345
44	0xbdf196cb	-0.117963396
45	0x3d5b8162	0.053590186
46	0x3d44638c	0.047946498
47	0x3d85e1ab	0.065371834
48	0x3d475a24	0.04866995
49	0xbcf266ce	-0.029590037
50	0x3d3059cc	0.043054387
51	0xbd50e548	-0.05099991
52	0xbe2191bf	-0.15778254
53	0xbe097277	-0.13422571
54	0xbdd1ad04	-0.10238078
55	0xbd95d090	-0.07315171
56	0xbc69e252	-0.01427515
57	0xbc9ebd9f	-0.019377528
58	0x3d1ab4dc	0.037770137
59	0xbd4039bd	-0.046930064
60	0xbd54e0b3	-0.051972102
61	0xbe2c8a36	-0.16849598
62	0xbd012981	-0.03153372
63	0xbe09edbf	-0.13469599
64	0xbcb72109	-0.02235462
65	0x3bf51343	0.007479103
66	0x3d49f847	0.04930904
67	0xbdcbf7ed	-0.099593975
68	0xbd8f2fc8	-0.069915354
69	0xbdc703ea	-0.097175434
70	0xbd77db23	-0.06051172
71	0xbca343fd	-0.01992988
72	0xbd809e0a	-0.062801436
73	0xbd5e4852	-0.05426819
74	0xbd351f1f	-0.044219133
75	0xbc5d3ac3	-0.013502779
76	0xbdc8a902	-0.09797861
77	0xbe09d28a	-0.1345922
78	0xbcfa624f	-0.030564455
79	0xbd994df0	-0.074855685
80	0xbdeef7c3	-0.116683505
81	0xbbf7b6d2	-0.0075596357
82	0xbd7156f2	-0.058920808
83	0xbda03b48	-0.07823807
84	0xbdf6eb09	-0.12056548
85	0xbd9cac6e	-0.07650076
86	0xbe2a5683	-0.16634564
87	0xbd0182a6	-0.031618737
88	0xbd6e4d50	-0.0581792
89	0x3c816deb	0.015799483
90	0xbd54ece4	-0.05198373
91	0xbd4d0773	-0.050055932
92	0x3d0b79b8	0.034051627
93	0x3d0f9d57	0.03506216
94	0xbdf3f7a9	-0.11912472
95	0x3c6eba53	0.01457079
96	0x3cfa6e58	0.030570194
97	0xbdaac82a	-0.083389595
98	0xbc876b57	-0.016530676
99	0xbe0a4318	-0.13502157
100	0xbd212af4	-0.039347604
101	0xbd740df0	-0.059583604
102	0xbe149398	-0.14509428
103	0x3d1d404c	0.038391396
104	0xbe2fe7c8	-0.17178261
105	0x3d8000fc	0.06250188
106	0xbe30b2a6	-0.17255649
107	0xbd9a263f	-0.07526826
108	0xbd5772d8	-0.052599758
109	0x3cec005c	0.028808765
110	0xbd394a1c	-0.04523669
111	0xbcc53c58	-0.024076626
112	0x3c9e9fa8	0.01936324
113	0x3c5d11f9	0.013493055
114	0xbd578ba4	-0.052623406
115	0xbc591469	-0.013249495
116	0xbe0ad1e7	-0.13556634
117	0xbdb1e5b0	-0.086863875
118	0x3d523f10	0.051329672
119	0xbe1ac405	-0.15113838
120	0xbda692f3	-0.08133497
121	0xbd99f01e	-0.07516502
122	0x3d7eb076	0.062180005
123	0xbdb25157	-0.087069206
124	0xbe1ef16e	-0.15521786
125	0xbdbbe36e	-0.09174238
126	0x3d840cda	0.06447764
127	0x3d4ae68c	0.049536273
128	0x3d604b15	0.054759104
129	0xbd18b45f	-0.03728139
130	0x3cb00af6	0.021489602
131	0xbe254447	-0.16139327
132	0x3d1137a9	0.035453472
133	0x3cc202d3	0.023682987
134	0x3d03b1bd	0.032151926
135	0xbe013332	-0.12617186
136	0xbda0439d	-0.07825396
137	0xbc6f9b76	-0.014624467
138	0xbe00fc72	-0.125963
139	0xbe0ceb76	-0.13761696
140	0xbe2659d8	-0.1624521
141	0xbce0952b	-0.027414879
142	0x3d014aa4	0.031565323
143	0xbbed5dc3	-0.0072438433
144	0xbd0523f6	-0.032505
145	0xbc4f5943	-0.012655559
146	0xbe140278	-0.14454067
147	0xbcac9351	-0.02106634
148	0xbd84201d	-0.064514376
149	0xbddbfe4f	-0.10741865
150	0x3d913267	0.070896916
151	0xbe021aa7	-0.1270548
152	0xbc81771c	-0.015803866
153	0xbe153fc5	-0.14575107
154	0xbd2d06bf	-0.04224276
155	0xbdcda42b	-0.10041078
156	0x3d288604	0.041143432
157	0xbddd85e0	-0.1081655
158	0x3d3241e8	0.043519884
159	0xbe240196	-0.1601623
160	0x3e094144	0.13403803
161	0xbe1e5e88	-0.15465748
162	0x3c184eaa	0.009296099
163	0xbdd6bcb9	-0.10485215
164	0xbd88eb7e	-0.066855416
165	0xbdb175c1	-0.08665038
166	0x3d22aa76	0.039713345
167	0x3bc3484d	0.0059595467
168	0xbe13cb11	-0.14432932
169	0x3c3c4b50	0.011492565
170	0xbdfbd374	-0.12296191
171	0x3d7563d0	0.05990964
172	0xbc6c42f4	-0.01442026
173	0xbd8216b2	-0.06351985
174	0xbd829a76	-0.06377117
175	0xbbbe12fd	-0.0058006034
176	0xbd4ea9d2	-0.050454922
177	0x3b996765	0.004681515
178	0x3cb4c71e	0.022067603
179	0x3d2d61e9	0.042329703
180	0x3bdcc8dc	0.0067378115
181	0xbdc66055	-0.096863426
182	0x3d55638b	0.052096885
183	0xbd962f2f	-0.07333218
184	0xbd9fbe82	-0.07800008
185	0xbd54b67c	-0.051931843
186	0x3d78afa6	0.060714386
187	0x3d7aeb2f	0.061259445
188	0xbcfe2249	-0.031022208
189	0x3cd8013e	0.02636778
190	0xbe341006	-0.17584237
191	0x3caa2492	0.020769391
192	0xbe29d3f3	-0.16584758
193	0xbc88d120	-0.016701281
194	0xbe1c6f89	-0.15276922
195	0xbdcb3a77	-0.09923261
196	0x3ceb7b24	0.028745241
197	0x3d120612	0.03565032
198	0xbe09ace8	-0.13444865
199	0xbe0246e3	-0.12722354
200	0xbd3215e7	-0.04347792
201	0xbbbc692a	-0.005749841
202	0xbd973afe	-0.07384299
203	0xbdc316b3	-0.09525814
204	0xbe0980be	-0.13428017
205	0xbc909ce8	-0.017652944
206	0x3d9807c5	0.07423357
207	0xbe06027a	-0.13086882
208	0xbc020fc1	-0.007938326
209	0xbc5d4496	-0.013505122
210	0x3d258f1c	0.040419683
211	0xbdcac771	-0.09901322
212	0xbda34b4b	-0.07973345
213	0x3d1e6aa6	0.038675927
214	0x3c8a9b55	0.016919771
215	0x3d8c7b6b	0.068594776
216	0xbdda305f	-0.10653757
217	0xbc81eaad	-0.015858972
218	0x3c5efade	0.013609616
219	0xbe0e68e0	-0.13907194
220	0x3ccb6d38	0.024832353
221	0xbdafb321	-0.08579088
222	0x3c43089d	0.011903909
223	0xbdedf81c	-0.11619589
224	0xbd702043	-0.058624517
225	0x3c8b05c1	0.016970517
226	0xbe325033	-0.17413406
227	0xbe2d462d	-0.16921301
228	0xbdfdf76e	-0.12400709
229	0x3ca4d746	0.020122182
230	0x3cac5b83	0.02103973
231	0xbe2101c6	-0.15723333
232	0xbd6ae869	-0.05735055
233	0xbd87a646	-0.06623511
234	0xbe007a1d	-0.12546583
235	0x3cef0278	0.029175982
236	0xbbf11ee6	-0.0073584197
237	0xbdf38e09	-0.118923254
238	0x3c96bc00	0.018400192
239	0xbcf381e0	-0.029725015
240	0xbcfc1aa7	-0.030774428
241	0xbdcb65f4	-0.099315554
242	0xbdfc5472	-0.12320794
243	0x3c8b0b5a	0.016973186
244	0xbd2a66e7	-0.04160204
245	0xbc6975f9	-0.014249318
246	0xbdee9478	-0.11649412
247	0xbc1cb9fd	-0.009565827
248	0x3d18b319	0.037280176
249	0x3b7ab4da	0.0038254769
250	0xbd4b890b	-0.04969124
251	0x3d355e5f	0.044279452
252	0xbd8410dc	-0.06448528
253	0xbd3a7ce9	-0.04552928
254	0x3d707c49	0.058712278
255	0x3d7bc636	0.061468326

layers.1.W2.weight f4 [64, 64]
0	0xbc0d1aa6	-0.0086123105
1	0x3c90a6e5	0.017657707
2	0xbdebf47a	-0.115212396
3	0xbdd4436c	-0.10364422
4	0xbe127697	-0.14303051
5	0xbd15a8b3	-0.036537837
6	0xbcbf5b85	-0.02335907
7	0xbdd4dd31	-0.103937514
8	0x3d24dc28	0.04024902
9	0xbdab2c43	-0.08358052
10	0xbd9f8f50	-0.077910066
11	0x3d0886ce	0.033331685
12	0x3d074744	0.03302695
13	0xbc214bfd	-0.009844777
14	0x3c46702f	0.012111708
15	0xbe22b65e	-0.1588988
16	0xbd9a850d	-0.07544909
17	0x3d913126	0.070894524
18	0xbd31c8d5	-0.04340442
19	0xbd35704d	-0.04429655
20	0x3cac6af9	0.021047102
21	0xbd3e5c3d	-0.046474684
22	0xbdc6ac23	-0.09700801
23	0xbc4660ce	-0.012108041
24	0xbe38ee8e	-0.18059751
25	0x3cf8c158	0.030365631
26	0x3cbbb9da	0.02291577
27	0xbd4a6562	-0.049413092
28	0xbd393848	-0.04521969
29	0xbdbeede1	-0.093227156
30	0x3d4e7e86	0.05041363
31	0xbd4ee921	-0.050515298
32	0x3dc86a8b	0.097859465
33	0xbd8c525e	-0.06851648
34	0xbccbcf00	-0.024878979
35	0x3c45b088	0.012066014
36	0x3dc1c969	0.09462244
37	0x3d432f4f	0.04765254
38	0xbd71dec7	-0.059050348
39	0x3cf6d1da	0.030129362
40	0xbcaad1b5	-0.02085195
41	0xbcec9ea8	-0.028884247
42	0xbe32a6ad	-0.17446394
43	0x3c63dff7	0.013908378
44	0xbdf6d0b0	-0.12051523
45	0x3bc94719	0.0061425087
46	0xbccdcce0	-0.025122106
47	0xbd660cd4	-0.056164578
48	0xbe28aad8	-0.16471422
49	0xbdd99115	-0.10623375
50	0xbc251fbe	-0.010078369
51	0xbe460b03	-0.19340138
52	0xbdaf6099	-0.085633464
53	0x3c974310	0.018464595
54	0x3c3034ac	0.010754745
55	0x3c7d635f	0.015465586
56	0xbdcf7d51	-0.10131324
57	0xbd838faa	-0.06423886
58	0xbe2c28e4	-0.16812474
59	0xbc5d8980	-0.013521552
60	0xbba64551	-0.005074181
61	0x3ce66cd5	0.028128067
62	0x3d1755bf	0.03694701
63	0x3df4d62a	0.11954911
64	0x3af5a869	0.0018742207
65	0x3d3ef684	0.046621814
66	0xbd8ba733	-0.06819
67	0xbe21edb2	-0.1581333
68	0xbe21e13d	-0.15808578
69	0xbe362fa4	-0.17791611
70	0xbd20e216	-0.039278112
71	0xbe207a62	-0.15671685
72	0xbdce9e08	-0.10088736
73	0x3b62f3e7	0.003463024
74	0x3d5b77dd	0.053581107
75	0xbdbb32b6	-0.09140532
76	0x3cd8ff88	0.026489034
77	0xbd8e6436	-0.069527075
78	0xbdae38d0	-0.0850693
79	0xbd9949da	-0.07484789
80	0xbdef123c	-0.116734
81	0xbcd3b49b	-0.025842955
82	0xbd78c1c7	-0.060731675
83	0xbdf7b96f	-0.120959155
84	0x3c9f5a3c	0.019452207
85	0xbded5b93	-0.11589732
86	0xbe143020	-0.14471483
87	0xbc887e71	-0.016661854
88	0xbd8ab67d	-0.06773088
89	0xbe03f57b	-0.12886612
90	0xbe25fc9b	-0.16209643
91	0xbdc7b107	-0.09750562
92	0xbdc402bc	-0.09570834
93	0x3c01f4ef	0.007931932
94	0xbd9ae141	-0.07562495
95	0x3b8dca64	0.0043271054
96	0x3a4fca22	0.00079265435
97	0xbd4cbedd	-0.04998671
98	0xbda26885	-0.07930092
99	0xbdff0600	-0.12452316
100	0xbd02b7fb	-0.03191374
101	0xbe2ccc63	-0.16874842
102	0xbdf7bd3a	-0.12096639
103	0x3d225129	0.03962818
104	0xbdacae79	-0.084317155
105	0x3dce8568	0.10084039
106	0x3c64d46b	0.01396666
107	0xbdb0f57f	-0.08640575
108	0xbe2485cc	-0.16066664
109	0x3d2532b8	0.040331572
110	0x3c2c8710	0.010530248
111	0x3d6ddfbe	0.058074705
112	0xbe314201	-0.17310335
113	0xbd0c79e2	-0.034295924
114	0xbe2bc7a3	-0.16775374
115	0xbd9a12f9	-0.0752315
116	0xbe2db093	-0.16961889
117	0xbde90154	-0.113772064
118	0xbd5c2821	-0.053749207
119	0x3d816454	0.06317964
120	0xbd4ec119	-0.05047712
121	0xbd92b5cf	-0.071635835
122	0x3d67455e	0.056462638
123	0xbd471e3b	-0.048612814
124	0xbe04f794	-0.12985069
125	0x3c9f2d5c	0.019430809
126	0x3db6ab20	0.08919358
127	0x3dddfa2a	0.10838731
128	0x3d414de1	0.04719341
129	0x3d0cf6a0	0.034414887
130	0xbda7d454	-0.08194795
131	0xbcbd7db4	-0.023131229
132	0xbdd78c20	-0.105247736
133	0xbd418b62	-0.047252066
134	0x3d7b1ad7	0.061304893
135	0xbe21400a	-0.15747085
136	0x3c7daf36	0.015483668
137	0xbde7081b	-0.11280843
138	0xbd8bc5e9	-0.06824858
139	0xbd55f306	-0.05223372
140	0xbdcc2179	-0.09967322
141	0xbcb6320b	-0.02224066
142	0xbdd99b76	-0.10625355
143	0x3d8c6840	0.068558216
144	0xbda4989a	-0.08036919
145	0x3cecbb27	0.028897835
146	0xbcf55328	-0.029946879
147	0xbdf718ce	-0.12065278
148	0x3d92689b	0.07148858
149	0xbdbaf6d5	-0.09129111
150	0xbdb5265a	-0.088452056
151	0xbd9072b3	-0.07053127
152	0xbd0361e5	-0.03207578
153	0x3aeed5dd	0.0018221695
154	0xbd7e48c9	-0.062081132
155	0xbda6193d	-0.081102826
156	0x3d8c1106	0.068391845
157	0x3ca69e1f	0.02033907
158	0x3da164d1	0.07880557
159	0xba97817a	-0.0011558973
160	0x3d327db2	0.043576904
161	0xbd420c6b	-0.047375124
162	0xbd8dd017	-0.069244556
163	0xbd6ac6bc	-0.057318434
164	0xbd1cc33d	-0.03827213
165	0xbd479377	-0.048724618
166	0xbad007fc	-0.001587152
167	0x3ca15b50	0.019696862
168	0x3d8706b7	0.06593078
169	0xbdf91f22	-0.12164141
170	0x3d81a55f	0.0633037
171	0xbd5ab7dd	-0.053398002
172	0xbe1f5622	-0.15560201
173	0x3d6bb72e	0.05754774
174	0xbd912410	-0.070869565
175	0xbdffc99d	-0.124896266
176	0x3d42ad3d	0.047528494
177	0xbd35b66f	-0.044363435
178	0x3d5a60c2	0.05331493
179	0xbdf8dd85	-0.121516265
180	0xbc0dea7f	-0.008661865
181	0x3db7656d	0.08954892
182	0x3d3a7cbd	0.045529116
183	0xbd963138	-0.073336065
184	0xbc885602	-0.016642574
185	0x3b4e7f5c	0.0031509018
186	0x3db553ed	0.08853898
187	0xbdd91080	-0.1059885
188	0xbe399fc4	-0.18127352
189	0xbe1426c5	-0.14467914
190	0x3d33f82a	0.04393784
191	0xbdc29048	-0.09500176
192	0xbda34439	-0.07971997
193	0xbdf038c6	-0.11729579
194	0xbd268918	-0.040658087
195	0xbe170c56	-0.147508
196	0x3c9145b6	0.017733436
197	0xbe50c4db	-0.20387594
198	0xbe006a8e	-0.12540647
199	0xbd025e45	-0.031828184
200	0xbe3ba83f	-0.183259
201	0xbcd212e9	-0.025643783
202	0xbdd0dfc0	-0.10198927
203	0xbdfa0e10	-0.122097135
204	0x3d72f328	0.059313923
205	0xbddfa5f8	-0.10920328
206	0xbce07bb0	-0.027402729
207	0xbdf7b0ea	-0.120942906
208	0xbbb444c8	-0.0055013634
209	0x3d39dd8f	0.04537731
210	0x3d8042f2	0.06262769
211	0xbe21e797	-0.15811001
212	0xbe4f7623	-0.2025991
213	0xbe12a56d	-0.14320917
214	0xbce4b681	-0.027919056
215	0xbadd3d40	-0.0016879216
216	0xbad5f5aa	-0.0016323824
217	0xbc24c67d	-0.010057089
218	0x3d5cfb3a	0.053950526
219	0xbe18ada6	-0.14909992
220	0xbdc8b2ee	-0.09799753
221	0xbdcc3b94	-0.09972301
222	0x3d05cb8e	0.032664828
223	0xbe1e146d	-0.1543748
224	0x3cebb580	0.02877307
225	0xbd0c1c2a	-0.034206547
226	0x3c83e93c	0.016102426
227	0x3d85f4db	0.06540843
228	0x3d7b4a36	0.06135007
229	0x3d829a09	0.06377036
230	0xbdbe2f32	-0.092863455
231	0xbdf63358	-0.12021512
232	0xbcb77345	-0.022393832
233	0x3dda4f86	0.10659699
234	0xbd7d373a	-0.061820246
235	0xbdd0f7ef	-0.102035396
236	0xbdb10ea4	-0.086453706
237	0xbe010047	-0.12597762
238	0x3d75d7f8	0.060020417
239	0xbe383dfb	-0.17992394
240	0x3d3dafb0	0.046310127
241	0xbd7c0e89	-0.0615373
242	0xbe02d9e5	-0.12778433
243	0xbde23a68	-0.11046296
244	0xbe0c11b7	-0.13678633
245	0xbd5983a9	-0.053104077
246	0xbd54931a	-0.0518981
247	0xbdc39084	-0.095490485
248	0xbde999bd	-0.114062764
249	0xbdb889ac	-0.09010634
250	0xbdd02df5	-0.101650156
251	0xbc8f47fb	-0.017490378
252	0xbe22b56e	-0.15889522
253	0xbd947d29	-0.07250435
254	0xbd915179	-0.07095618
255	0xbdd14690	-0.10218537

layers.2.W1.weight f4 [64, 64]
0	0x3de818a1	0.113328226
1	0xbdc838fb	-0.09776493
2	0x3d6c9637	0.057760444
3	0x3d8b4e6e	0.06802069
4	0x3e0203c2	0.12696746
5	0x3e8a6ecd	0.2703766
6	0xbe2ed98d	-0.17075177
7	0x3ddfc363	0.10925939
8	0x3d94c164	0.07263449
9	0xbc81c659	-0.01584165
10	0x3e2376dd	0.15963311
11	0xbdf6a3a6	-0.12042932
12	0x3ed16123	0.40894422
13	0x3e1af3cb	0.15132062
14	0x3de14059	0.109986015
15	0x3c2fa058	0.010719381
16	0xbbf242ee	-0.0073932325
17	0x3d3ae3f2	0.04562754
18	0x3d503264	0.050829306
19	0x3df4400e	0.1192628
20	0xbd9173e5	-0.07102183
21	0x3e7daaf5	0.24772246
22	0xbcc58644	-0.024111874
23	0xbda15552	-0.07877602
24	0x3bfa63cf	0.0076412926
25	0x3cc0a4cf	0.023516087
26	0xbd5971d9	-0.05308709
27	0x3e34499e	0.17606208
28	0x3d288808	0.041145355
29	0x3e442516	0.19154772
30	0xbd9dabfc	-0.07698819
31	0x3c842ab5	0.016133646
32	0xbb7af8e8	-0.0038295332
33	0x3c758292	0.014984744
34	0x3dd554a2	0.10416533
35	0x3dd07213	0.10178008
36	0x3dd6a3e8	0.104804814
37	0xbe8e739a	-0.27822572
38	0x3dec5a85	0.11540703
39	0x3dac9c78	0.084282815
40	0xbd449bcc	-0.048000142
41	0x3e2f581b	0.17123453
42	0x3e265ee8	0.16247141
43	0xbc478180	-0.012176871
44	0xbdbd0386	-0.09229188
45	0x3db29708	0.08720213
46	0xbd1b38d8	-0.037896007
47	0xbb0ca608	-0.0021461267
48	0x3e08e48d	0.13368435
49	0x3cefb0cd	0.02925911
50	0x3dac5ea3	0.08416488
51	0xbde2727e	-0.11056994
52	0x3e17259b	0.14760439
53	0x3e2b3386	0.16718873
54	0x3db8b9a0	0.0901978
55	0xbd289a21	-0.041162614
56	0x3d55fe76	0.052244626
57	0x3e01d226	0.12677822
58	0x3de8c3ba	0.11365457
59	0x3ce1e16b	0.027573308
60	0x3e0394f1	0.12849785
61	0xbe119a68	-0.14219058
62	0xbdbbb2cc	-0.09164962
63	0x3ced7224	0.02898509
64	0x3cd0891d	0.025456006
65	0xbe17dc38	-0.148301
66	0xbe0b346c	-0.13594216
67	0xbc8137a7	-0.015773607
68	0x3c88db07	0.016706003
69	0xbde0d6f7	-0.10978501
70	0x3ecd1068	0.4005158
71	0x3dc42016	0.095764324
72	0xbdfcd07c	-0.12344453
73	0x3caf41c2	0.02139366
74	0xbe2a7122	-0.16644719
75	0xbe83027d	-0.25587836
76	0xbe332d19	-0.17497672
77	0x3d651a9f	0.05593359
78	0xbe1e9e8d	-0.1549017
79	0x3cae9b4b	0.021314284
80	0xbe225bc7	-0.15855323
81	0xbda04d3e	-0.07827233
82	0xbd8dc674	-0.069226176
83	0x3b7a3e1c	0.0038183993
84	0xbe9eeeca	-0.31041557
85	0xbe3530b8	-0.17694366
86	0xbe2b6239	-0.16736688
87	0xbd329559	-0.04359946
88	0xbd807fe4	-0.06274393
89	0xbd730449	-0.05933026
90	0xbcb41aaa	-0.02198537
91	0xbdad966e	-0.08475958
92	0x3dd807c0	0.10548353
93	0xbd51911c	-0.051163778
94	0xbd6bdedc	-0.057585582
95	0xbcac3769	-0.021022515
96	0xbe20bbe9	-0.15696682
97	0xbdf56cc1	-0.11983634
98	0x3d1546a8	0.036444336
99	0xbde66538	-0.11249775
100	0xbe37b26a	-0.17939153
101	0x3d802050	0.06256163
102	0x3e86813c	0.26270473
103	0xbcc1ede4	-0.023673005
104	0xbc8808a4	-0.016605683
105	0xbe3bcda3	-0.18340163
106	0xbdea8532	-0.11451186
107	0xbdf75961	-0.120775945
108	0x3d73efcb	0.059554856
109	0xbde6d871	-0.11271752
110	0xbe11962c	-0.14217442
111	0xbd33b320	-0.043872
112	0xbd44ca47	-0.04804447
113	0xbc25bdb7	-0.010116032
114	0x3d031196	0.031999193
115	0x3cf65b59	0.030072855
116	0xbd416756	-0.04721769
117	0x3d5c7316	0.053820692
118	0x3bd20016	0.0064087017
119	0x3bd985fe	0.0066382876
120	0xbe2b41bf	-0.16724299
121	0xbd4c280a	-0.04984287
122	0xbdb15d39	-0.08660359
123	0xbe3723bd	-0.17884727
124	0xbdf96b42	-0.12178661
125	0xb9d78fbe	-0.00041115092
126	0x3d980349	0.074225016
127	0x3e0716ec	0.13192338
128	0x3cce3daf	0.025175897
129	0xbd79e6c4	-0.06101109
130	0x3d566d96	0.052350603
131	0xbd09fe03	-0.03368951
132	0xbda0f27a	-0.07858749
133	0xbe1746c6	-0.14773092
134	0x3f52a4a4	0.8228247
135	0x3e2746fa	0.16335669
136	0x3cdb02d9	0.026734756
137	0x3e966d57	0.29380295
138	0xbe33f5fe	-0.17574307
139	0xbd909fb2	-0.070617095
140	0xbd3df479	-0.046375725
141	0xbe10d03c	-0.14141935
142	0xbcf3b57f	-0.02974963
143	0xbd99f9c9	-0.07518346
144	0x3d3ed6fc	0.046591744
145	0xbd5de408	-0.054172546
146	0xbd7cdee0	-0.061735988
147	0x3d2433ec	0.04008858
148	0xbd86442a	-0.0655597
149	0xbdab3802	-0.08360292
150	0xb9b8686a	-0.0003517301
151	0x3d77e5ca	0.06052188
152	0xbb486c9d	-0.0030582317
153	0xbd678c5f	-0.056530353
154	0x3d29f13e	0.041489832
155	0xbdeb4332	-0.11487426
156	0x3de23eee	0.11047159
157	0xbe066ce1	-0.13127472
158	0x3b161a80	0.0022903979
159	0x3d5410c7	0.051773813
160	0xbc2860b7	-0.010276965
161	0xbdb0a487	-0.08625131
162	0x3d9db89c	0.07701227
163	0x3c58775c	0.013212051
164	0xbe30e001	-0.1727295
165	0xbc644250	-0.013931826
166	0xbe906de5	-0.28208843
167	0xbdb22c32	-0.08699836
168	0xbd99d968	-0.0751217
169	0xbde1676e	-0.11006056
170	0xbdd8e719	-0.105909534
171	0x3bf760b3	0.0075493692
172	0xbd829872	-0.06376733
173	0xbe3cda76	-0.18442711
174	0xbd1df9e4	-0.038568392
175	0xbdfbc2a6	-0.122929856
176	0xbe154eb4	-0.14580804
177	0x3c85ce30	0.01633367
178	0x3d1168fc	0.03550051
179	0xbdf9c207	-0.12195211
180	0xbe0b385b	-0.13595717
181	0xbb64a457	-0.0034887993
182	0xbe37c4ec	-0.17946213
183	0x3c8bc65f	0.017062364
184	0x3cd560a8	0.026047066
185	0xbbef803c	-0.007308988
186	0xbcb3701c	-0.021904044
187	0xbd0c1bc9	-0.034206185
188	0xbe1f9f6e	-0.15588161
189	0xbde2346b	-0.11045154
190	0xbe815c35	-0.2526566
191	0xbd319138	-0.043351382
192	0x3dc90f5c	0.09817383
193	0x3dbcc246	0.09216742
194	0xbda694ca	-0.08133848
195	0x3e176190	0.14783311
196	0xbd8d18fc	-0.06889531
197	0xbd9bff7e	-0.07617091
198	0xbdfe8bf8	-0.12429041
199	0xbe1a5650	-0.15071988
200	0xbdc10f44	-0.0942674
201	0xbc98b97f	-0.018643139
202	0x3e0cc1c6	0.13745794
203	0x3cd522a6	0.026017498
204	0x3e9e5fa4	0.30932343
205	0x3cb9348d	0.022608066
206	0x3b986d96	0.0046517355
207	0x3d206a18	0.03916368
208	0xbdb191f0	-0.086704135
209	0x3d7d31c4	0.06181504
210	0x3d72c005	0.059265155
211	0x3d86b3cb	0.065772615
212	0xbda469c4	-0.08027986
213	0xbdae76a6	-0.08518724
214	0x3bef8500	0.007309556
215	0xbe3f150d	-0.18660374
216	0x3df5cbee	0.12001787
217	0xbd5b9bfa	-0.053615548
218	0x3ca49548	0.020090714
219	0xbc83845a	-0.016054321
220	0x3cb99527	0.02265413
221	0x3c1ec808	0.009691246
222	0xbd799b2c	-0.060939
223	0x3c9c0fbf	0.019050477
224	0x3c3c4a4b	0.011492322
225	0xbd6549a4	-0.055978432
226	0xbab43880	-0.0013749748
227	0x3e0324ce	0.12807009
228	0x3e1ba22c	0.15198582
229	0xbcd49dd0	-0.025954157
230	0x3dcd7b3c	0.10033271
231	0xbd276e99	-0.04087696
232	0xbc2bf7a5	-0.010496055
233	0x3e21a153	0.15784197
234	0xbd16dd09	-0.03683189
235	0x3de6bfe7	0.11267071
236	0x3d2a3b98	0.04156074
237	0xbd35396d	-0.04424422
238	0x3dd5fd72	0.104487315
239	0x3d0d59fd	0.034509648
240	0x3d97359a	0.073832706
241	0x3d5b4fbf	0.05354285
242	0x3c5e9820	0.013586074
243	0xbe50c9e7	-0.2038952
244	0x3d1d3d75	0.038388688
245	0xbd6f1936	-0.058373652
246	0xbd4047dd	-0.046943534
247	0x3c9ffdc8	0.019530192
248	0xbd9ada7f	-0.07561206
249	0x3e355569	0.17708363
250	0x3cff7fe4	0.031188913
251	0xbdf9f2c0	-0.12204504
252	0x3dbb5857	0.09147709
253	0xbda6e4bb	-0.081490956
254	0xbd9bfce0	-0.076165915
255	0xbe0561db	-0.1302561

layers.2.W2.weight f4 [64, 64]
0	0xbe0b71ac	-0.13617581
1	0xbac377ef	-0.0014913062
2	0x3b7abd8d	0.0038259954
3	0xbd434212	-0.04767043
4	0x3e3f41b2	0.18677405
5	0xbd17b32c	-0.037036106
6	0xbe9a283d	-0.30108824
7	0x3b862cca	0.0040946947
8	0x3dbb1254	0.09134355
9	0x3d87d570	0.06632507
10	0x3e3fec78	0.1874255
11	0xbdf6884d	-0.12037716
12	0x3ea73897	0.32660362
13	0x3db255ee	0.08707796
14	0x3e3831e1	0.17987777
15	0x3be26529	0.006909032
16	0x3d9e00f1	0.07715023
17	0x3a878e10	0.001034202
18	0xbdd1bfdc	-0.102416724
19	0x3e3f6c71	0.18693711
20	0xbe0d3f5a	-0.13793698
21	0x3d7b5fc7	0.061370637
22	0x3dcc2ef9	0.09969897
23	0xbd39220e	-0.045198493
24	0xbd43e6ba	-0.04782746
25	0x3e2292c8	0.15876305
26	0xbbd7bc02	-0.0065836916
27	0xbc54b272	-0.012981998
28	0xbe1987b4	-0.14993173
29	0x3c1def80	0.009639621
30	0xbd5711c0	-0.052507162
31	0xbdcb3ced	-0.0992373
32	0x3e51313d	0.20428939
33	0x3d98922c	0.07449755
34	0x3d28eaf4	0.041239694
35	0x3cf28d7e	0.029608484
36	0x3d70e97b	0.058816414
37	0xbd9e3108	-0.07724196
38	0xbd750718	-0.05982122
39	0x3dceafbe	0.10092114
40	0xbdca90fd	-0.098909356
41	0x3d0c96cd	0.034323502
42	0xbd06ca2c	-0.03290765
43	0xbd2b0239	-0.041750167
44	0x3d50d8d3	0.05098803
45	0x3bd64008	0.006538395
46	0x3c6c67be	0.014429031
47	0x3d13c15d	0.036073077
48	0xbc404b13	-0.011736649
49	0xbd3cbc73	-0.046078157
50	0x3c0b573c	0.008504685
51	0x3d2df3b7	0.042468753
52	0x3d9e4278	0.07727522
53	0x3cd8f3c1	0.026483418
54	0xbd8f09c8	-0.069842875
55	0x3e4181f8	0.18897235
56	0x3c8e8f43	0.017402297
57	0x3df11661	0.117718466
58	0xbcae7b59	-0.021299051
59	0xbd4f51e0	-0.05061519
60	0x3dc99f2d	0.098448135
61	0xbda60689	-0.08106715
62	0xbd749cc9	-0.059719834
63	0xbd34078a	-0.043952502
64	0xbd228f3d	-0.039687384
65	0xbcb12442	-0.021623734
66	0xbe1d0e42	-0.1533747
67	0x3d7769b0	0.060403526
68	0xbe0ff460	-0.14058065
69	0x3c589437	0.013218931
70	0xbda2176a	-0.07914622
71	0xbdb90170	-0.09033477
72	0xbc0bec74	-0.008540262
73	0xbe493d7f	-0.19652365
74	0xbdc0b822	-0.094101205
75	0xbe2dc544	-0.16969782
76	0xbe2d0f8c	-0.16900462
77	0xbd97bd4f	-0.074091546
78	0x3d4dc0eb	0.05023281
79	0x3d686c54	0.056743935
80	0xbdcc5998	-0.09978026
81	0xbc633da9	-0.013869681
82	0x3dec1a24	0.115284234
83	0xbc606bce	-0.013697578
84	0xbdc7446a	-0.09729846
85	0xbe249d7f	-0.16075705
86	0xbcc5963c	-0.024119489
87	0xbcda963e	-0.02668297
88	0xbe059955	-0.13046773
89	0x3b1ac1ec	0.0023614122
90	0xbe110124	-0.14160591
91	0x3d742cc4	0.059613004
92	0xbbce1ee0	-0.0062903017
93	0x3ccd3348	0.025048867
94	0xbd0670ac	-0.032822296
95	0xbdfde5e5	-0.123973645
96	0x3d024cc3	0.031811487
97	0x3c81bda1	0.015837492
98	0x3dfb5dc0	0.12273741
99	0xbcbef438	-0.023309812
100	0xbde67728	-0.11253196
101	0xbd965522	-0.073404565
102	0xbe4b9780	-0.19882011
103	0xbd558a0f	-0.052133616
104	0x3d7429fe	0.05961036
105	0xbdcfd9e0	-0.10148978
106	0xbdac66c7	-0.08418041
107	0x3ce54c17	0.027990384
108	0x3d5175aa	0.051137604
109	0xbcd5cab8	-0.02609764
110	0xbd4d5218	-0.05012712
111	0x3dfa577a	0.12223716
112	0x3d36cfa1	0.044631604
113	0xbe0ef1e2	-0.13959458
114	0xbe16cca0	-0.14726496
115	0xbdcd7858	-0.100327194
116	0xbc2c5528	-0.01051835
117	0xbe0bd440	-0.13655186
118	0xbde89462	-0.11356427
119	0xbd4b7ba2	-0.049678452
120	0xbdbbac13	-0.0916368
121	0x3cc2f007	0.023796095
122	0x3c9ca772	0.019122813
123	0x3cd53cfa	0.026030052
124	0x3bd1dc65	0.006404447
125	0xbe80d0ed	-0.25159398
126	0xbec47383	-0.38369378
127	0xbeebcdd7	-0.4605548
128	0xbd9bc283	-0.076054595
129	0x3d1c74af	0.038197216
130	0xbdb3d637	-0.087810926
131	0x3d61267a	0.054968335
132	0x3d095f67	0.03353825
133	0xbe5c3c9b	-0.21507494
134	0x3e8b8c17	0.27255318
135	0x3d50bd7b	0.050961953
136	0xbe3799dd	-0.17929788
137	0xbe58bb0e	-0.21165106
138	0xbdd2f3e0	-0.10300422
139	0xbe553dea	-0.208244
140	0xbe179355	-0.14802296
141	0x3d02b8e5	0.03191461
142	0xbdb85204	-0.09000018
143	0x3d1b50fd	0.037919033
144	0xbdd3d6a4	-0.10343674
145	0x3d7e2d27	0.06205478
146	0xbd00280c	-0.03128819
147	0x3d6ea015	0.058258135
148	0xbcaa48b2	-0.020786617
149	0xbe2001e5	-0.15625723
150	0xbbb20654	-0.0054328833
151	0xbbf7fcf2	-0.007567995
152	0xbe28f3ce	-0.16499254
153	0xbe2c2941	-0.16812612
154	0xbd5860df	-0.05282676
155	0x3bfabf5b	0.007652206
156	0x3dda1fe6	0.106506154
157	0xbdc1f84f	-0.09471189
158	0xbdefbba6	-0.11705713
159	0xbb547d48	-0.0032423306
160	0xbd5248b6	-0.051338874
161	0xbd68ed94	-0.056867197
162	0x3da19f6e	0.07891737
163	0xbd38d86a	-0.045128264
164	0x3d45d78f	0.048301276
165	0x3dc48756	0.09596126
166	0xbe2be797	-0.16787563
167	0x3d07662d	0.033056427
168	0xbca420a3	-0.020035094
169	0xbe36f852	-0.17868164
170	0x3d54adc1	0.051923517
171	0xbd66637a	-0.056247212
172	0xbd9a9eb8	-0.075498044
173	0x3d2ff513	0.04295833
174	0x3d489898	0.04897365
175	0xbdca915c	-0.09891006
176	0xbc312d2c	-0.0108139925
177	0xbe03dc79	-0.12877072
178	0xbdbcc5fb	-0.09217449
179	0xbd7cffe5	-0.061767478
180	0xbdd9ff92	-0.10644449
181	0xbde70ff0	-0.11282337
182	0x3b0ec67e	0.002178579
183	0xbdb88d90	-0.09011376
184	0xbc527b2e	-0.012846751
185	0x3d74f09e	0.059799783
186	0xbcf38def	-0.029730765
187	0xbcfdd39f	-0.030984698
188	0x3d4b3490	0.049610674
189	0xbddb3da8	-0.10705119
190	0xbeb885f2	-0.36039692
191	0xbe0350dd	-0.12823816
192	0x3d18ba55	0.037287075
193	0x3d4ddfe0	0.050262332
194	0x3e1ffa3a	0.15622798
195	0x3e05f02a	0.13079897
196	0xbc8e0bf6	-0.017339688
197	0xbd40505b	-0.046951633
198	0x3ef6f15f	0.48231027
199	0xbe2581ca	-0.16162792
200	0xbd5aaf59	-0.05338988
201	0x3e2b225f	0.1671233
202	0x3ba74167	0.005104232
203	0xbd07092a	-0.032967724
204	0x3ebd0777	0.36919758
205	0xbd9d0206	-0.076664016
206	0xbdb50380	-0.08838558
207	0x3d94733a	0.0724854
208	0x3d8e8b17	0.06960123
209	0x3dbf98b6	0.09355299
210	0x3dfa5c5c	0.122246474
211	0x3d7d1d8c	0.061795756
212	0xbc9de6c6	-0.01927508
213	0xbdb79343	-0.08963635
214	0xbc459d33	-0.012061405
215	0xbdb801db	-0.08984729
216	0x3e18fc4b	0.14939992
217	0x3ccb4a6a	0.024815757
218	0x3dd645dc	0.10462543
219	0x3cc2d918	0.023785159
220	0x3baf4002	0.0053482065
221	0x3ca60461	0.02026576
222	0xbe2dae95	-0.16961129
223	0x3c89c63d	0.01681816
224	0x3dce5cd5	0.100763
225	0xbe1f0d8e	-0.15532514
226	0xbc156a40	-0.00911957
227	0x3c6d747f	0.014493107
228	0x3df3d930	0.119066596
229	0x3df990dc	0.12185833
230	0xbd8ad9f3	-0.06779852
231	0x3e2aba85	0.16672714
232	0x3b964394	0.0045856927
233	0xbd70a183	-0.05874778
234	0xbc56bf05	-0.013107066
235	0x3ddda5eb	0.10822662
236	0xbde366c7	-0.111035876
237	0x3e31b3db	0.17353766
238	0x3cc2b575	0.023768166
239	0xbc64d330	-0.013966367
240	0x3db0414f	0.086062066
241	0x3cfe2edc	0.031028204
242	0xbd593cf5	-0.05303665
243	0xbdc7bd8e	-0.097529516
244	0xbdbac478	-0.09119505
245	0x3d05944a	0.032612123
246	0x3db0d1c6	0.08633761
247	0x3cab3167	0.02089758
248	0x3deeccfe	0.11660193
249	0xbd55e327	-0.052218582
250	0xbcea7941	-0.028622271
251	0x3e12be2b	0.14330356
252	0xbba5376c	-0.005042007
253	0xbbe243e3	-0.0069050654
254	0xbe021a54	-0.12705356
255	0xbdf38d00	-0.11892128

classifier.0.weight f4 [64, 64]
0	0xbe1b06c0	-0.15139294
1	0x3d556443	0.05209757
2	0x3e1aadc4	0.15105349
3	0x3db77c98	0.08959311
4	0xbef8428c	-0.4848827
5	0x3cc2550f	0.0237222
6	0x3d8fe839	0.07026715
7	0x3d07beb1	0.033140842
8	0x3ce1fab2	0.027585361
9	0xbe1cafda	-0.15301457
10	0x3cf34ff5	0.029701212
11	0xbc899413	-0.01679424
12	0xbd7b2f76	-0.06132456
13	0xbda339ee	-0.079700336
14	0xbe6686f6	-0.22512421
15	0x3e76314e	0.24042246
16	0x3d9bba5b	0.07603904
17	0x3d9af473	0.07566156
18	0x3d01f88d	0.031731177
19	0xbdd2d014	-0.10293594
20	0xbf1cd912	-0.61268723
21	0xbd6499c7	-0.055810716
22	0x3e2f0d63	0.1709495
23	0x3da7997a	0.0818357
24	0x3d035e7e	0.032072537
25	0xbd5dcdd6	-0.05415138
26	0x3d465261	0.048418406
27	0xbe04ed03	-0.12981038
28	0x3d9b539a	0.07584305
29	0xbdb7f95e	-0.0898311
30	0x3eb89ecb	0.3605865
31	0x3e529ee5	0.20568426
32	0xbda17ab1	-0.0788473
33	0x3d8c9562	0.0686443
34	0x3d40a39e	0.047031038
35	0x3dbec28e	0.09314452
36	0x3d9f6204	0.07782367
37	0xbddceac8	-0.107869685
38	0x3d0fbddd	0.035093177
39	0x3db3ba0f	0.08775722
40	0x3e97bd6e	0.2963671
41	0xbdf8acb9	-0.12142319
42	0x3e9d4195	0.30714098
43	0x3c14fcb9	0.009093457
44	0x3e0eb1e9	0.13935055
45	0xbd68c541	-0.05682874
46	0x3e3691ff	0.1782913
47	0xbccd5b8f	-0.025068073
48	0xbba40c67	-0.0050063613
49	0x3d27557e	0.040853016
50	0x3cba5346	0.022744786
51	0x3da8c893	0.082413815
52	0x3d406a3c	0.046976313
53	0xbd2cbd56	-0.042172752
54	0x3e10a4c2	0.1412535
55	0x3e6bfac7	0.23044883
56	0xbe0a833a	-0.13526621
57	0x3da3a43e	0.07990311
58	0xbd44cfee	-0.04804986
59	0x3cc94b8d	0.024572158
60	0x3d8c6f36	0.06857149
61	0x3d013fa8	0.031554848
62	0x3dab9688	0.08378321
63	0x3d5d5508	0.05403617
64	0xbdb0ec5e	-0.086388335
65	0x3e4c4bb6	0.19950756
66	0x3e40cc7d	0.18828006
67	0xbdf9a737	-0.12190097
68	0x3e486f0d	0.19573613
69	0xbea62d33	-0.3245636
70	0xbec7e9dd	-0.3904561
71	0xbf2cb636	-0.6746553
72	0xbf4dab22	-0.8033925
73	0x3e3669cc	0.17813796
74	0x3c811d23	0.015760964
75	0x3eb336a0	0.35002613
76	0x3cc84775	0.024448136
77	0xbe5b7f6a	-0.21435323
78	0x3f2a4899	0.66517025
79	0xbfeb2ed5	-1.8373667
80	0xbe1fd3ba	-0.15608111
81	0x3e0e9970	0.1392572
82	0xbf9451e5	-1.1587492
83	0xbe456454	-0.19276553
84	0xbec6eae2	-0.38851076
85	0xbe4e9eab	-0.20177715
86	0xbd130e9b	-0.0359026
87	0x3e84ea13	0.25959834
88	0x3fe7914d	1.8091217
89	0x3db88629	0.09009964
90	0x3f9de08f	1.2334155
91	0xbc550c68	-0.013003446
92	0x3e5c7e69	0.21532597
93	0x3d29215c	0.04129158
94	0x3bae2095	0.0053139427
95	0xbe1ac806	-0.15115365
96	0xbe93f1f4	-0.28895533
97	0x3d80a915	0.0628225
98	0xbe4e3a45	-0.20139416
99	0xbe3280c1	-0.17431928
100	0x3d959cf7	0.07305329
101	0x3c795ccb	0.0152198775
102	0x3d199ab8	0.037501067
103	0xbda68a74	-0.081318766
104	0x3e764316	0.24049029
105	0xbe954286	-0.29152316
106	0x3d5b9c14	0.053615645
107	0x3e00e098	0.12585676
108	0x3deea3ce	0.11652337
109	0xbeeaac52	-0.45834595
110	0xbc5e3a9f	-0.013563781
111	0x3edbe948	0.42951417
112	0xbe455110	-0.19269204
113	0x3d4361d6	0.047700725
114	0x3edd4f4b	0.43224558
115	0x3a9fb673	0.0012185111
116	0x3dd19f7f	0.102354996
117	0x3e960614	0.29301512
118	0xbed7bda2	-0.42136866
119	0xbeb7ec19	-0.35922316
120	0x3e3d4264	0.18482357
121	0xbd950d0b	-0.072778784
122	0xbf30b13e	-0.6902045
123	0xbf4676c3	-0.77524966
124	0xbf19c613	-0.6006786
125	0xbdb41693	-0.08793368
126	0xbe2c901b	-0.16851847
127	0xbe7166bd	-0.23574348
128	0xbda9d405	-0.08292393
129	0xbcd2db43	-0.025739318
130	0xbc8f92e2	-0.017526094
131	0xbdfd03e9	-0.123542614
132	0xbeca2b63	-0.39486226
133	0x3e22ed80	0.15910912
134	0xbe16ffc5	-0.14746006
135	0x3cbf0b53	0.02332083
136	0x3c91def6	0.017806511
137	0x3cb8288e	0.022480275
138	0x3cb9a283	0.0226605
139	0x3decbc0a	0.11559303
140	0xbdfc0ed2	-0.12307514
141	0xba255523	-0.0006306937
142	0x3e0b03ed	0.13575716
143	0xbdb4736c	-0.088110775
144	0x3cacd363	0.02109689
145	0x3e1057b4	0.14095956
146	0xbc6e5f5b	-0.014549102
147	0xbdcf7c42	-0.10131122
148	0xbe47c7d9	-0.1950983
149	0xbd462c42	-0.04838205
150	0xbd18205f	-0.037140246
151	0xbb64fb24	-0.003493973
152	0x3d9cf1e2	0.07663323
153	0x3e266316	0.16248736
154	0xbd20beca	-0.03924445
155	0xbd14a781	-0.036292557
156	0x3e0daf8d	0.13836499
157	0x3e250923	0.16116767
158	0x3e0a325f	0.13495778
159	0xbd44e1bf	-0.04806685
160	0x3cf66bc6	0.030080687
161	0x3b0282f9	0.0019914492
162	0xbe2d3d17	-0.16917835
163	0x3e110c1f	0.1416478
164	0xbdce7b71	-0.10082138
165	0xbd31dd92	-0.043424197
166	0xbe2b415b	-0.1672415
167	0x3dfcb546	0.12339263
168	0x3e701274	0.2344454
169	0xbe0e56b6	-0.13900265
170	0x3e5d1d07	0.21593104
171	0x3e2684ca	0.16261593
172	0x3e9aaf6e	0.30211967
173	0xbe35d3fd	-0.17756648
174	0xbb5c9c29	-0.0033662415
175	0xbcc214ae	-0.023691501
176	0xbd1b5906	-0.037926696
177	0xbd7a8055	-0.061157543
178	0x3e30258b	0.17201822
179	0x3db25090	0.08706772
180	0xbce4dab4	-0.027936317
181	0xbd3f8f3b	-0.046767455
182	0xbc7ab46c	-0.015301805
183	0x3e3b4662	0.18288568
184	0x3e523c99	0.20530929
185	0xbd1d8572	-0.03845734
186	0xbe261ca0	-0.16221857
187	0xbd133ebe	-0.035948507
188	0xbc7e2a15	-0.015512963
189	0xbd036b3b	-0.032084685
190	0xbd6127f3	-0.05496974
191	0xbc8f62de	-0.017503198
192	0xbde549ce	-0.11195718
193	0x3a4931e7	0.00076749775
194	0xbd0da346	-0.034579538
195	0xbd7839f1	-0.060602132
196	0xbdfd06c4	-0.12354806
197	0xbdd1ce9d	-0.102444865
198	0xbd9a2c4e	-0.07527982
199	0xbe2bd7a9	-0.16781487
200	0xbdfbab04	-0.12288478
201	0xbdb6cc0c	-0.089256376
202	0x3d811734	0.06303254
203	0xbe3a407c	-0.18188661
204	0x3e32bcef	0.17454885
205	0x3cd04fed	0.025428737
206	0x3b0deb6b	0.0021655213
207	0x3d6f50a7	0.058426525
208	0x3ca24b8c	0.019811414
209	0x3d446bc2	0.04795433
210	0xbbf3c83a	-0.0074396404
211	0xbda20a05	-0.07912067
212	0xbc4caf68	-0.012492992
213	0xbd8e1277	-0.06937116
214	0xbdf6ef66	-0.120573804
215	0xbc69f16c	-0.014278751
216	0x3d84f4a6	0.064919755
217	0x3d0a141d	0.033710588
218	0xbdf0fef7	-0.11767381
219	0xbdb2600c	-0.08709726
220	0x3c4e7a4e	0.012602402
221	0xbc01d67e	-0.007924674
222	0xbe37abcf	-0.17936634
223	0xbd600714	-0.05469425
224	0xbd80d69c	-0.062909335
225	0x3d997f68	0.07495004
226	0xbd88275f	-0.066481344
227	0xbe02ec94	-0.1278556
228	0xbd8b8227	-0.06811934
229	0x3ce52bbf	0.027974961
230	0xbdd16be3	-0.10225656
231	0xbcee35ca	-0.029078383
232	0x3d47aa73	0.048746537
233	0xbe2e9eac	-0.17052716
234	0xbdb5da91	-0.08879579
235	0xbe312867	-0.17300569
236	0xbdc8c1a5	-0.0980256
237	0xbc68ade3	-0.014201614
238	0xbd7395a1	-0.05946887
239	0xbb7de2ed	-0.0038739995
240	0xbe108f67	-0.14117204
241	0x3b11a4e4	0.0022223527
242	0xbdea56a1	-0.114423044
243	0x3c9aed4a	0.018911976
244	0xbddad886	-0.1068583
245	0x3d2d02b0	0.04223889
246	0xbd559e1b	-0.052152734
247	0x3d2f293c	0.042763934
248	0xbe1e6104	-0.15466696
249	0xbd29252b	-0.04129521
250	0x3dbce3cc	0.09223136
251	0xbe01fbdd	-0.12693734
252	0x3d045977	0.032311883
253	0xbc8c38a9	-0.017116861
254	0xbdbf71f7	-0.09347909
255	0xbe1aea6a	-0.15128484

classifier.0.bias f4 [64]
0	0xbff6c0eb	-1.9277624
1	0x3f104561	0.56355864
2	0xbf420535	-0.75789195
3	0xbec486a0	-0.3838396
4	0xbea332dc	-0.3187474
5	0x40551b44	3.3297892
6	0xbe773695	-0.24141915
7	0xbeb02bc0	-0.3440838
8	0xbeeb8e40	-0.46006966
9	0xbe9a28a6	-0.30109137
10	0xbe4802c7	-0.1953231
11	0xbf0f4697	-0.55967087
12	0x3eab0080	0.3339882
13	0xbe647fc5	-0.22314365
14	0xbf133b26	-0.5751213
15	0xbe3a6ead	-0.18206282
16	0xbdfbfa73	-0.12303629
17	0xbe3fd086	-0.18731889
18	0x3fa40ae6	1.2815826
19	0x40017a81	2.023102
20	0x3ee977e7	0.4559929
21	0xbe6c7425	-0.2309118
22	0xbf920415	-1.1407496
23	0xbf0f7a37	-0.5604586
24	0xbeb046e8	-0.34429097
25	0xbd36febf	-0.04467654
26	0xbe5a9cfe	-0.2134895
27	0x4024a36f	2.5724752
28	0xbf9c8836	-1.2229068
29	0xbe88196c	-0.26581895
30	0x4006fc2c	2.1091413
31	0xbf901e1f	-1.1259192
32	0xbe8a8abe	-0.27058977
33	0xbe880742	-0.26568037
34	0xbcf36a29	-0.029713707
35	0x40151019	2.3291075
36	0xbd97c34b	-0.07410296
37	0xbe50695f	-0.20352696
38	0xbe5c9147	-0.21539794
39	0xbe951ce4	-0.29123604
40	0xbf247fdd	-0.64257604
41	0x3bae21fa	0.005314109
42	0xbd13b0a1	-0.03605712
43	0xbdcc3b8f	-0.099722974
44	0xbe377be0	-0.17918348
45	0x400e76fa	2.2260118
46	0x40098d4e	2.1492496
47	0xbe019d7c	-0.12657732
48	0xbe05d4cc	-0.13069457
49	0xbedb6337	-0.42849132
50	0x4003e91e	2.0611033
51	0x40038127	2.0547578
52	0xbe29074d	-0.16506691
53	0xbe9c2ae5	-0.30501476
54	0xbdcd5e7d	-0.10027788
55	0x4014ab6a	2.3229623
56	0xbfb50532	-1.414221
57	0xbe494fa8	-0.19659293
58	0xbf626e7c	-0.88449836
59	0xbe6caac0	-0.23112011
60	0xbfa8471d	-1.3146702
61	0x3f6e63e9	0.931212
62	0xbe9db339	-0.308008
63	0xbe31830d	-0.17335148

classifier.3.weight f4 [2, 64]
0	0x3dc6f595	0.0971481
1	0x3e980bab	0.29696402
2	0x3c86335a	0.016381908
3	0x3d8a5005	0.06753544
4	0xbb71d6cf	-0.0036901718
5	0xbd8feecd	-0.070279695
6	0xbd19da46	-0.037561677
7	0xbcbbf2eb	-0.02294298
8	0x3d042508	0.03226188
9	0x3d7c0284	0.061525837
10	0x3ac6f2ef	0.0015178601
11	0x3d16b540	0.036793947
12	0xbe00b355	-0.1256841
13	0xbd05cb93	-0.032664847
14	0x3ec3bb93	0.38229045
15	0x3da87f5a	0.082274154
16	0x3e054906	0.13016137
17	0x3db8c324	0.09021595
18	0x3d2fbb67	0.04290333
19	0xbdc4a69b	-0.0960209
20	0x3d1f7fdc	0.038940296
21	0x3d608238	0.054811686
22	0xbb899bca	-0.0041994797
23	0x3c41e42b	0.011834185
24	0x3d0c7c80	0.03429842
25	0x3d129b4a	0.035792626
26	0x3cba8c04	0.022771843
27	0x3cf66dff	0.030081747
28	0x3b921f81	0.004459322
29	0xbd41f848	-0.04735592
30	0x3d46051c	0.048344716
31	0xbd3c62e8	-0.04599276
32	0x3d056b0d	0.032572795
33	0xbc9a5184	-0.018837698
34	0xbd32bf91	-0.043639723
35	0xbd5b0850	-0.053474724
36	0x3d03461c	0.032049283
37	0x3cf014f4	0.029306866
38	0xbc80f0d5	-0.015739838
39	0x3d175ca2	0.036953576
40	0xbd630f34	-0.05543442
41	0xbd69914b	-0.057023328
42	0xbd0b9146	-0.03407409
43	0x3ce1ed55	0.027578989
44	0x3dbaa0ad	0.09112678
45	0xbdb89526	-0.09012823
46	0xbc9b2c6d	-0.018942082
47	0x3ddbcb99	0.107321925
48	0x3b8df6ae	0.004332385
49	0xbdb19b23	-0.08672168
50	0xbdd33ccc	-0.103143305
51	0xbd73c8eb	-0.059517782
52	0x3caf92a2	0.021432225
53	0x3ced3753	0.028957045
54	0x3db7f349	0.0898195
55	0x3b1568a5	0.0022797969
56	0xbdffb8d9	-0.12486429
57	0xbb2b7d6d	-0.002616729
58	0x3bb4e8d5	0.00552092
59	0xbcf2ee05	-0.029654512
60	0x3db74e84	0.089505225
61	0x3d8c3bcd	0.068473436
62	0xbceaaf29	-0.028647976
63	0xbd4f8f71	-0.050673906
64	0x3cdafc34	0.026731588
65	0xbe195bad	-0.14976378
66	0x3c975204	0.018471725
67	0x3b830e0d	0.0039994777
68	0x3d1e0143	0.038575422
69	0x3c96de3b	0.018416515
70	0xbd1f64a8	-0.038914353
71	0xbcafe371	-0.021470757
72	0x3d1f7ad5	0.0389355
73	0xbde2a511	-0.1106664
74	0xbca6ee64	-0.020377345
75	0x3d35e67a	0.044409253
76	0x3e02041a	0.12696877
77	0xbd917561	-0.071024664
78	0xbeda49ee	-0.4263453
79	0x3d903a87	0.07042413
80	0xbdf47dcc	-0.11938056
81	0xbabc5c4c	-0.0014370768
82	0x3e11d38c	0.14240855
83	0x3d87e6a4	0.06635788
84	0x3d43748b	0.047718566
85	0x3d1e58ba	0.038658835
86	0xbd4cbb9f	-0.049983617
87	0xbe1b3669	-0.15157475
88	0xbd27dd41	-0.04098249
89	0xbddc5b57	-0.10759609
90	0xbda63fce	-0.081176385
91	0x3df6a081	0.120423324
92	0x3c35330c	0.011059534
93	0x3d81bf21	0.06335283
94	0x3df06861	0.11738659
95	0xbdbf1f98	-0.09332198
96	0x3bcbbe92	0.006217786
97	0xbc7f0f0b	-0.015567551
98	0xbdb84a93	-0.08998599
99	0x3d43e4c3	0.047825586
100	0xbbc192b8	-0.005907383
101	0x3c02961f	0.007970362
102	0xbcb30239	-0.021851646
103	0x3c7b9f92	0.015357869
104	0xbde60a48	-0.1123243
105	0x3b442ea2	0.0029935022
106	0xbcf3a4f5	-0.029741744
107	0xbd21431e	-0.03937065
108	0x3cf2ef91	0.02965525
109	0x3d62e58a	0.055394687
110	0x3dd3471e	0.10316299
111	0xbe470445	-0.19435222
112	0xbd55adc5	-0.052167673
113	0xbdb8dbf2	-0.09026326
114	0x3c52d8d2	0.012869077
115	0x3d39c1cd	0.04535084
116	0xbd1f8124	-0.038941517
117	0xbc3f4fb5	-0.0116767185
118	0x3d89d6e8	0.06730443
119	0x3df25b22	0.118337885
120	0xbdeff4aa	-0.11716588
121	0x3c048394	0.008088011
122	0x3c5214b7	0.012822322
123	0xbd942426	-0.07233457
124	0x3d7cc5ef	0.0617122
125	0x3d5cbe4d	0.053892422
126	0xbe05af39	-0.13055123
127	0xbd5ecb65	-0.05439319

classifier.3.bias f4 [2]
0	0x3edb3a09	0.42817715
1	0xbe9446bd	-0.2896022
