checkpoints/proteins_1gnn.pt (torch, 89317 bytes, 10 tensors)

layers.0.W1.weight f4 [64, 3]
0	0xbf48c8fb	-0.7843167
1	0x3d9d61d3	0.07684674
2	0xbf44bf6a	-0.76854575
3	0x3f3207f3	0.6954338
4	0xc00033cd	-2.0031617
5	0xbf554276	-0.83304536
6	0xbd58c1d7	-0.052919235
7	0x3ed6b0a9	0.41931656
8	0x3f0a75d2	0.5408603
9	0xbf3c2a5e	-0.7350215
10	0xbf8462e5	-1.034268
11	0xbf2371b3	-0.63845366
12	0x3f1f9e7e	0.62351215
13	0xbfeb8eed	-1.8402992
14	0x3f2a284a	0.66467726
15	0x3f033df2	0.51266396
16	0x3f59d05c	0.85083556
17	0x3f978a26	1.1839035
18	0xbf8fe56a	-1.1241887
19	0x3f9b726b	1.2144293
20	0x3f88ea60	1.0696526
21	0xbf95f0ca	-1.1714108
22	0x3e518ba9	0.20463432
23	0xbf8d8eed	-1.1059242
24	0xbe01cfd8	-0.12676942
25	0x3ed1d51e	0.40982908
26	0x3f7e560b	0.9935004
27	0xbf4c5c97	-0.7982878
28	0xbe75e68a	-0.24013725
29	0xbe778112	-0.2417033
30	0xbf990215	-1.195376
31	0xc003fb27	-2.0622041
32	0x3e913563	0.28361043
33	0xbe3edca2	-0.18638852
34	0xbfd5ff16	-1.6718471
35	0x3f09dcf3	0.53852767
36	0xbd1fce29	-0.03901497
37	0xbf838e9c	-1.0277896
38	0x400a411b	2.1602237
39	0xbc455a30	-0.012045428
40	0x3d3c155b	0.045918804
41	0x3e1a27c1	0.15054227
42	0x3e3843cb	0.17994611
43	0xbf1c0b65	-0.60954887
44	0x3e7b656e	0.24550411
45	0x3d58e37b	0.052951317
46	0xbf574fbb	-0.84106034
47	0x3f81888c	1.0119796
48	0xbeb7062a	-0.3574689
49	0xbe31d978	-0.17368114
50	0x3f4cfdbc	0.8007467
51	0x3e33f1f3	0.17572765
52	0xbf45040b	-0.76959294
53	0x3b780d8d	0.0037849874
54	0xbf7555d5	-0.95834094
55	0xbe8056ae	-0.2506613
56	0xbf46e084	-0.77686334
57	0xbec21244	-0.3790456
58	0xbe9efc1f	-0.31051728
59	0x3e33a31e	0.17542693
60	0xbf677fdd	-0.9042948
61	0xbf2aa63c	-0.66659904
62	0x400112cf	2.016773
63	0x3c3e3fd3	0.011611897
64	0xbedf2d39	-0.4358919
65	0xbf02c445	-0.51080734
66	0x3ed38372	0.41311222
67	0xbf297f02	-0.66209424
68	0xbf8b6b5d	-1.089214
69	0x3eedda98	0.46455836
70	0xbfc7708b	-1.558122
71	0xbfc5039e	-1.5391729
72	0xbf093bdb	-0.5360696
73	0xbdea8168	-0.114504635
74	0xbf129308	-0.572556
75	0xbe83ad21	-0.25718024
76	0xbf75933e	-0.959278
77	0x3f6750e3	0.903578
78	0xbf9c6431	-1.2218076
79	0x3f918c9d	1.1371037
80	0xbecb7925	-0.39740863
81	0xbf014502	-0.5049592
82	0xbf045f4c	-0.5170791
83	0xbf3f8cb5	-0.74824077
84	0xbea1ff22	-0.31639963
85	0xbe662489	-0.22474875
86	0xbd31ffcd	-0.04345684
87	0xbf8e4dcb	-1.111749
88	0xbff45bd9	-1.909053
89	0xbfb24022	-1.3925822
90	0xbf2f43f7	-0.6846308
91	0x3e8a4489	0.27005413
92	0xbf9900f2	-1.1953413
93	0xbf8186e4	-1.011929
94	0x3f0f9b34	0.56096196
95	0xbf410252	-0.75394166
96	0x3f3fd914	0.7494061
97	0x3fdb24fa	1.7120659
98	0x3eecfbeb	0.46285948
99	0xbfaaa797	-1.3332394
100	0x3fa07fec	1.2539039
101	0x3d1c5735	0.038169105
102	0xbe91fa6e	-0.28511375
103	0x3ffb9544	1.9654927
104	0x40164fe2	2.3486257
105	0xbeedba94	-0.4643141
106	0x3df65e32	0.12029685
107	0xbe9697a5	-0.2941257
108	0xc006c6aa	-2.1058755
109	0xbe086f20	-0.13323641
110	0xbfc9c24d	-1.5762421
111	0xbf836150	-1.0264072
112	0x3e9ad2be	0.3023891
113	0xc035f58b	-2.8431118
114	0x3f5b03e5	0.8555282
115	0x3eacb06d	0.33728352
116	0xbf34b055	-0.7058156
117	0xbf9d7c38	-1.2303534
118	0x3f017f95	0.505853
119	0x3fe54223	1.7910808
120	0xbef11a5f	-0.47090432
121	0x3f5593d1	0.83428675
122	0x3f2b8a10	0.6700754
123	0xbe7e1f32	-0.24816588
124	0xbe04fd31	-0.1298721
125	0x3e2139be	0.15744683
126	0xbf488402	-0.7832643
127	0x3f0263f3	0.5093376
128	0xbf585f03	-0.84519976
129	0xbf866cd0	-1.0501957
130	0x3e650e5c	0.22368759
131	0xbd9bccbe	-0.07607411
132	0xbd7c751e	-0.06163513
133	0xbe2de2d4	-0.1698106
134	0x3e440e13	0.19145994
135	0xbeb2eb0e	-0.34944957
136	0xbf1dfbd4	-0.61712384
137	0x3e65c8c4	0.22439867
138	0xbd896a50	-0.067097306
139	0xbf129c0a	-0.57269347
140	0xbdd77737	-0.10520785
141	0xbcb8bddd	-0.022551471
142	0xbfb2b13c	-1.3960338
143	0x3f15357f	0.58284754
144	0xbe32d986	-0.17465791
145	0x3f2546f6	0.645614
146	0xba45acb0	-0.0007540686
147	0xbf165052	-0.5871631
148	0xbe8de631	-0.27714685
149	0xbeec7c10	-0.46188402
150	0xbf39b3d9	-0.7254005
151	0xbed55621	-0.41667274
152	0x3e971d74	0.29514658
153	0x3e21691a	0.1576275
154	0xbf1e278d	-0.617791
155	0x3f8bdf7c	1.0927577
156	0xbf751dca	-0.9574858
157	0xbeb037f7	-0.34417698
158	0xbeee70d6	-0.46570462
159	0xbde5988d	-0.112107374
160	0xbc873ac3	-0.016507512
161	0x3dd927cc	0.10603294
162	0xbf45b03a	-0.77222025
163	0x3f7d6ff7	0.9899897
164	0x3e892df2	0.26792866
165	0xbe9843b7	-0.29739162
166	0xbd1a00bb	-0.037598353
167	0x3cd75e82	0.026290182
168	0xbebbce9a	-0.36681062
169	0xbf03cede	-0.5148753
170	0xc003f08c	-2.0615568
171	0xbf98d8d1	-1.1941167
172	0x3f872e15	1.0560938
173	0x3fa147fa	1.260009
174	0x3e5ac2e1	0.21363403
175	0xbf4df79b	-0.8045594
176	0xbe8230f2	-0.25427967
177	0xbee30d67	-0.44346163
178	0x3f81cf18	1.0141325
179	0x3f893c29	1.0721484
180	0x3e5ed48c	0.21760768
181	0xbf237da2	-0.63863575
182	0x3d2d6f20	0.042342305
183	0xbd8c6985	-0.06856064
184	0xbf043cd4	-0.51655316
185	0xbf07e60d	-0.53085405
186	0xbd68a7be	-0.056800596
187	0x3d90af3a	0.07064672
188	0xbe6afd7b	-0.22948258
189	0xbbcc233c	-0.006229786
190	0xba5bb7c6	-0.00083815714
191	0x3e15a392	0.14613178

layers.0.W2.weight f4 [64, 3]
0	0xbf016c04	-0.50555444
1	0xbdf1e55c	-0.11811325
2	0xbe3233d6	-0.17402586
3	0xbe9857aa	-0.29754382
4	0x3f46c225	0.7763999
5	0x3ea1b12d	0.31580487
6	0xbe4758c6	-0.19467458
7	0x3edea831	0.43487695
8	0xbe078058	-0.13232553
9	0xbf1891ce	-0.5959748
10	0x3e18c778	0.14919841
11	0xbf7e1d42	-0.99263394
12	0xbf6cf40d	-0.9255989
13	0x3ea5754e	0.3231606
14	0xbf160025	-0.5859397
15	0xbf470526	-0.7774223
16	0xbf4e6c48	-0.80633974
17	0x3f142a7c	0.57877326
18	0xbe9e8933	-0.3096405
19	0xbea8c040	-0.32959175
20	0xbf0ee712	-0.55821335
21	0xbf5f95a2	-0.87337697
22	0xbeba8b4c	-0.364344
23	0x3d95cb26	0.07314138
24	0xbf5caaef	-0.86198324
25	0xbdb6b862	-0.08921887
26	0xbfe3b180	-1.7788544
27	0xbe585a2b	-0.21128146
28	0xbc5c1bf3	-0.013434398
29	0xbce1c12c	-0.027557932
30	0xbedd1a18	-0.4318397
31	0x3f4ab8b0	0.7918806
32	0xbf8eb3f2	-1.1148665
33	0xbe2ccac1	-0.1687422
34	0x3ea5ca1d	0.32380763
35	0x3ea31917	0.3185508
36	0xbdd516cf	-0.10404741
37	0xc0025c8f	-2.0368993
38	0xbd81b811	-0.06333936
39	0xbeb7bad3	-0.35884723
40	0xbd4dbe60	-0.050230384
41	0xbe71b988	-0.23605931
42	0xbf8c7c1d	-1.0975376
43	0x3ec8177b	0.39080414
44	0xbfcba8f7	-1.5910939
45	0xbf019657	-0.50620025
46	0xbef938c5	-0.48676124
47	0xbd2c9e6a	-0.042143263
48	0xbde96dad	-0.11397872
49	0xbe85d520	-0.26139164
50	0x3e60523b	0.21906368
51	0xbeb876b6	-0.3602807
52	0xbf0cb67c	-0.5496595
53	0xbdb593ec	-0.088661045
54	0x3cc57e09	0.02410795
55	0xbee73857	-0.4516017
56	0xbf041e30	-0.5160856
57	0xbe2d1995	-0.1690429
58	0xbf54e894	-0.83167386
59	0xbe3d4994	-0.18485099
60	0x3cf944c0	0.03042829
61	0xc00b6e89	-2.1786215
62	0xbeaad463	-0.33365163
63	0xbf037c48	-0.51361513
64	0xbe57f4b0	-0.21089435
65	0xbbc5d8c3	-0.006037803
66	0xbe973c2f	-0.29538104
67	0x3d90836a	0.07056315
68	0x3e80d3f2	0.251617
69	0xbf1e46b1	-0.61826617
70	0xbea1579d	-0.31512156
71	0x3f6910e2	0.91041386
72	0xbc923700	-0.017848492
73	0xbe8704b4	-0.26370776
74	0x3dfae330	0.12250364
75	0x3d97922e	0.074009284
76	0x3cbc8c38	0.02301608
77	0xbe374ca2	-0.17900327
78	0x3e9cb494	0.3060652
79	0xbf161ee8	-0.5864091
80	0xbdd768a2	-0.10518004
81	0xbed3cb12	-0.41365868
82	0xbf11f320	-0.57011604
83	0xbe0d6f7f	-0.13812064
84	0xbdf0ad29	-0.11751778
85	0xbf04c125	-0.51857215
86	0xbe5655c3	-0.20931153
87	0xbc1fe262	-0.009758564
88	0x3ed46df6	0.41490144
89	0xbef0799b	-0.46967778
90	0xbe469c7d	-0.19395633
91	0xbe92e324	-0.2868892
92	0xbd9e05c3	-0.07715943
93	0x3d43b4ea	0.047779955
94	0xbf8124db	-1.0089372
95	0xc019205a	-2.3925996
96	0xbf71f041	-0.94507223
97	0xbf6317e8	-0.88708353
98	0xbfa8424c	-1.3145232
99	0x3e9a184a	0.30096656
100	0xbf8f738e	-1.120714
101	0x3e715733	0.2356842
102	0xbf1218ad	-0.570689
103	0xbef93e2c	-0.48680246
104	0xbf6e1f9e	-0.93016994
105	0xbf03ace3	-0.5143568
106	0xbf8c4c02	-1.0960696
107	0x3ec8feb0	0.3925681
108	0x3f17a6de	0.59238994
109	0xc0266e63	-2.6004875
110	0xc0012601	-2.0179446
111	0x3dfdff0f	0.12402164
112	0xc051b67e	-3.2767634
113	0x3f8088ec	1.0041785
114	0xbf1a62b0	-0.60306835
115	0xbead9257	-0.3390071
116	0x3ea00490	0.3125348
117	0x3e532283	0.20618634
118	0xbea1dae4	-0.31612313
119	0xbf6dff72	-0.92967904
120	0x3da50d43	0.0805917
121	0xbf76c768	-0.9639802
122	0x3f0f36b7	0.55942863
123	0xbe3f6f30	-0.18694758
124	0xbe605482	-0.21907237
125	0xbe5abca9	-0.2136103
126	0x3e4c4328	0.19947493
127	0xbe7ff44e	-0.24995539
128	0x3ed0c71c	0.40776908
129	0x3e1fd853	0.15609865
130	0xbf152f11	-0.5827494
131	0xbe64fb81	-0.22361566
132	0xbeaf40bd	-0.3422908
133	0xbeb51eb8	-0.35375
134	0x3e461498	0.19343793
135	0xbd9c71bf	-0.07638883
136	0xbf008591	-0.50203806
137	0xbe8b4174	-0.27198374
138	0xbdf6bc08	-0.12047583
139	0xbef6d17c	-0.482067
140	0xbf0cfd7a	-0.55074275
141	0xbfb7ed78	-1.4369345
142	0x3f356a41	0.70865256
143	0xbe22625c	-0.15857834
144	0xbf922e2e	-1.1420343
145	0xbea83c32	-0.32858425
146	0xbeb2d59d	-0.349286
147	0xbf17ed18	-0.5934615
148	0xbdb728c4	-0.08943322
149	0xbe56fcc2	-0.20994857
150	0xbe41d190	-0.18927598
151	0xbf7d971d	-0.99058706
152	0xbe2a3423	-0.16621451
153	0xbe968f88	-0.2940638
154	0xbd9b11f0	-0.07571781
155	0x3e864b76	0.26229447
156	0xc056e61f	-3.3577955
157	0x3f099a00	0.5375061
158	0xbecfb99f	-0.40571305
159	0xbecc394e	-0.3988747
160	0xbf17fe1a	-0.59372103
161	0xbe8220a2	-0.25415522
162	0x3ec94233	0.39308318
163	0x3e44684f	0.19180416
164	0x3f2a3d25	0.6649955
165	0xbe2b2b07	-0.16715632
166	0xbc603550	-0.013684586
167	0xbe10b8f3	-0.14133053
168	0xbf0eb739	-0.55748326
169	0x3f40e3db	0.7534768
170	0xc0521931	-3.2827876
171	0xbe8bc43a	-0.27298146
172	0xbf8400af	-1.0312709
173	0x3e920b2e	0.28524154
174	0xbedb55ef	-0.42839
175	0xbe9732b5	-0.29530874
176	0xbe886e70	-0.26646757
177	0x3ded321f	0.115818255
178	0xbeddb811	-0.43304494
179	0xbec92cf0	-0.39292097
180	0xbee658d5	-0.44989648
181	0xbef44090	-0.47705507
182	0xbe363ac1	-0.1779585
183	0xbe4bce6c	-0.19902962
184	0xbf0a9325	-0.54130775
185	0x3f529088	0.8225179
186	0xbf157943	-0.58388156
187	0xbf5b4226	-0.8564781
188	0xbd9bf663	-0.07615354
189	0xbecba99b	-0.39777836
190	0xbecf32c8	-0.4046843
191	0xbf03b18e	-0.514428

layers.1.W1.weight f4 [64, 64]
0	0xbe31a5bf	-0.17348383
1	0x3d94462a	0.07239945
2	0x3c0a1ac4	0.008429233
3	0x3d6725c6	0.056432508
4	0xbc4d8658	-0.012544237
5	0xbd75ce0a	-0.060010947
6	0xbd13260f	-0.035924967
7	0xbe0d0d14	-0.1377452
8	0xbc42c2d3	-0.01188727
9	0xbe3e79fd	-0.18601222
10	0xbbff7e37	-0.0077970284
11	0xbd2639cb	-0.04058246
12	0xbd83bb86	-0.06432252
13	0xbcbb85b7	-0.022890909
14	0xbdf147bc	-0.1178126
15	0x3ca3da93	0.020001685
16	0xbc85c7d8	-0.016330644
17	0xbbda1a16	-0.0066559417
18	0x3daed175	0.085360445
19	0x3c8ea2d3	0.017411625
20	0x3d35f6ea	0.04442493
21	0xbc2071a9	-0.009792724
22	0x3cf5c327	0.030000282
23	0xbdbe2662	-0.09284665
24	0x3c3e26f2	0.011605965
25	0xbe6364de	-0.22206447
26	0x3bf4b017	0.0074672806
27	0x3cf9460c	0.030428909
28	0x3ce7df20	0.028304636
29	0xbde6bdd7	-0.11266678
30	0xbda2a0ea	-0.07940848
31	0xbe268b1d	-0.16264005
32	0x3c871a50	0.016492039
33	0xbe9e7a43	-0.30952653
34	0x3d167aa3	0.03673805
35	0xbb56547b	-0.0032704163
36	0xbe99236e	-0.29909843
37	0x3d6597a6	0.056052826
38	0xbda56c25	-0.080772676
39	0xbebb818a	-0.36622268
40	0xbe30765a	-0.17232648
41	0xbd1d2e2c	-0.03837411
42	0xbe09a161	-0.13440467
43	0xbe801076	-0.2501256
44	0xbe21fb62	-0.15818551
45	0x3d943619	0.07236881
46	0x3d44638c	0.047946498
47	0x3d6462f0	0.055758417
48	0xbcd33ef4	-0.025786854
49	0xbd19272e	-0.03739088
50	0xbd19fe9f	-0.03759634
51	0xbd4963d4	-0.04916747
52	0xbe240eb1	-0.1602123
53	0xbe085603	-0.13314061
54	0xbe8bedfc	-0.27330005
55	0xbd8c6a77	-0.06856244
56	0xbc6e3447	-0.014538831
57	0xbcd7b9be	-0.026333686
58	0x3d498eb7	0.04920837
59	0xbe890af3	-0.26766166
60	0xbe07dc6f	-0.13267682
61	0xbeb45bcb	-0.35226282
62	0xbe15dfe7	-0.14636193
63	0xbe0788c5	-0.13235767
64	0xbcb7210b	-0.022354623
65	0xbe05327e	-0.13007542
66	0x3d49f845	0.049309034
67	0xbdcbf7ed	-0.099593975
68	0xbd8f2fc8	-0.069915354
69	0xbdc703e9	-0.09717543
70	0xbd77db28	-0.060511738
71	0xbca34401	-0.019929888
72	0xbd809e0a	-0.062801436
73	0xbd5e4851	-0.054268185
74	0xbd351f21	-0.04421914
75	0xbc5d3ac3	-0.013502779
76	0xbdc8a9a6	-0.09797983
77	0xbe09d28a	-0.1345922
78	0xbcfa6255	-0.030564466
79	0xbd994df0	-0.074855685
80	0xbdeef7c3	-0.116683505
81	0xbbf7b702	-0.007559658
82	0xbd71563b	-0.058920126
83	0xbda03b43	-0.07823803
84	0xbdf6eb07	-0.12056547
85	0xbd9cac6c	-0.07650074
86	0xbe2a5683	-0.16634564
87	0xbd0182a8	-0.031618744
88	0xbd6e4d55	-0.05817922
89	0x3c4f7e21	0.012664349
90	0xbd54072a	-0.051764645
91	0xbd4d0b9d	-0.050059903
92	0x3d0b79b8	0.034051627
93	0x3d0f9d58	0.035062164
94	0xbdf3f7a9	-0.11912472
95	0x3c6ebb65	0.0145710455
96	0x3cfa6e58	0.030570194
97	0xbdaac82a	-0.083389595
98	0xbc876c74	-0.016531207
99	0xbe0a431a	-0.1350216
100	0xbd212af4	-0.039347604
101	0xbd740df0	-0.059583604
102	0xbe149398	-0.14509428
103	0x3d1d404c	0.038391396
104	0xbe2f955d	-0.17146821
105	0x3d8000fc	0.06250188
106	0xbe30b2a6	-0.17255649
107	0xbd9a2640	-0.07526827
108	0xbd5772dc	-0.052599773
109	0x3cec0066	0.028808784
110	0xbd394a1c	-0.04523669
111	0xbcc53c5a	-0.02407663
112	0x3c9e9fa8	0.01936324
113	0x3c5d11f1	0.013493047
114	0xbd578bb4	-0.052623466
115	0xbc591469	-0.013249495
116	0xbe0ad1e8	-0.13556635
117	0xbdb1e5b0	-0.086863875
118	0x3d52b893	0.051445555
119	0xbe1ac405	-0.15113838
120	0xbda692f3	-0.08133497
121	0xbd99f01e	-0.07516502
122	0x3d7eb082	0.06218005
123	0xbdc25ce5	-0.094903745
124	0xbe1ef178	-0.155218
125	0xbdbbe36e	-0.09174238
126	0x3d840cda	0.06447764
127	0x3d4ae68c	0.049536273
128	0x3d64ee0e	0.05589109
129	0xbe35e1ca	-0.17761913
130	0xbb9ef37d	-0.0048508034
131	0xbe5035e8	-0.20333064
132	0xbd1b74c8	-0.03795317
133	0x3ce01135	0.027351955
134	0x3d094839	0.033516143
135	0xbdd78820	-0.10524011
136	0xbd9679c4	-0.07347444
137	0xbd0a4e32	-0.03376598
138	0xbe389ed5	-0.1802934
139	0xbe3f38c6	-0.18674001
140	0xbe1c27ef	-0.15249608
141	0xbba209b9	-0.0049450067
142	0xbc7f2231	-0.015572117
143	0xbd036503	-0.032078754
144	0xbcc7b722	-0.024379317
145	0x3cf84e4f	0.030310778
146	0xbe19f4c6	-0.1503478
147	0xbcc2130c	-0.023690723
148	0xbd906f05	-0.07052425
149	0xbe0c31ae	-0.13690826
150	0x3d3ac0fd	0.045594204
151	0xbe2c3f03	-0.16820912
152	0x3b3379c2	0.0027385806
153	0xbe2a8bf8	-0.16654956
154	0xbd19b43c	-0.0375254
155	0xbce74acf	-0.028233914
156	0x3d288604	0.041143432
157	0xbe18493a	-0.14871684
158	0x3d665e0d	0.056242038
159	0xbe1f3c77	-0.1555041
160	0xbe306ab9	-0.17228211
161	0xbe5a6708	-0.21328366
162	0xbc2ff514	-0.0107395835
163	0xbda461c7	-0.08026462
164	0xbe81ee18	-0.25376964
165	0xbdd53fd2	-0.104125634
166	0x3cba0efc	0.022712223
167	0x3c58046e	0.01318465
168	0xbe11faab	-0.14255778
169	0x3c3c4b50	0.011492565
170	0xbdef8dd9	-0.11696977
171	0x3d7d48be	0.06183695
172	0xbce44f9a	-0.027869988
173	0xbd8f3fd7	-0.06994598
174	0xbd829a76	-0.06377117
175	0xbd8827b4	-0.06648198
176	0xbe23c0ed	-0.15991564
177	0x3c870b50	0.016484886
178	0x3d808c30	0.06276739
179	0x3cc553cf	0.024087815
180	0xbd377940	-0.044793367
181	0xbea73a4d	-0.32661667
182	0x3a787927	0.00094785023
183	0xbd59c2d4	-0.05316432
184	0xbddabde8	-0.10680753
185	0xbd1fc365	-0.039004702
186	0x3d7378df	0.059441444
187	0x3d7ddfe5	0.0619811
188	0x3c4e55f3	0.012593734
189	0x3d09019c	0.0334488
190	0xbe965e5d	-0.29368868
191	0xbe319b8e	-0.17344496
192	0xbec39045	-0.38196006
193	0xbe4324ce	-0.19057009
194	0xbede2553	-0.4338785
195	0x3e837143	0.2567235
196	0xbdfd8817	-0.12379473
197	0xbe96b3a9	-0.29433945
198	0xbe87ed2f	-0.26548144
199	0xbec1c3bc	-0.37844646
200	0x3c3ed661	0.011647792
201	0xbe5428be	-0.20718667
202	0xbd66be69	-0.056333933
203	0xbeaf8a44	-0.34285176
204	0xbecc2d89	-0.3987849
205	0xbce3dfd7	-0.027816696
206	0x3f149027	0.5803246
207	0xbed7c221	-0.42140296
208	0xbebaac5b	-0.36459622
209	0x3cd41c38	0.025892362
210	0x3cf31cc2	0.029676799
211	0xbdce1f35	-0.10064546
212	0xbecfac5b	-0.40561184
213	0xbe5e9d6d	-0.2173974
214	0xbe81acf5	-0.25327268
215	0xbe650bfe	-0.22367856
216	0xbe0ab8db	-0.1354708
217	0xbead4e74	-0.33848917
218	0xbe8a08de	-0.2695989
219	0xbd6bf37e	-0.05760526
220	0x3ccb6d38	0.024832353
221	0x3e47a16f	0.19495176
222	0xbea22645	-0.31669822
223	0xbee9cbac	-0.45663202
224	0xbedc6d3d	-0.43052092
225	0xbea658c0	-0.32489586
226	0xbecaea1d	-0.3963174
227	0xbf19206f	-0.59815115
228	0xbee1bf40	-0.44091225
229	0xbea46fc7	-0.3211653
230	0xbeaaf9c5	-0.33393684
231	0xbefc1d6c	-0.49241197
232	0xbec8ff8b	-0.39257464
233	0xbd87a646	-0.06623511
234	0xbe8fdda8	-0.28098798
235	0x3ca1cc8a	0.019750852
236	0xbd8bb1bb	-0.06821009
237	0xbe1c4f39	-0.15264596
238	0x3c96bc00	0.018400192
239	0xbe15331c	-0.14570278
240	0x3d8ae432	0.06781806
241	0xbe837be5	-0.25680462
242	0xbd567190	-0.052354395
243	0xbe8b3824	-0.2719127
244	0x3eec4c02	0.4615174
245	0xbea40f14	-0.32042754
246	0xbef1011e	-0.47071165
247	0xbccfc9db	-0.025364807
248	0x3ebb7e56	0.36619824
249	0xbea91866	-0.33026427
250	0xbd504341	-0.05084539
251	0xbe906559	-0.28202322
252	0xbc5b6e42	-0.013392987
253	0xbecaeaf6	-0.39632386
254	0x3d6f3dbc	0.058408484
255	0x3d7bbfe4	0.061462298

layers.1.W2.weight f4 [64, 64]
0	0xbc4482d2	-0.011994081
1	0xbe49bc42	-0.19700721
2	0xbe00af52	-0.1256688
3	0xbdd24c1a	-0.102684215
4	0xbe31b36e	-0.17353603
5	0xbcd12e62	-0.025534812
6	0xbcb14a15	-0.02164177
7	0xbdde9951	-0.108690865
8	0x3d2313d6	0.03981384
9	0xbda89d90	-0.08233178
10	0xbdaf4323	-0.08557727
11	0x3d0fc81d	0.035102952
12	0xbda74551	-0.08167518
13	0xb9e092c5	-0.0004283396
14	0x3c459875	0.012060274
15	0xbe24d947	-0.1609851
16	0xbd9ec8f3	-0.07753172
17	0x3cbd2cb6	0.023092609
18	0xbd501546	-0.050801538
19	0xbd4c94c8	-0.049946576
20	0x3d4ce383	0.05002166
21	0xbd58b489	-0.052906547
22	0xbdc6885b	-0.096939765
23	0xbccf373b	-0.02529489
24	0xbe32eea0	-0.1747384
25	0xbe0a3080	-0.13495064
26	0x3cac1436	0.021005731
27	0xbe017dbb	-0.12645619
28	0xbd393848	-0.04521969
29	0xbdb4f0c9	-0.088349886
30	0x3d64ebaf	0.055888828
31	0xbe68ad62	-0.2272239
32	0xbd94b105	-0.07260326
33	0xbe9b5e5f	-0.30345437
34	0xbcf22db5	-0.02956281
35	0xbbe79c53	-0.007068196
36	0xbdd9221d	-0.1060221
37	0x3e3faf49	0.1871921
38	0xbd93a85e	-0.07209848
39	0xbe1a5d76	-0.15074715
40	0xbe092a3a	-0.13395014
41	0xbcec9ea8	-0.028884247
42	0xbe2d33f9	-0.16914357
43	0xbde50499	-0.111825176
44	0xbe251c6e	-0.16124126
45	0x3ce112ca	0.02747478
46	0xbccdcce0	-0.025122106
47	0xbd86e920	-0.06587434
48	0xbe295f93	-0.16540365
49	0xbdea595d	-0.11442826
50	0xbda2a0e5	-0.079408444
51	0xbe4013f0	-0.18757606
52	0xbdb19aae	-0.08672081
53	0x3d94bfa8	0.07263118
54	0xbe00f486	-0.12593278
55	0x3cb3a68e	0.021930005
56	0xbdcbedc7	-0.09957462
57	0xbd872ce4	-0.06600359
58	0xbe1d8e91	-0.15386416
59	0xbe632712	-0.22182873
60	0xbd8745e5	-0.06605128
61	0xbe16e50b	-0.1473581
62	0xbdc41edc	-0.095761985
63	0x3df4d62a	0.11954911
64	0x3af5a827	0.001874213
65	0xbdfadbd8	-0.12248963
66	0xbd8e4fcc	-0.06948814
67	0xbe21edb2	-0.1581333
68	0xbe21e13d	-0.15808578
69	0xbe362fa4	-0.17791611
70	0xbd20e218	-0.03927812
71	0xbe207a62	-0.15671685
72	0xbdce9e0a	-0.10088737
73	0x3b62f3d7	0.0034630203
74	0x3d5b77db	0.0535811
75	0xbdbff786	-0.09373383
76	0x3cd8ff36	0.026488882
77	0xbd8e6433	-0.06952705
78	0xbdae38de	-0.0850694
79	0xbd9949d8	-0.07484788
80	0xbdef123c	-0.116734
81	0xbcd3b49f	-0.025842963
82	0xbd78c1c7	-0.060731675
83	0xbdf7b96f	-0.120959155
84	0x3c9f5a42	0.019452218
85	0xbded5b94	-0.11589733
86	0xbe14bb42	-0.14524558
87	0xbc887e84	-0.01666189
88	0xbd8ab67d	-0.06773088
89	0xbe074fbb	-0.13214009
90	0xbe25fc9b	-0.16209643
91	0xbdc7b150	-0.097506166
92	0xbdc402bc	-0.09570834
93	0x3c01f4ef	0.007931932
94	0xbd9ae13f	-0.075624935
95	0x3b8dca60	0.0043271035
96	0x3a4fe3fc	0.00079303957
97	0xbd4cbedd	-0.04998671
98	0xbda26885	-0.07930092
99	0xbdff0600	-0.12452316
100	0xbd02b7f8	-0.031913728
101	0xbe2ccc63	-0.16874842
102	0xbdf7bd3a	-0.12096639
103	0x3d225127	0.039628174
104	0xbdacae79	-0.084317155
105	0x3dce8568	0.10084039
106	0x3c64d46b	0.01396666
107	0xbdb0f57f	-0.08640575
108	0xbe2485cc	-0.16066664
109	0x3d2532bc	0.040331587
110	0x3c2c8710	0.010530248
111	0x3d6ddfbc	0.058074698
112	0xbe3141d9	-0.17310275
113	0xbd0c79e3	-0.034295928
114	0xbe2bc7a3	-0.16775374
115	0xbd9a12f9	-0.0752315
116	0xbe2db09c	-0.16961902
117	0xbde90154	-0.113772064
118	0xbd68b863	-0.05681647
119	0x3d816455	0.06317965
120	0xbd5206e2	-0.051276095
121	0xbd92b5d1	-0.07163585
122	0x3d67455e	0.056462638
123	0xbd46d536	-0.048543178
124	0xbe04f796	-0.12985072
125	0x3c9f2d5e	0.019430812
126	0x3db6ab20	0.08919358
127	0x3dddfa2a	0.10838731
128	0x3d987cc9	0.07445676
129	0xbe2417e2	-0.16024736
130	0xbdb4b030	-0.088226676
131	0xbcac0f2f	-0.021003334
132	0xbdc2c679	-0.09510512
133	0xbd5bae28	-0.053632885
134	0x3d3fd229	0.046831284
135	0xbdfd412b	-0.123659454
136	0x3d251286	0.04030087
137	0xbdcbb018	-0.099456966
138	0xbd05d578	-0.032674283
139	0xbd8d9c79	-0.069146104
140	0xbd5b1ca3	-0.053494107
141	0xbc031039	-0.007999473
142	0xbdcb99da	-0.09941454
143	0x3da4794b	0.08030947
144	0xbdcce27e	-0.100041375
145	0x3d851419	0.06497974
146	0xbdc192a4	-0.094517976
147	0xbdd16c87	-0.10225778
148	0x3d5ea3c8	0.054355413
149	0xbd7f6270	-0.062349737
150	0xbd9ec66d	-0.077526905
151	0xbca440e6	-0.020050477
152	0xbd0686ef	-0.032843526
153	0xbca83d40	-0.020537019
154	0xbdabb6d6	-0.083844826
155	0x3c8b1427	0.016977383
156	0x3d8c1106	0.068391845
157	0x3c7ac002	0.015304567
158	0x3d8534c4	0.06504205
159	0xbd44f038	-0.048080653
160	0xbd77f1d7	-0.06053337
161	0xbdcc63b2	-0.09979953
162	0xbd9fbee4	-0.07800081
163	0xbcb7ccfd	-0.022436613
164	0xbdb33620	-0.08750558
165	0xbd988fe6	-0.074493214
166	0x3a71165a	0.0009196751
167	0x3b8bc233	0.0042650937
168	0x3d2ca155	0.042146046
169	0xbdf91f22	-0.12164141
170	0x3d58d8e3	0.052941214
171	0xbd892436	-0.0669636
172	0xbe252429	-0.16127075
173	0x3d6fd48e	0.058552317
174	0xbd912410	-0.070869565
175	0xbdc444d5	-0.09583441
176	0x3d9a0a1b	0.07521459
177	0x3aca46ea	0.0015432511
178	0x3da68d6a	0.08132441
179	0xbdd95dc6	-0.10613589
180	0x3d08666a	0.033300795
181	0x3d856f00	0.06515312
182	0xbc9156ec	-0.017741643
183	0xbda0e9d6	-0.07857101
184	0xbc6e1c1b	-0.014533068
185	0x3b3ae1c7	0.0028515921
186	0x3dbbcf9e	0.09170459
187	0xbe0b495b	-0.13602202
188	0xbe07f0ab	-0.13275401
189	0xbe18fa50	-0.14939237
190	0xbdd7ada3	-0.105311655
191	0xbdc29048	-0.09500176
192	0xbe588ff3	-0.21148662
193	0xbe6c5d35	-0.2308243
194	0xbeb6250c	-0.3557514
195	0xbe245f75	-0.16052039
196	0xbe862a70	-0.26204252
197	0xbf0284aa	-0.5098368
198	0xbeebf6c5	-0.46086708
199	0xbe1445d4	-0.14479762
200	0xbe8c2d88	-0.27378488
201	0xbe9be4ff	-0.30448148
202	0x3ea8100f	0.32824752
203	0xbeee6568	-0.46561742
204	0xbe53b2b8	-0.20673645
205	0xbe002f07	-0.1251794
206	0x3e8d326e	0.27577537
207	0xbec02292	-0.37526375
208	0xbea157a1	-0.31512168
209	0x3db0bb87	0.08629518
210	0x3df4794f	0.119372
211	0xbe24d464	-0.16096646
212	0xbf0a162e	-0.53940094
213	0xbe987a6b	-0.29780897
214	0xbeb728dc	-0.3577336
215	0xbd2ff3fe	-0.0429573
216	0xbe0316f7	-0.12801729
217	0xbeb8ac62	-0.36069018
218	0xbe88f725	-0.26751056
219	0xbd9e4beb	-0.07729324
220	0xbdc8b2ee	-0.09799753
221	0xbdf767a6	-0.12080316
222	0xbe864b82	-0.26229483
223	0xbeb6ba60	-0.35689068
224	0x3eac56ed	0.3366007
225	0xbe9008f9	-0.28131846
226	0xbe9c12ab	-0.30482993
227	0xbd97642e	-0.07392155
228	0x3ef5edd2	0.48033005
229	0xbd1c058b	-0.038091224
230	0xbed4cd53	-0.415629
231	0xbee99108	-0.45618463
232	0xbeb497de	-0.35272115
233	0x3dda4f86	0.10659699
234	0xbec25f73	-0.37963447
235	0xbde2e930	-0.11079633
236	0xbe29cc94	-0.16581947
237	0xbe1b3d78	-0.15160167
238	0x3d75d7f8	0.060020417
239	0xbebb3bb9	-0.36569002
240	0x3e20f5ac	0.15718716
241	0xbe844190	-0.2583127
242	0xbd56502c	-0.05232255
243	0xbee15c6d	-0.44015828
244	0x3e9e5c6e	0.30929893
245	0xbdde718e	-0.108615026
246	0xbeb3ed37	-0.35141918
247	0xbdea1cfb	-0.11431309
248	0x3e3f0f01	0.18658067
249	0xbee487d3	-0.44634876
250	0xbdd05296	-0.10172002
251	0xbead8c1e	-0.33895963
252	0xbdd0eb6d	-0.10201154
253	0xbecf69fb	-0.40510544
254	0x3cde48c7	0.027134312
255	0xbdd14690	-0.10218537

layers.2.W1.weight f4 [64, 64]
0	0x3cdd5ad2	0.027020846
1	0xbdc838cc	-0.09776458
2	0xbdfe9bf6	-0.12432091
3	0xbcb750a4	-0.02237732
4	0xbc98e44f	-0.018663554
5	0xbb63e0c2	-0.0034771417
6	0xbdb4c188	-0.08825976
7	0x3d133bf0	0.035945833
8	0xbd0326fe	-0.032019608
9	0xbdf48e6d	-0.11941228
10	0x3ca8fa63	0.020627206
11	0xbe282e26	-0.16423854
12	0xbd989b54	-0.074515015
13	0x3c2a411c	0.0103915
14	0xbc3e09c8	-0.011599012
15	0xbde0607f	-0.10955905
16	0xbd8f7385	-0.070044555
17	0xbda9bedd	-0.082883574
18	0x3d503264	0.050829306
19	0xbeaec472	-0.3413425
20	0xbbf42431	-0.0074506034
21	0x3df45b82	0.11931516
22	0xbdb01154	-0.08597055
23	0xbdf00cd4	-0.11721197
24	0xbcf2eef8	-0.029654965
25	0xbe2390e7	-0.15973245
26	0xbe188667	-0.1489502
27	0x3d5eefc2	0.05442787
28	0xbe57d44e	-0.21077082
29	0x3d27f443	0.04100443
30	0xbd9dabfc	-0.07698819
31	0xbeba76a9	-0.36418656
32	0xbe2116ef	-0.15731405
33	0xbdd74bdf	-0.10512518
34	0xbefbe24d	-0.4919609
35	0xbd35cb9d	-0.044383634
36	0xbc88bc6e	-0.016691413
37	0x3d06ebc3	0.032939684
38	0xbc0c2941	-0.008554758
39	0x3dac9c78	0.084282815
40	0xbd449bcc	-0.048000142
41	0x3d0f168b	0.034933608
42	0xbb75be07	-0.0037497298
43	0xbe1af50a	-0.15132537
44	0xbe1d728a	-0.15375724
45	0xbcb5e97a	-0.022206057
46	0xbe38fb7d	-0.18064685
47	0xbdb2e74e	-0.08735524
48	0xbc36e323	-0.011162552
49	0xbdcf38e3	-0.10118272
50	0xbd84105c	-0.06448433
51	0xbdbf6fc3	-0.09347489
52	0x3c9bdf80	0.019027472
53	0x3d355da3	0.044278752
54	0x3f3d387b	0.7391431
55	0xbe2f52af	-0.17121385
56	0xbdc6ad8f	-0.097010724
57	0x39febe6b	0.00048588528
58	0x3c635d29	0.013877192
59	0xbce58090	-0.028015405
60	0x3c097f76	0.008392205
61	0xbd828fbb	-0.06375071
62	0xbd98dbc2	-0.074637905
63	0x3d6e4095	0.05816706
64	0x3cd0c41c	0.025484137
65	0xbe17dc2b	-0.14830081
66	0xbe2d3dd3	-0.16918115
67	0x3cbda793	0.023151195
68	0x3b8d6f55	0.0043162503
69	0xbe19b535	-0.15010531
70	0xbd278407	-0.040897395
71	0xbcb3cb4d	-0.021947527
72	0xbe2dffb3	-0.16992073
73	0xbd951d74	-0.07281008
74	0xbe2a7122	-0.16644719
75	0xbd4ada5d	-0.049524654
76	0xbe332d14	-0.17497665
77	0x3d651a9f	0.05593359
78	0xbe1e9e8d	-0.1549017
79	0x3cae9b56	0.021314304
80	0xbe1d8019	-0.15380897
81	0xbd9ef19c	-0.07760927
82	0xbd8dc674	-0.069226176
83	0xb97c5fc6	-0.00024068271
84	0xbb2fc391	-0.0026819448
85	0xbe35cc3d	-0.17753692
86	0xbe2b6233	-0.16736679
87	0xbd325139	-0.04353449
88	0xbd77da12	-0.060510702
89	0xbe920542	-0.28519636
90	0xbcb4aaaf	-0.022054045
91	0xbdad966e	-0.08475958
92	0xbe436862	-0.19082788
93	0xbd519123	-0.051163804
94	0xbd6bdedc	-0.057585582
95	0xbc882a80	-0.016621828
96	0xbe20cd71	-0.1570337
97	0xbdf56cc1	-0.11983634
98	0x3d7cd618	0.061727613
99	0xbde6418b	-0.1124297
100	0xbe37b26a	-0.17939153
101	0xbd7687fb	-0.060188275
102	0xbce46847	-0.027881755
103	0xbcc1edd9	-0.023672985
104	0xbc8803b8	-0.016603336
105	0xbe3bcda2	-0.18340161
106	0xbe07585b	-0.13217299
107	0xbdf75960	-0.12077594
108	0x3a0617ee	0.000511526
109	0xbe3ce8b0	-0.18448138
110	0xbe2e2069	-0.17004551
111	0xbcc5b41d	-0.024133736
112	0xbd44ca44	-0.048044458
113	0xbc1e9b49	-0.009680578
114	0x3cfc33bc	0.030786388
115	0xbc204fbf	-0.009784638
116	0xbda61b6e	-0.081107005
117	0x3d5cdf18	0.053923696
118	0xbcdf48ff	-0.027256487
119	0xbebfe242	-0.3747731
120	0xbe30b16f	-0.17255186
121	0xbd4c2807	-0.04984286
122	0xbdb15d37	-0.086603574
123	0xbe372398	-0.17884672
124	0xbdf969dc	-0.12178394
125	0x3ccf894f	0.025334029
126	0xbc68e62a	-0.014215032
127	0xbc1b9224	-0.009495292
128	0x3af19175	0.001843019
129	0xbd79e6b9	-0.06101105
130	0x3d3853de	0.045001857
131	0xbe8f813c	-0.28028286
132	0xbdb90a9b	-0.09035226
133	0xbe0d912e	-0.13824913
134	0xbd4a8ff8	-0.049453706
135	0xbceb7f11	-0.028747113
136	0xbc8fe977	-0.01756738
137	0xbda77586	-0.08176713
138	0xbe356d5b	-0.17717497
139	0xbd6c7392	-0.057727404
140	0xbd915343	-0.07095959
141	0xbe145328	-0.14484847
142	0xbcfd426b	-0.03091546
143	0xbd99fe46	-0.07519202
144	0x3ccb76c7	0.02483691
145	0xbd9930cd	-0.07480011
146	0xbd7cdee0	-0.061735988
147	0xbe453a28	-0.19260466
148	0xbd9a52b0	-0.07535303
149	0xbdd69f84	-0.10479644
150	0xba7c1528	-0.00096161896
151	0x3d2e1842	0.042503603
152	0xbc0ec4e0	-0.008713931
153	0xbe4b4678	-0.198511
154	0x3ced9a4c	0.029004239
155	0xbdefedbf	-0.11715268
156	0x3e5f5391	0.21809222
157	0xbe0dfdae	-0.13866302
158	0x3b161a80	0.0022903979
159	0x3d200edb	0.039076667
160	0xbc750615	-0.014955063
161	0xbdb0a487	-0.08625131
162	0x3c45cff8	0.012073509
163	0xbc2cb1a0	-0.010540396
164	0xbe462643	-0.19350533
165	0xbc7586f5	-0.01498579
166	0xbe223b0c	-0.15842837
167	0xbdb22c30	-0.08699834
168	0xbd99d90c	-0.075121015
169	0xbde399b2	-0.111132994
170	0xbe05475b	-0.13015501
171	0xb8d79367	-0.00010279455
172	0xbdb2d094	-0.08731189
173	0xbe51e392	-0.20496967
174	0xbd80a1be	-0.0628085
175	0xbe36c72e	-0.17849419
176	0xbe211b80	-0.15733147
177	0xbb9df933	-0.0048209666
178	0x3c47e89c	0.0122014545
179	0xbde7af1d	-0.11312697
180	0xbe246b8f	-0.16056655
181	0xbb6a3eb7	-0.0035742947
182	0xbe37c548	-0.1794635
183	0xbcc57086	-0.024101507
184	0x3ab8d5c2	0.0014101791
185	0xbc0c11d4	-0.008549172
186	0xbcd445ef	-0.025912253
187	0xbd0c1b24	-0.03420557
188	0xbe1fa1bc	-0.1558904
189	0xbe07c543	-0.13258843
190	0x3c4d7860	0.012540907
191	0x3ceefb5d	0.029172594
192	0x3d9b6487	0.075875334
193	0x3ddb26af	0.10700738
194	0xbe5f3498	-0.21797407
195	0x3ea89e93	0.32933483
196	0x3cdd2717	0.026996179
197	0xbdb14ea1	-0.086575754
198	0xbe396e0e	-0.18108389
199	0xbc0cc153	-0.008591014
200	0xbd2dcbde	-0.04243075
201	0xbd97173f	-0.07377481
202	0x3e18489f	0.14871453
203	0x3e4a0e94	0.19732124
204	0x3d2ab9c4	0.041681066
205	0x3e1beef4	0.15227872
206	0x3e09a290	0.13440919
207	0x3d203401	0.039112095
208	0xbd43ae59	-0.047773693
209	0xbc3c8306	-0.011505848
210	0xbd2ded10	-0.04246241
211	0x3e9634db	0.293372
212	0x3e27da4c	0.16391867
213	0xbdd63cc4	-0.10460809
214	0xbd0dcedf	-0.034621116
215	0xbda7ecfe	-0.081994995
216	0x3f259086	0.6467365
217	0xbd78b112	-0.060715742
218	0x3d7da191	0.06192166
219	0xbc90cea6	-0.017676663
220	0x3e931025	0.28723255
221	0x3bf12d2a	0.0073601203
222	0x3d703270	0.05864185
223	0x3f032bf8	0.51238966
224	0x3c18089d	0.009279397
225	0x3d835712	0.06413092
226	0xbab43880	-0.0013749748
227	0x3db81299	0.08987922
228	0x3de99c1d	0.11406729
229	0x3cb0ab74	0.02156613
230	0x3e9e112a	0.3087247
231	0xbd276e9e	-0.040876977
232	0x3ecd4abc	0.4009608
233	0x3e1ded3e	0.15422532
234	0xbd0e7b29	-0.034785423
235	0x3dc108c4	0.094255
236	0x3d1e2927	0.038613465
237	0xbe2956ba	-0.1653699
238	0x3dbfdd78	0.09368414
239	0xbd9d094d	-0.076677896
240	0x3d4541e6	0.04815855
241	0x3d080315	0.033206064
242	0xbce382c8	-0.027772322
243	0xbd7670ad	-0.06016605
244	0x3c8ec70e	0.017428901
245	0xbdd5cfc1	-0.104400165
246	0x3e75ff4d	0.24023171
247	0xbe2add3e	-0.1668596
248	0xbdb91cff	-0.09038734
249	0x3e334498	0.17506635
250	0x3ca13343	0.019677764
251	0xbd881b2a	-0.06645806
252	0x3dbb5856	0.09147708
253	0x3d90cf10	0.07070744
254	0x3dcd714e	0.10031377
255	0xbd9179e7	-0.07103329

layers.2.W2.weight f4 [64, 64]
0	0xbe28a9fe	-0.16471097
1	0xbac375ae	-0.0014912391
2	0xbe5a9b89	-0.21348394
3	0xbd6ee801	-0.058326725
4	0x3d1df321	0.038561944
5	0x3b4d6c3b	0.0031345028
6	0xbc821658	-0.015879795
7	0xbcadbd76	-0.021208506
8	0xbc06de53	-0.008231717
9	0x3c30c670	0.010789499
10	0x3d487e5e	0.04894864
11	0xbe0e941f	-0.13923691
12	0xbe3e3422	-0.18574575
13	0xbd5d6903	-0.054055225
14	0x3d6f77e8	0.05846396
15	0xbde823f0	-0.113349795
16	0x3c89854f	0.0167872
17	0xbe03de12	-0.12877682
18	0xbdd1bfdc	-0.102416724
19	0xbe8dadf3	-0.27671775
20	0xbc6e5d87	-0.014548666
21	0x3e0b23f3	0.13587932
22	0xbc19e14b	-0.009392093
23	0xbd8c2998	-0.06843871
24	0xbd98407c	-0.074341744
25	0xbd9e97e6	-0.07743816
26	0xbdadbe24	-0.08483532
27	0xbe098bb9	-0.13432206
28	0xbe0b2114	-0.13586837
29	0xbe132e2d	-0.14373083
30	0xbd5711c0	-0.052507162
31	0xbee6d25f	-0.45082375
32	0x3d70ae6a	0.058760084
33	0xbd3ad425	-0.045612473
34	0x3e925358	0.2857921
35	0xbdf8ef65	-0.12155036
36	0xbd678df5	-0.056531865
37	0x3e83b9ff	0.2572784
38	0xbd2d8570	-0.042363584
39	0x3dceafbe	0.10092114
40	0xbdca8fe5	-0.09890727
41	0xbddab3fa	-0.10678859
42	0xbe1bb5d1	-0.15206076
43	0xbe3c5adc	-0.18394035
44	0xbbb5b852	-0.0055456543
45	0xbddd8a83	-0.10817435
46	0xbe03c0a6	-0.12866458
47	0xbd517134	-0.05113335
48	0xbe1f6487	-0.15565692
49	0xbe1fe30b	-0.15613954
50	0xbe111076	-0.14166436
51	0x3d9779ac	0.07396254
52	0xbd583dac	-0.05279319
53	0xbddb7a8e	-0.10716735
54	0x3f0d4ec3	0.55198306
55	0xbe08bcbe	-0.1335325
56	0xbe07f364	-0.1327644
57	0xbc1cce46	-0.009570664
58	0xbdaab01f	-0.08334374
59	0xbdd9814c	-0.106203645
60	0x3cb94e8d	0.022620464
61	0xbb17581c	-0.0023093289
62	0xbd018277	-0.03161856
63	0x3c61d287	0.013783104
64	0xbd228f3b	-0.039687376
65	0xbcb1242d	-0.021623695
66	0xbe291ef8	-0.1651572
67	0x3e93e9d3	0.2888933
68	0xbe1ed4c7	-0.15510856
69	0xbcf0d513	-0.029398477
70	0xbda2176a	-0.07914622
71	0xbdf812cd	-0.12112961
72	0xbd531651	-0.051534954
73	0x3cb32644	0.021868832
74	0xbdc0b823	-0.09410121
75	0xbd4b3a34	-0.049616054
76	0xbe2d10aa	-0.16900888
77	0xbd97bd4e	-0.07409154
78	0x3d4dc26b	0.05023424
79	0x3d686c53	0.05674393
80	0xbdcc7a89	-0.09984309
81	0xbc3c6327	-0.011498249
82	0xbd8de764	-0.069289
83	0xbc654b3f	-0.013994991
84	0xbd36f431	-0.044666473
85	0xbe233ac0	-0.1594038
86	0xbcc5963c	-0.024119489
87	0xbce04d0d	-0.02738049
88	0xbe059952	-0.13046768
89	0xbd10606a	-0.035248198
90	0xbe10fe1c	-0.14159435
91	0x3d74378c	0.059623286
92	0xbe9aee97	-0.30260155
93	0x3ccd62ee	0.025071587
94	0xbd0670ac	-0.032822296
95	0xbdfd0887	-0.12355142
96	0x3cfbb595	0.030726233
97	0x3c81bda0	0.01583749
98	0x3ecf70d5	0.40515772
99	0xbcba7f30	-0.022765726
100	0xbde6772a	-0.112531975
101	0xbe8cd006	-0.2750246
102	0xbe37a2b0	-0.17933154
103	0xbd558a0e	-0.052133612
104	0x3d742bb8	0.059612006
105	0xbdcfd9e0	-0.10148978
106	0xbdcea250	-0.100895524
107	0x3ce54c19	0.027990388
108	0xbb909dd6	-0.0044133468
109	0xbdc6ed55	-0.09713236
110	0xbd9df475	-0.07712642
111	0x3e12922f	0.14313577
112	0x3d36cfa1	0.044631604
113	0xbe0ef1e2	-0.13959458
114	0xbe17d8a2	-0.14828733
115	0xbe03746a	-0.12837377
116	0xbd374491	-0.044743124
117	0xbe0bd2c7	-0.13654624
118	0xbde88cf1	-0.113550074
119	0xbe9bd354	-0.30434668
120	0xbdc924c9	-0.09821469
121	0x3cc2fef2	0.023803208
122	0x3c9ca76e	0.019122805
123	0x3cd54858	0.026035473
124	0x3bd2bee4	0.0064314473
125	0xbe0c3325	-0.13691385
126	0xbe20ab05	-0.15690239
127	0xbe45c184	-0.19312102
128	0xbdc9fb63	-0.09862401
129	0x3d1c74ad	0.03819721
130	0xbdc17f17	-0.094480686
131	0xbe41acba	-0.18913546
132	0x3c883380	0.01662612
133	0xbe5041cf	-0.20337604
134	0x3d6c6fa8	0.05772367
135	0xbe0c94f1	-0.13728692
136	0xbe40c615	-0.18825562
137	0xbc8508c8	-0.016239539
138	0xbdd60ff2	-0.1045226
139	0xbe42d9e0	-0.19028425
140	0xbe2fb6d1	-0.17159583
141	0x3cf368ba	0.029713023
142	0xbdb916ae	-0.09037529
143	0x3d1b4806	0.037910484
144	0xbdfeab02	-0.12434961
145	0x3d2363a9	0.039889965
146	0xbd00280c	-0.03128819
147	0xbe100fde	-0.14068553
148	0xbcf37a0d	-0.029721284
149	0xbe363b1c	-0.17795986
150	0xbbc1d3ec	-0.0059151556
151	0xbc9c8468	-0.019106105
152	0xbe2eca3c	-0.17069334
153	0xbe5ca072	-0.2154558
154	0xbd84f024	-0.06491116
155	0x3bbdac93	0.0057883947
156	0xbf1a0a0f	-0.601716
157	0xbdd0509e	-0.101716265
158	0xbdefbba6	-0.11705713
159	0xbc9c9e6a	-0.019118506
160	0xbd62e809	-0.055397067
161	0xbd68ed94	-0.056867197
162	0xbe8a2d10	-0.26987505
163	0xbd8e82ed	-0.06958566
164	0x3ce91aae	0.028455105
165	0x3e0027a2	0.12515119
166	0xbce5c597	-0.02804832
167	0x3d07662f	0.033056434
168	0xbca42042	-0.020034913
169	0xbe3792e5	-0.1792713
170	0x3cdeae7e	0.027182814
171	0xbd824ca1	-0.06362272
172	0xbdc9d954	-0.09855905
173	0x3cbd89ed	0.023137057
174	0x3cc78c82	0.024358992
175	0xbdca915c	-0.09891006
176	0xbcb69b05	-0.022290716
177	0xbe183c3d	-0.14866729
178	0xbdeca308	-0.11554533
179	0xbd2c1504	-0.04201223
180	0xbe0647c6	-0.13113317
181	0xbde71eb1	-0.11285151
182	0xbd2bbb98	-0.04192695
183	0xbdc7f4cc	-0.09763488
184	0xbd188da7	-0.037244465
185	0x3d71e37e	0.059054844
186	0xbd0996d3	-0.033591103
187	0xbcfdd293	-0.030984199
188	0x3d4b3490	0.049610674
189	0xbe05523b	-0.1301965
190	0xbd888f2e	-0.06667934
191	0xbe448f93	-0.19195394
192	0x3c87115b	0.016487768
193	0x3d4de00e	0.050262503
194	0x3d115fdc	0.03549181
195	0x3eb218c8	0.34784532
196	0x3da91374	0.082556635
197	0xbd817306	-0.06320767
198	0xbca8fad0	-0.02062741
199	0xbd22c8fb	-0.03974245
200	0xbc8bdb5f	-0.017072378
201	0x3dbeaa24	0.093097955
202	0x3c728eba	0.0148045365
203	0x3e312033	0.1729744
204	0x3dca2a18	0.0987131
205	0x3d5846ae	0.05280178
206	0xbb8b6d67	-0.004254985
207	0x3d94540e	0.07242595
208	0x3df1e72d	0.118116714
209	0x3d59b0d7	0.053147163
210	0xbd0b96f8	-0.034079522
211	0x3e953dd5	0.29148737
212	0x3e7db0db	0.24774496
213	0xbddc5dd7	-0.10760086
214	0xbd240bbf	-0.040050264
215	0x3ba184d5	0.004929165
216	0x3f1e5db3	0.61861724
217	0xbe3263a9	-0.1742083
218	0x3e14421e	0.14478347
219	0x3cb94f8d	0.02262094
220	0x3e8a8a11	0.2705846
221	0x3c61f586	0.0137914475
222	0xbd5446e8	-0.051825434
223	0x3eefeeb7	0.46861812
224	0x3dbc9bfc	0.09209439
225	0xbd103df1	-0.035215322
226	0xbc156a40	-0.00911957
227	0xbc7dc429	-0.015488663
228	0x3dabf294	0.083958775
229	0x3e504f31	0.20342709
230	0x3b955698	0.004557442
231	0x3e2aba85	0.16672714
232	0x3dff5dad	0.12469039
233	0xbd821bf0	-0.06352985
234	0xbbe7f03e	-0.0070781996
235	0x3dbf1106	0.09329419
236	0xbdeae2d6	-0.11469047
237	0x3d75e442	0.060032137
238	0x3c5c29ab	0.013437669
239	0xbd629a1e	-0.05532276
240	0x3d8006cb	0.06251296
241	0x3c37ffca	0.011230418
242	0xbda502b8	-0.08057159
243	0x3cea2d26	0.028585982
244	0xbdf8d529	-0.12150032
245	0xbbd6e7d3	-0.0065583973
246	0x3ec7bd8d	0.39011803
247	0xbe848a0e	-0.25886577
248	0x3dcd7d67	0.10033684
249	0xbd5e364f	-0.05425101
250	0xbd1deb09	-0.038554225
251	0x3e01aa68	0.12662661
252	0xbba5375e	-0.0050420007
253	0x3e0a5d20	0.13512087
254	0x395d3f96	0.0002109989
255	0xbd37881f	-0.04480755

classifier.0.weight f4 [64, 64]
0	0x3b2ba307	0.0026189701
1	0xbe0b7385	-0.13618286
2	0x3dd4dcbc	0.10393664
3	0xbd65f689	-0.056143317
4	0xbd7c99dd	-0.061670173
5	0xbd21f6be	-0.039541952
6	0x3e4d7cfa	0.20067206
7	0x3d362ff4	0.044479325
8	0x3dafba68	0.08580476
9	0xbeafa1ee	-0.3430323
10	0x3c64163a	0.013921315
11	0xbd5d77c4	-0.054069296
12	0x3e7d7bb5	0.24754222
13	0x3e15c4a2	0.1462579
14	0x3ed67432	0.41885525
15	0xbdd3d99f	-0.10344242
16	0x3ea805d2	0.3281694
17	0x3d9d5e99	0.07684059
18	0xbd2235d9	-0.039602134
19	0x3da37975	0.079821505
20	0x3eae56f1	0.34050706
21	0xbd4b8553	-0.049687695
22	0x3f0d8386	0.55278814
23	0x3d0a7e1e	0.03381168
24	0x3d9080c6	0.070558116
25	0x3ce1f197	0.02758102
26	0x3ca42284	0.02003599
27	0xbe25f9dc	-0.16208595
28	0x3cfaf2fa	0.030633438
29	0x3e2b6900	0.16739273
30	0xbd528704	-0.051398292
31	0x3d2f6eab	0.04283015
32	0xbe2d3c2e	-0.16917488
33	0xbdad1cb4	-0.0845274
34	0x3ebc569c	0.36784828
35	0x3d9fdcae	0.07805763
36	0x3bba8f84	0.005693378
37	0xbe03926f	-0.12848829
38	0x3d205666	0.039144896
39	0x3e01795f	0.12643956
40	0x3ea5ba5b	0.3236874
41	0x3f19d1fc	0.60086036
42	0x3d3e89e0	0.046518207
43	0x3c402f60	0.011730045
44	0x3c9ed93f	0.0193907
45	0x3f3abe5a	0.72946703
46	0x3e911c8e	0.28342098
47	0xbdfd5e92	-0.123715535
48	0x3ea31135	0.31849065
49	0xbdd6307b	-0.10458466
50	0xbe2cf4df	-0.16890286
51	0x3dc59d6e	0.09649168
52	0xbd3a1543	-0.045430433
53	0xbcda9e17	-0.026686711
54	0xbca763a5	-0.020433256
55	0x3eed2047	0.46313688
56	0x3ee6f4f7	0.45108768
57	0x3ec4c17a	0.3842886
58	0x3dc1823f	0.094486706
59	0x3e9e6838	0.30938888
60	0x3e9a11a5	0.30091587
61	0x3d3bd29f	0.04585516
62	0xbdba9cd4	-0.09111944
63	0x3daf0bd6	0.085471794
64	0xbde702c8	-0.11279827
65	0x3ecbf5e7	0.39836046
66	0xbea5d408	-0.3238833
67	0xbeaed7b8	-0.34148955
68	0xbf189a0b	-0.5961005
69	0xbee07a69	-0.43843392
70	0xbd737355	-0.05943616
71	0xbdc1ce03	-0.09463122
72	0xbe7e30b8	-0.24823272
73	0xbe4f5867	-0.20248567
74	0xbe16616b	-0.146856
75	0x3eefea11	0.46858266
76	0xbcbd039d	-0.023073012
77	0xbf3e369a	-0.74302065
78	0x3f2d095c	0.67592406
79	0xbe59c700	-0.21267319
80	0xbf0c5530	-0.54817486
81	0xbf2c5712	-0.6732036
82	0xbe75e74e	-0.24014017
83	0xbe674e33	-0.22588424
84	0xbd3837be	-0.044975035
85	0xbe208ad8	-0.15677965
86	0x3d1754d0	0.036946118
87	0x3b902115	0.004398475
88	0x3ec872aa	0.39149982
89	0xbe4d3f48	-0.20043671
90	0x3f0efdc9	0.55855995
91	0xbe380bb5	-0.17973216
92	0xbe043522	-0.12910894
93	0xbe0156b0	-0.12630725
94	0xbf16bdfd	-0.5888365
95	0xbe239743	-0.1597567
96	0xbf19a24c	-0.6001327
97	0xbf23784b	-0.6385543
98	0xbe73b234	-0.23798448
99	0xbf01268d	-0.5044945
100	0xbe5a0d9f	-0.21294259
101	0xbed436f5	-0.4144818
102	0x3ecc37b9	0.39886263
103	0xbef72ff3	-0.4827877
104	0xbde6c1ff	-0.112674706
105	0xbe207a2e	-0.15671608
106	0xbe4668d9	-0.19375934
107	0x3f0b3254	0.5437367
108	0xbe509b28	-0.20371687
109	0xbe82d141	-0.25550273
110	0xbb869f7a	-0.0041083666
111	0xbe4ff4e3	-0.2030826
112	0x3c91b731	0.017787548
113	0xbf12f222	-0.57400715
114	0xbeba0c5c	-0.36337554
115	0xbe1c4f99	-0.15264739
116	0xbf75573a	-0.9583622
117	0x3deca926	0.115557
118	0xbc8ea41b	-0.017412236
119	0xbe0d521d	-0.13800855
120	0xbe0bc203	-0.13648228
121	0xbd3ff461	-0.046863917
122	0xbd1d6cdc	-0.038433895
123	0xbe9af62a	-0.30265933
124	0xbecdf52a	-0.40226108
125	0xbcdb68ca	-0.026783366
126	0xbe932b3f	-0.28743932
127	0xbec1dde4	-0.37864602
128	0xbded2dfb	-0.11581036
129	0xbcb99d1c	-0.022657923
130	0xbcd9f05b	-0.026603868
131	0xbdb918b8	-0.09037918
132	0x3d7bacca	0.06144408
133	0x3e1cd435	0.15315326
134	0xbd97427e	-0.07385729
135	0x3ce1748a	0.02752139
136	0x3c12140f	0.008915915
137	0xbd8da1fe	-0.06915663
138	0x3e02dcb0	0.12779498
139	0xbe602849	-0.21890368
140	0xbbd70c2a	-0.0065627294
141	0xbe014c57	-0.12626778
142	0x3d6fe1ce	0.058564954
143	0xbd24040c	-0.040042922
144	0x3d018816	0.031623922
145	0x3e0fff43	0.14062218
146	0xba508a19	-0.00079551485
147	0xbda26915	-0.07930199
148	0x3ec4c49d	0.38431254
149	0x3d681823	0.056663644
150	0xbf016b46	-0.5055431
151	0xbcbb35b4	-0.022852756
152	0x3dc30838	0.09523052
153	0x3e6e4fd6	0.23272642
154	0xbd2d08ec	-0.042244837
155	0xbd6acad1	-0.057322327
156	0x3de1e7a9	0.11030514
157	0x3e0c57e4	0.13705403
158	0xbe837ed0	-0.25682688
159	0xbe494358	-0.19654596
160	0x3dc1f83a	0.094711736
161	0x3d35cfa0	0.04438746
162	0xbd7ace4f	-0.061231907
163	0x3e0e8ea8	0.13921607
164	0xbd8675ae	-0.06565414
165	0x3c75c612	0.015000837
166	0xbcab8622	-0.020937983
167	0x3df9d086	0.12197976
168	0x3bf15444	0.0073647816
169	0xbd478521	-0.048710946
170	0xbd42dd79	-0.047574494
171	0x3e48d412	0.19612148
172	0x3e3eea6e	0.18644115
173	0x3c5116e9	0.01276181
174	0xbcf027fe	-0.029315945
175	0xbd20fbe9	-0.03930274
176	0x3e01867d	0.1264896
177	0xbde27963	-0.11058309
178	0x3e0cd1d2	0.13751915
179	0x3dbabdae	0.0911821
180	0xbd2b1550	-0.041768372
181	0xbc34ebcd	-0.011042547
182	0x3dccc43b	0.099983655
183	0x3ca87bca	0.02056684
184	0xbcd4e9f1	-0.025990458
185	0xbe57eeef	-0.2108724
186	0xbe06581c	-0.13119549
187	0xbc35913a	-0.011081988
188	0xbd3da427	-0.046299126
189	0xbdb08d10	-0.086206555
190	0xbe23bf26	-0.15990886
191	0x3d4dafc9	0.05021647
192	0xbd6dc506	-0.058049224
193	0x3a49e15c	0.00077011227
194	0xbd08eb08	-0.03342727
195	0x3ca11c0e	0.019666698
196	0xbd1ff1d0	-0.03904897
197	0xbdd34b0a	-0.10317047
198	0xbe0a6d05	-0.1351815
199	0xbe2bd7cf	-0.16781543
200	0xbe0c0831	-0.13675
201	0xbdb046d8	-0.086072624
202	0x3d6c27d8	0.057655185
203	0xbe3a407b	-0.1818866
204	0x3dbf862a	0.09351762
205	0x3b86bfc0	0.004112214
206	0x3b0deb85	0.0021655273
207	0x3bd0289e	0.006352498
208	0x3be83303	0.007086159
209	0x3d44c7d9	0.048042152
210	0xbc61751e	-0.013760833
211	0xbdb03fb7	-0.08605903
212	0x3d42d064	0.047562018
213	0xbd8e1276	-0.06937115
214	0xbdf6ef66	-0.120573804
215	0xbc69d387	-0.014271623
216	0x3d84f4a6	0.064919755
217	0x3d0a141d	0.033710588
218	0xbde95dde	-0.11394857
219	0xbd91ac11	-0.07112897
220	0xbc47a1d7	-0.012184582
221	0x3c1841b9	0.009293013
222	0xbe2cf053	-0.16888551
223	0xbd304ea1	-0.043043736
224	0xbd99383f	-0.07481431
225	0x3d754c92	0.059887476
226	0xbcc8e6f1	-0.024524184
227	0xbdede4d1	-0.11615909
228	0xbdcc9134	-0.09988633
229	0x3d2badf4	0.04191394
230	0xbdc6bd7f	-0.09704112
231	0xbd16d078	-0.036819905
232	0x3ddfef22	0.10934283
233	0xbde24142	-0.11047603
234	0xbc27c9b0	-0.010240957
235	0xbe30e979	-0.17276563
236	0xbdc8c19b	-0.09802552
237	0x3d3bd0b4	0.04585333
238	0xbd75b2f2	-0.05998511
239	0x3afba7b2	0.0019199757
240	0xbe149be9	-0.145126
241	0x3d641e38	0.05569288
242	0xbdea55b8	-0.11442131
243	0x3cabe61b	0.020983746
244	0xbdbd78a4	-0.09251526
245	0x3d2d02b1	0.042238895
246	0xbd4cd4de	-0.050007693
247	0x3d2f293c	0.042763934
248	0xbe1e66ff	-0.15468977
249	0xbd2b06a7	-0.04175439
250	0x3dbce3cc	0.09223136
251	0xbe1f2fc9	-0.15545572
252	0x3d04cebe	0.032423727
253	0xbc5c91f0	-0.013462529
254	0xbd59edd0	-0.05320531
255	0xbe10fca5	-0.14158876

classifier.0.bias f4 [64]
0	0xbf62910d	-0.8850258
1	0x3f832beb	1.0247778
2	0xbf9b4153	-1.212931
3	0xbe16c3ca	-0.14723125
4	0xbe405143	-0.18780999
5	0x3fc60f0e	1.5473344
6	0xbf928880	-1.1447906
7	0xbec8ca1b	-0.39216694
8	0xbf9fbba2	-1.2479136
9	0xbec29b6f	-0.3800921
10	0x3f9d4604	1.2286992
11	0x3fcd2109	1.6025707
12	0xbc519f74	-0.012794364
13	0xbfc22f0a	-1.5170605
14	0xbda2af51	-0.07943595
15	0xbf707610	-0.9393015
16	0xbe2fa65d	-0.17153306
17	0xbf54d04e	-0.8313035
18	0xbee9afbd	-0.4564189
19	0xbc9d0987	-0.019169582
20	0x3f8de38a	1.1085064
21	0xbf972d7d	-1.1810757
22	0xbf1c0f19	-0.6096054
23	0xbd3dbc50	-0.046322167
24	0xbd8a3388	-0.0674811
25	0x3fa1092e	1.2580926
26	0xbed30f98	-0.41222835
27	0x3fbb5301	1.4634706
28	0xbf99591a	-1.1980317
29	0xbc16375e	-0.009168474
30	0xbd1b9fd0	-0.037994206
31	0xbfb7c9b5	-1.4358431
32	0xbf86ac20	-1.0521278
33	0xbe08eb20	-0.13370943
34	0xbf3be0ff	-0.7339019
35	0x3fc5b21a	1.5444977
36	0xbc2df169	-0.010616639
37	0xbcd85b41	-0.0264107
38	0x3e592252	0.21204498
39	0xbea09d3b	-0.31369957
40	0xbe24d361	-0.1609626
41	0x3d660e2d	0.056165863
42	0xbdb46ced	-0.088098384
43	0xbeb06198	-0.34449458
44	0xbf52d907	-0.8236241
45	0xbeccadff	-0.39976498
46	0x3fd19eef	1.6376628
47	0xbe73f695	-0.23824532
48	0xbe9f1a8d	-0.31074944
49	0xbf7d5570	-0.9895849
50	0xbf8f8c8a	-1.1214764
51	0xbdb294c3	-0.0871978
52	0xbd0426d7	-0.032263603
53	0xbedb28d1	-0.42804578
54	0xbe87a895	-0.26495805
55	0x3d695ce5	0.056973357
56	0xbe8950e9	-0.26819542
57	0xbd5773d2	-0.05260069
58	0xbdd5d7fd	-0.10441587
59	0xbddedd8b	-0.108821
60	0xbf8371fe	-1.0269163
61	0x3f9ac0b9	1.2090064
62	0xbf2f7cea	-0.6854998
63	0xbbe862e9	-0.007091869

classifier.3.weight f4 [2, 64]
0	0x3dc119af	0.09428727
1	0xbdb0954b	-0.086222254
2	0x3dc9762c	0.098369926
3	0x3d4a6655	0.049413998
4	0xbca628dc	-0.020283155
5	0xbdb9c567	-0.09070855
6	0xbe1d711e	-0.15375182
7	0x3e1b50fd	0.15167613
8	0xbc771468	-0.015080549
9	0xbcf2ed33	-0.029654121
10	0xbe499a66	-0.19687805
11	0xbd8d3e7f	-0.06896686
12	0x3e504786	0.20339784
13	0xbc55eacc	-0.013056468
14	0xbd3e48f4	-0.046456292
15	0x3e7f39c2	0.24924377
16	0x3cbd6de9	0.023123698
17	0x3e9cc58f	0.30619475
18	0x3da11ddd	0.07867024
19	0x3cdf6277	0.027268631
20	0xbadb2193	-0.001671838
21	0x3a865f4a	0.0010251787
22	0x3cf88170	0.030335158
23	0xbd7d9874	-0.06191297
24	0x3d24e91b	0.04026137
25	0xbe162d01	-0.14665605
26	0xbd580af2	-0.052744813
27	0xbd866f11	-0.06564153
28	0xbe0c3970	-0.13693786
29	0x3e8bcdf8	0.2730558
30	0x3e8e6da4	0.27818024
31	0x3c9246ad	0.017855966
32	0x3ce135b2	0.027491424
33	0xbc3d1deb	-0.0115427775
34	0x3e1a7ccb	0.15086667
35	0xbe457fe6	-0.1928707
36	0x3db2d13b	0.08731314
37	0xbe10d520	-0.141438
38	0x3df48e9f	0.11941265
39	0x3d99ba8e	0.075062856
40	0xbce9d86c	-0.02854558
41	0x3ddc6540	0.107614994
42	0xbd341aef	-0.043971
43	0xbc053d0a	-0.008132229
44	0x3d8162dc	0.06317684
45	0xbd80f787	-0.06297212
46	0xbd6f88c0	-0.058480024
47	0xbe854db1	-0.26035836
48	0x3b2569db	0.0025240097
49	0xbdbdcd32	-0.092676535
50	0xbd6f88ec	-0.05848019
51	0xbc8246b1	-0.015902849
52	0x3bec807e	0.007217466
53	0x3d7796c2	0.06044651
54	0x3ddabc7c	0.10680482
55	0x3e4b2f7d	0.19842334
56	0xbdea49e8	-0.11439878
57	0xbd1cd13c	-0.03828548
58	0x3b282788	0.0025658328
59	0xbcdef10d	-0.027214551
60	0x3d32697d	0.043557633
61	0xbd5b9be9	-0.053615484
62	0xbd62816a	-0.0552992
63	0xbd259f26	-0.04043498
64	0x3cf26be8	0.02959247
65	0x3e6f05aa	0.23342004
66	0xbd82167a	-0.06351943
67	0x3cb536d5	0.022120873
68	0x3d61f843	0.0551684
69	0x3d1f1b65	0.038844485
70	0x3d9e423d	0.07727478
71	0xbe48cbbd	-0.1960897
72	0x3db0b1d1	0.08627666
73	0xbc9fa2bb	-0.019486776
74	0x3e364a23	0.17801718
75	0x3e19c5ce	0.15016863
76	0xbe4ef6ee	-0.20211384
77	0xbdb99edc	-0.09063503
78	0x3b1d626d	0.0024014965
79	0xbdc5b97c	-0.09654519
80	0xbc4a399d	-0.012342838
81	0xbe5ea261	-0.2174163
82	0x3dda66e8	0.10664159
83	0xbd69315b	-0.056931835
84	0x3db4e639	0.08832974
85	0x3dbd5337	0.092443876
86	0xbdad17e9	-0.08451826
87	0xbd9f6404	-0.07782748
88	0xbd4049d7	-0.04694542
89	0x3d994bcb	0.074851595
90	0xbbb9747b	-0.0056596375
91	0x3e5d550f	0.21614479
92	0x3e1c1d8c	0.15245646
93	0xbe839d66	-0.25706023
94	0xbde64bb9	-0.11244912
95	0xbe20f1d6	-0.15717253
96	0x3c391ad9	0.011297905
97	0xbcbb4a2f	-0.022862522
98	0xbe91a99c	-0.28449714
99	0x3e3fb6c3	0.18722062
100	0xbd7a8f4d	-0.06117182
101	0x3e370123	0.17871527
102	0xbe20c60b	-0.15700547
103	0xbcb317b5	-0.02186189
104	0xbe0e8de8	-0.1392132
105	0xbe25866e	-0.16164562
106	0xbca291d6	-0.01984493
107	0xbb6fd5d3	-0.0036595955
108	0x3d6bf34c	0.057605073
109	0x3ce75420	0.028238356
110	0x3e122027	0.14270078
111	0x3e317cea	0.17332807
112	0xbd4e458d	-0.050359298
113	0xbdacaa3b	-0.084309064
114	0xbd023b81	-0.03179503
115	0x3ae38a13	0.0017359875
116	0xbcca8fdb	-0.024726799
117	0xbd30cf02	-0.043166168
118	0x3d4e1b70	0.050319135
119	0xbd9f58fe	-0.07780646
120	0xbe02b1db	-0.12763159
121	0x3d333a40	0.043756723
122	0x3c813fad	0.015777433
123	0xbd992363	-0.074774526
124	0x3ddc7c51	0.10765899
125	0x3e3433d7	0.175979
126	0xbdd4c980	-0.103899956
127	0xbd845dd6	-0.0646321

classifier.3.bias f4 [2]
0	0x3edde754	0.43340552
1	0xbe96f462	-0.29483324
