checkpoints/proteins_12gnn.pt (torch, 206085 bytes, 14 tensors)

gnn1_layers.0.W1.weight f4 [64, 3]
00000000: 4a82 96be 6e45 a23e de02 60be d24c 673e
00000010: 85ae 99be fe41 fa3e 9ce6 8c3e 6340 d43d
00000020: 826d a7be 29f4 f4be 424c 963b 810d 79be
00000030: c0d5 ef3e a808 0ebf 922e 973e d9b4 053f
00000040: 69a1 6e3e 2a12 163e f634 0ebf a41b 003f
00000050: a768 1fbe 454d 18bf aeb8 ec3e aab6 b5be
00000060: 2d72 86bd c098 e53e 1716 bdbe 6ec8 08bf
00000070: 99e9 babd 0220 47be 7dc2 5d3d 0af3 0dbf
00000080: 76ea 47bd b3d6 8fbe 4552 a2be c1ec d9be
00000090: bd6a 6f3e 61e1 503d 75ea f9be 89a6 8b3e
000000a0: 4391 c83b 1579 173e d9ad bfbe ae1b cd3c
000000b0: d4e7 f83e 57e7 9b3e 1096 06bf f4f0 173f
000000c0: 1c21 133b 8154 5f3e caa1 af3e 88ac d33e
000000d0: 2e82 02bf c989 dc3e 0f94 dbbe df3e 6a3d
000000e0: 8e8e cebe aaab 7cbe 3067 cabd 8d3c d7bd
000000f0: a082 28be e990 f93b 866a 023f 389f 753e
00000100: fffa 753e af91 013e 9441 a93e 96c5 55be
00000110: 91ac 1b38 48cb 283d 7f2a 15bf 8c2e f9be
00000120: 176f 85bc 6f6b 8fbe dc42 79bd 465d 75be
00000130: 006f 323b 5761 a33e 8d41 91be 1ec6 c33e
00000140: 70a4 af3e 1b12 c5be 69a6 c5be cab3 f2be
00000150: 22ff a1be 8924 66be cdff 31bd 34a7 afbd
00000160: 9631 85be b8d0 97bd 17ea 90be 7293 e23e
00000170: 087f 31be fbcb debe 88e0 383e eb74 bfbd
00000180: c32e 403f ad91 3d3e 1888 203f e87c d8be
00000190: e160 9a3e d606 0b3f 6efa 91be 8300 f43e
000001a0: 70df bf3e 534b 7bbd 957a 4e3e f65a 86be
000001b0: 04e9 00bf 7106 dd3d 3086 e53d e480 e4be
000001c0: c417 a13e 2ea9 1abf 3580 e53e 336f 0a3f
000001d0: 66a3 813e b909 09bf 095b d93d f12d 1b3d
000001e0: 6c1a bb3c a5db f03c d8f1 be3e 321f 7ebe
000001f0: 31fd 04be be39 213e 5f5c 75bc b68c c83e
00000200: 2528 a2be b7a8 efbd 8653 a13d 7a6d a2bd
00000210: 86a4 ab3e 9dbe 5f3c 350d f0be 44ac 5fbe
00000220: fc6e 96be 4551 ccbb 506a 89bd 0a9c 12bf
00000230: 3777 d7bd bdbb ddbd 23e9 50be 7997 ee3e
00000240: 3a78 debd d9c1 d53e d35b ec3d 7211 f9be
00000250: 8148 c23d 393a fa3e 685a c4be 9635 b8be
00000260: fdde 0e3f 6f58 ad3e f8ec d3be d84c 9c3e
00000270: 98be e8bd 87fb 25bf 0557 fabb e829 86bd
00000280: bf56 31be c8ab 4d3e f077 17bf 4c4a a43e
00000290: 1188 0c3f ea91 2e3e 607c eebc 6be4 1d3e
000002a0: 1a21 01bf 7a95 70be 2662 113b 377c d0be
000002b0: 0171 07bf 0457 7a3e 5e4d a43e 533b 06bf
000002c0: ecd6 713e 3ae9 403e 4247 0c3f 4138 8c3e
000002d0: a71f ef3e 8bdc 25be 77fe de3e 2f7e bc3e
000002e0: 5c3e 12bf 0296 0dbf 8bb1 09bb 273c 6b3e
000002f0: 0edc 92be aa03 a0bb c6b7 5bba 92a3 153e
-0.29396278 0.31693596 -0.21876094 0.22587898 -0.3001596 0.48878473 0.2751969 0.10363843
-0.32700735 -0.4784253 0.0045867274 -0.24321558 0.46842766 -0.5548196 0.29527718 0.52229077
0.2330376 0.14655367 -0.5554956 0.50042176 -0.15567265 -0.59492904 0.4623465 -0.35490924
-0.06564746 0.44843102 -0.36930916 -0.5343083 -0.091265865 -0.19445804 0.054140557 -0.55448973
-0.048807584 -0.2809349 -0.31703392 -0.4256344 0.23380561 0.050996188 -0.4881169 0.27275494
0.006120832 0.14792283 -0.37437323 0.025037613 0.4861437 0.30449936 -0.5257273 0.5935204
0.0022450155 0.2180958 0.34303123 0.41342568 -0.5097989 0.43073872 -0.42886397 0.057188865
-0.40343136 -0.2467486 -0.09882963 -0.10509596 -0.1645608 0.0076161516 0.5094379 0.23986518
0.24021529 0.1265323 0.33057845 -0.20876154 3.7115595e-05 0.04120949 -0.5826797 -0.48668325
-0.016288323 -0.28011653 -0.060854778 -0.23961362 0.0027226806 0.31910202 -0.28370324 0.3823709
0.34305143 -0.38490376 -0.38603523 -0.47402793 -0.31639963 -0.22474875 -0.04345684 -0.08576813
-0.26014394 -0.07412857 -0.28303596 0.44253117 -0.17333615 -0.43515 0.18054402 -0.09348472
0.7507135 0.18512602 0.6270766 -0.42282796 0.30152038 0.54307306 -0.28511375 0.4765664
0.37475157 -0.06135113 0.20163949 -0.26241273 -0.50355554 0.10792244 0.11207235 -0.44629586
0.31463444 -0.604144 0.44824377 0.54075927 0.25319976 -0.5353046 0.10613067 0.03788561
0.022839747 0.02940161 0.37293887 -0.24816588 -0.1298721 0.15744683 -0.014975636 0.39169854
-0.31671253 -0.11702102 0.07877259 -0.07931037 0.3352396 0.013656286 -0.46885076 -0.21843058
-0.2938155 -0.006235274 -0.067097306 -0.57269347 -0.10520785 -0.10826824 -0.20401435 0.4659994
-0.10862775 0.41749457 0.115409516 -0.48646122 0.09486485 0.48872545 -0.38350224 -0.35978383
0.55809003 0.33856532 -0.4139173 0.30527377 -0.11364478 -0.64836925 -0.007639768 -0.06550962
-0.17318247 0.2008506 -0.59167385 0.32087934 0.5489512 0.1704785 -0.029112041 0.15419166
-0.50441134 -0.23494521 0.0022183745 -0.40719768 -0.52906805 0.24447256 0.32090276 -0.5243427
0.23617142 0.18838969 0.5479623 0.27386668 0.46703836 -0.16197412 0.43553516 0.3681502
-0.571264 -0.5530702 -0.0021010365 0.22972165 -0.28683513 -0.0048832493 -0.00083815714 0.14613178

gnn1_layers.0.W2.weight f4 [64, 3]
00000000: 9e1a cfbe 8189 463e 9a47 a23e 0384 b0be
00000010: 2b56 c33c d5c8 6a3d bcbd e43d 2307 e83e
00000020: ac95 0f3e 72fd 07be e7a0 033f 218f 01be
00000030: 371e 2bbe 1519 9c3c 76cb 01bf 7967 0c3c
00000040: d623 debe 480c d03b 06b1 45bc dd68 9f3c
00000050: d01e e4be fab4 2fbf 621a ee3d 2e53 e43e
00000060: c82c 19bf f085 0d3e 9fd3 cbbe 894b b5bd
00000070: 6afc b73e 90f0 983e 114e fcbe d294 8a3e
00000080: 1c18 713e 621f 15bd 857f 0a3f 10f3 02be
00000090: f2b7 46be fc95 cfbe 53c6 823c 0778 ecbc
000000a0: 88b7 fdbd c81e 8ebe 417f 93be 0ebd 003e
000000b0: 5bab 14bf 7aa7 d6bd cd5b c13c f1ee 1ebe
000000c0: ff51 3f3e e4f1 79bc f0ca 9b3e 4945 01be
000000d0: ac23 e2be 7736 aa3e 3ac0 af3d d48b 44be
000000e0: 3ed5 c2be f2a4 14bc aa99 1cbf 9b28 ca3d
000000f0: 2565 553e 0d9e 0fbf 6f20 e0be 38b7 03bf
00000100: 5e5f c73e 8db3 cc3e 57d8 ecbd 9746 c03e
00000110: e60c 5fbe f349 22bf d1ba e73d 7c94 3c3e
00000120: 68c2 f23e b98e 57bd 24c5 c83e 0080 7d3e
00000130: 337e ae3e e6a7 1fbf 9595 ab3e 71a8 20bf
00000140: e9d7 083f fdc0 873c dd35 11bf 7fdb 463e
00000150: 29ad f0bd 25c1 04bf c355 56be 3e98 eb3d
00000160: 77d3 fc3e b784 79bd 25fc 8b3e decc 77bd
00000170: efd0 8dbc e742 913d b40d ccbe 7e48 f8be
00000180: 1e39 86be 523b 0abf 18b1 ab3e 39ca 283b
00000190: 66bd c0be a2e3 3bbe 9c84 08be 1551 02be
000001a0: 386b 89be 9d2c 3abd 40fb 23be e95d d53d
000001b0: fb5a 1dbd 889d 93be 0685 84be d8f8 84bd
000001c0: 7906 adbe 669c d33d cb95 a4bd 9f60 4d3e
000001d0: 729a 6e3e 607b 943e f833 1dbe af59 f9be
000001e0: 342e fb3d 4b1c 01bf ec89 15be 306f 3fbe
000001f0: 8254 60be a9bc 5abe b3e1 e93e cd94 853e
00000200: d00a 193e 0dbd dc3e 5c8a 18bf 82b7 273e
00000210: bea6 9f3e 10b4 aa3e 6561 bcbe ea3a 413d
00000220: 4e53 e2be fb23 b0bd 08bc f6bd 7cd1 f6be
00000230: 7afd 0cbf 35ff ddbe df22 6d3e a2b9 4c3e
00000240: cd30 0fbf 4ca9 65be 1df0 b43c 349c fdbe
00000250: fb36 8b3e df56 093f 19cf c83c b719 14bf
00000260: cc3a 153e c252 a63d 0a73 ac3e 9c07 abbe
00000270: 8a87 08bf b3e6 303e 9ada 3fbc 78a1 40be
00000280: 92ba 77be f26a 98be 9e62 c53e ebf1 1ebe
00000290: d279 f03e e62f be3e 1090 3cbd acb5 c53d
000002a0: bf6c cdbd 0530 a33e 555d dbbe 21f0 413e
000002b0: 1628 3ebe 87ea 263e 1c4a 59bd d051 7fbe
000002c0: 25ae 00be 1ee6 8b3e 6275 e0be 97b9 d9be
000002d0: 85b1 85be 2e08 67be 8126 863e 8b29 9e3e
000002e0: 30d0 16be ac3f ff3e 524d a7be 6ee1 a5be
000002f0: 0157 84be 9ba9 cbbe c832 cfbe 8eb1 03bf
-0.40449995 0.19388391 0.31695253 -0.34475717 0.023844799 0.057320435 0.111690015 0.45317945
0.14021939 -0.13280275 0.5141739 -0.12652256 -0.16710745 0.019054929 -0.5070108 0.008569592
-0.43386716 0.0063491203 -0.012066131 0.019459182 -0.44554758 -0.68635523 0.11626126 0.4459471
-0.59833956 0.13820624 -0.39809892 -0.08852298 0.35934764 0.29871035 -0.4927831 0.27066666
0.23544353 -0.036406882 0.5410083 -0.12788033 -0.19406107 -0.40544116 0.015963709 -0.028865827
-0.123885214 -0.2775786 -0.28808025 0.12572119 -0.5807397 -0.10481162 0.023603344 -0.15520836
0.18683623 -0.015255425 0.30428267 -0.12624086 -0.4416784 0.33244678 0.08581586 -0.19193965
-0.38053316 -0.009072529 -0.6117197 0.09871026 0.20839365 -0.5610054 -0.43774745 -0.51451445
0.38939947 0.39980736 -0.11564701 0.37553856 -0.21782264 -0.6339409 0.11314929 0.18416017
0.47413945 -0.052626345 0.39212906 0.2475586 0.34080657 -0.6236557 0.3351256 -0.6275702
0.5345445 0.016571516 -0.56722814 0.19419669 -0.11751778 -0.51857215 -0.20931153 0.11503647
0.49380085 -0.060917582 0.2734081 -0.06049811 -0.017311541 0.07092839 -0.39854205 -0.48492807
-0.26215452 -0.53996766 0.3353355 0.00257553 -0.376445 -0.18348554 -0.13331836 -0.12726243
-0.26839614 -0.045452703 -0.16013813 0.104183026 -0.038416844 -0.28831124 -0.2588274 -0.06492776
-0.33794 0.10332565 -0.08036383 0.2005639 0.23301104 0.29000378 -0.15351856 -0.48701236
0.12264672 -0.50433797 -0.14603394 -0.18694758 -0.21907237 -0.2136103 0.45680007 0.26090088
0.14945531 0.43112984 -0.5958612 0.16378596 0.31181902 0.33340502 -0.36793056 0.047175325
-0.4420418 -0.08600613 -0.12047583 -0.482067 -0.55074275 -0.4335877 0.23157834 0.19992688
-0.5593384 -0.22427863 0.022087151 -0.49533236 0.27190384 0.5364818 0.024512814 -0.5785174
0.1457321 0.081212536 0.33681518 -0.33404243 -0.53331816 0.17275505 -0.0117098335 -0.18811595
-0.24192265 -0.29769093 0.385518 -0.15521972 0.46967942 0.3714592 -0.046035826 0.09653792
-0.10030507 0.31872573 -0.42844644 0.18939258 -0.18569979 0.16300403 -0.05304919 -0.24933553
-0.12566431 0.27324003 -0.43839556 -0.42524406 -0.26112 -0.22561714 0.2620125 0.3089107
-0.14727855 0.49853265 -0.32676178 -0.32398552 -0.2584763 -0.39777836 -0.4046843 -0.514428

gnn1_layers.1.W1.weight f4 [64, 64]
00000000: 4ab5 2ebe 6a04 ddbc cf3d 8b3c 79b7 8f3d
00000010: 418f b23d 584c 8abd bdc7 fabc c3f5 09be
00000020: 5e40 e93d 29d3 37be 9ae8 41ba f663 bebc
00000030: 0257 b1bc 20e5 35bc 2c5c d8bd cf2e 613d
00000040: de85 b0b9 a664 b43c a789 15bd b762 963c
00000050: 616c c33c 9f9e 48bb fbf2 213d 9f78 a8bd
00000060: 3bb0 b53c 4bc3 e2bc e2a0 773c abb3 7c3d
00000070: 20df e73c ceeb c8bd e0b8 93bd 82a9 babc
00000080: 6d7c adbc 2fed c0bd ec37 483d 81be 763c
00000090: 0701 0dbe 18da 8fbd 6785 92bd 2e89 0cbe
000000a0: 928d 2cbd 2c2e 1dbd 7c06 febd 35cc cdbd
000000b0: d63a cabd 0f98 733d 8c63 443d 865c 813d
000000c0: 4821 d3bc 7e80 01bd 1e89 0dbc ef7f 11bd
000000d0: cd05 21be 6472 02be 09f2 b8bd 9762 6dbd
000000e0: 3c50 003c 5894 43bc a167 1b3d 99d6 0ebd
000000f0: 686d d2bd 1bbd 1dbe 9614 f7bd 6436 03be
00000100: 0f21 b7bc f311 f53b 45f8 493d edf7 cbbd
00000110: c72f 8fbd ed03 c7bd 2fdb 77bd 0744 a3bc
00000120: 0d9e 80bd 5448 5ebd 241f 35bd cb3a 5dbc
00000130: d6a9 c8bd 8ad2 09be 3c9f ef3c f34d 99bd
00000140: c4f7 eebd 45b7 f7bb 8a57 71bd 4c3b a0bd
00000150: 0aeb f6bd 6dac 9cbd 8356 2abe ac82 01bd
00000160: 544d 6ebd eb6d 813c e8ec 54bd ca0c 4dbd
00000170: b879 0b3d 579d 0f3d aaf7 f3bd 6bb9 6e3c
00000180: 586e fa3c 25e3 12be fc6c 87bc 2043 0abe
00000190: 9993 cbbd 1905 f5bd 9893 14be 4840 1d3d
000001a0: c8e7 2fbe fc00 803d a6b2 30be 4026 9abd
000001b0: db72 57bd 5400 ec3c 1c4a 39bd 603c c5bc
000001c0: 71ac 26bd e911 5d3c d48b 57bd 6b14 59bc
000001d0: e8d1 0abe b0e5 b1bd 0f3f 523d 05c4 1abe
000001e0: f092 a6bd 20f0 99bd 70b0 7e3d 5851 b2bd
000001f0: 7af1 1ebe 6fe3 bbbd da0c 843d 8ce6 4a3d
00000200: 71cd d53d bc62 2d3d 4548 8e3c 782b 33be
00000210: c099 903c ab10 893d 64d9 d23c 1a41 64bd
00000220: 89d9 b1bd 1026 dc3b 5d3e 8cbd 2858 1fbe
00000230: ce36 64bd ebc3 2bbd 9a2c ad3c a93c 4cbc
00000240: d965 28bc e7db cd3d 30fe 05be 168b 213d
00000250: c196 b6bd dd58 72bd 24e3 5f3d 79aa 73bd
00000260: 8675 49bc a8a2 29be d37e 4dbc 2e74 c13a
00000270: 0486 283d 70de 03be f6cc f13c bf87 12be
00000280: 4efc 993f df8e 21be 80bd fa3c 23b8 33bb
00000290: b38b 14bd c8d2 183b c3ae 533d 8eb3 56bc
000002a0: 00e1 2bbe 504b 3c3c fbfb 08be 5be5 343d
000002b0: 6921 11bd da83 bebd 769a 82bd 6206 823d
000002c0: 53f6 4dbc c1e0 943d 48ea 8d3d b25b b23c
000002d0: 23c2 223c b395 053d 8ca0 7c3d c19e abbd
000002e0: 3d65 bfbd f3b0 0abd 8399 873d 8dc8 273d
000002f0: 43d6 a23d 42cf 3a3d 862f 023e 8df4 0f3d
00000300: d0c0 5ebe 1936 80bd c791 46be ba4c 12be
00000310: 7111 0b3b 2664 2c3d 64bc 2fbe 53de 31be
00000320: 81c9 cbbd bd16 81bc 1465 07be 4f6e 15be
00000330: 1efd 17be a788 c1bc 76dd 333e c744 6cbd
00000340: 9dcc 8e3c d7d2 3a3d 37d6 ca3c 3273 01bd
00000350: da06 4b3c 2b30 b1bc 28f4 ae3c 573c 093c
00000360: 4fc1 b6bd ca82 ee3c d68d 3b3d 55c1 2abe
00000370: 386d cb3c 13a6 d6bd fcc9 2b3d 128a 00bd
00000380: 899c 4cbd d911 063e 6126 9dbd b622 51be
00000390: 937d e1bb db4d 053c 6e6c 24bd 0b4b e0bd
000003a0: a1b7 e63c 46a6 87bd ef02 ebbd eb08 973d
000003b0: 662e b9bc 741c 27bd 00bc 963c 4aa8 a5bd
000003c0: 4ca6 9abd 575a 15be 15de 7abd c0ac 4b3d
000003d0: 6341 cfbd 0c49 a0bb 4c86 a4bd 1edb bd3c
000003e0: 744d 8b3d f494 8d3d e8af 0bbd 2d6c b73d
000003f0: f950 b0bd b1d8 65bd 5ff5 ec3d 1a9a 803d
-0.17061344 -0.026979644 0.016997246 0.070174165 0.0871873 -0.06752843 -0.03061282 -0.13472657
0.1138923 -0.17951645 -0.0007397026 -0.023241024 -0.021647934 -0.011101991 -0.105644554 0.05497628
-0.00033669075 0.02202065 -0.03650823 0.018357618 0.02385539 -0.0030612124 0.039538365 -0.08226132
0.02217876 -0.027681014 0.015114041 0.061694782 0.028304636 -0.09810601 -0.072129965 -0.022785906
-0.021177495 -0.09420239 0.048881456 0.015060068 -0.13769923 -0.0702402 -0.07154351 -0.13724205
-0.0421272 -0.03837411 -0.124035805 -0.10048715 -0.09874503 0.059471186 0.047946498 0.063164756
-0.025772706 -0.03161668 -0.008638648 -0.035522398 -0.15724869 -0.12738949 -0.090305395 -0.05795535
0.007831629 -0.011937223 0.037940625 -0.034872625 -0.10274774 -0.1540417 -0.12064473 -0.12813717
-0.02235463 0.0074789464 0.049309034 -0.099593975 -0.06991535 -0.09717546 -0.060511764 -0.019929899
-0.06280146 -0.054268196 -0.04421915 -0.013502787 -0.09798019 -0.1345922 0.029250734 -0.07485571
-0.11668351 -0.007559689 -0.058921374 -0.0782381 -0.12056549 -0.07650075 -0.16634564 -0.03161876
-0.058179215 0.015799483 -0.051983744 -0.050061025 0.034051627 0.03506216 -0.119124725 0.014570574
0.030570194 -0.14344461 -0.01653146 -0.13502169 -0.099402614 -0.11963863 -0.14509428 0.03839138
-0.17178261 0.06250188 -0.17255649 -0.07526827 -0.05259977 0.02880875 -0.04523669 -0.02407664
-0.040691797 0.01349304 -0.052623585 -0.013249497 -0.13556635 -0.086863875 0.05132967 -0.15113838
-0.08133495 -0.07516503 0.062179983 -0.08706921 -0.15521803 -0.09174239 0.06447764 0.049536273
0.104395755 0.04233049 0.017368445 -0.17497051 0.017651439 0.06692632 0.025738426 -0.05572615
-0.0868407 0.0067184046 -0.06847832 -0.15560973 -0.05571633 -0.04193489 0.021139432 -0.012465634
-0.010278189 0.10051709 -0.13085246 0.039439283 -0.08915473 -0.059166778 0.054659978 -0.059488747
-0.012296086 -0.16565955 -0.012542444 0.0014759356 0.041143432 -0.12877822 0.029516678 -0.14309596
1.2030122 -0.15777157 0.030607939 -0.0027422986 -0.03626604 0.0023318995 0.051680338 -0.013104333
-0.1678505 0.011492565 -0.13377373 0.044164043 -0.035432253 -0.093024924 -0.06377117 0.06348874
-0.012570935 0.07269431 0.06929451 0.02177224 0.009933981 0.032613467 0.061676547 -0.08379889
-0.093454815 -0.03386016 0.06621077 0.040962745 0.079510234 0.045607813 0.12713441 0.03514533
-0.2175324 -0.06260318 -0.19391547 -0.14287081 0.0021220113 0.042087696 -0.17161709 -0.17369966
-0.09950543 -0.015757913 -0.13222152 -0.1459286 -0.1484265 -0.023624731 0.1756495 -0.05768278
0.017431552 0.04561123 0.024760349 -0.031604 0.01239177 -0.021629414 0.021356657 0.008376203
-0.089235894 0.0291151 0.045789562 -0.16675313 0.024832353 -0.10480895 0.041940674 -0.031381674
-0.04995397 0.13092746 -0.07673336 -0.20423397 -0.0068814247 0.008136238 -0.04014247 -0.10951813
0.028163733 -0.06623511 -0.11475169 0.07374748 -0.022605132 -0.04079862 0.018400192 -0.08088739
-0.0755125 -0.14585243 -0.06124695 0.049725294 -0.101198934 -0.0048915204 -0.080334276 0.023175772
0.068018824 0.06913176 -0.034103304 0.0895618 -0.08609194 -0.056114856 0.11570238 0.062793925

gnn1_layers.1.W2.weight f4 [64, 64]
00000000: 777a fbbb 8971 063c bca5 d5bd dcc9 c8bd
00000010: b90e 12be bdd5 d9bc 14ec 85ba 0ccd d4bd
00000020: 90c5 2a3e a3a9 a1bd 68cb a2bd 2079 283d
00000030: c63b 1cbd 099c 183c 4bc0 6a3c 7400 12be
00000040: 1b35 7bbd 950e 4e3d 6bf4 afbd e17f 31bd
00000050: fc56 0d3d 6fec 3cbd cd13 b2bd ba99 72bc
00000060: 54d2 26be 462d 363d ea01 1e3d 5bae c2bd
00000070: 4838 39bd 14ae a8bd 416f 873d 5476 afbd
00000080: 3690 bcbc abef 32be 4b60 a0bc 6220 823c
00000090: e14c 7bbc 979f 84bd e1c8 4ebd c6d9 503d
000000a0: 633a 99bb a89e ecbc 932e 23be b497 053d
000000b0: dfdd d1bd 7acf 9c3c e0cc cdbc 3763 6dbd
000000c0: 746d 22be 6969 dcbd d178 4bbd a419 38be
000000d0: a6a5 afbd a8bf 943d dd0c e83c 0c64 063d
000000e0: 54b8 c2bd 48a6 4cbd 4ed5 24be 11d5 f43b
000000f0: e86e 1bbd cbfd 373d 946b 52bd 2ad6 f43d
00000100: fda7 f53a 22f6 3e3d 32a7 8bbd b2ed 21be
00000110: 4ce1 21be a42f 36be 18e2 20bd 627a 20be
00000120: 0f9e cebd d1f3 623b db77 5b3d b732 bbbd
00000130: 1cff d83c 3664 8ebd ec38 aebd e049 99bd
00000140: 3c12 efbd a1b4 d3bc c7c1 78bd 70b9 f7bd
00000150: 3e5a 9f3c 935b edbd 2030 14be 917e 88bc
00000160: 7cb6 8abd 7bf5 03be 9bfc 25be 66b1 c7bd
00000170: bc02 c4bd e3f4 013c 40e1 9abd 42ca 8d3b
00000180: 6839 793d e5be 4cbd 8668 a2bd ff05 ffbd
00000190: 02b8 02bd 63cc 2cbe 3abd f7bd 2a51 223d
000001a0: 7aae acbd 6885 ce3d 69d4 643c 7df5 b0bd
000001b0: cc85 24be b932 253d 1087 2c3c bcdf 6d3d
000001c0: d642 31be e579 0cbd a3c7 2bbe fb12 9abd
000001d0: 9cb0 2dbe 5401 e9bd 2328 5cbd 5364 813d
000001e0: 1fc1 4ebd d3b5 92bd 5c45 673d 361e 47bd
000001f0: 96f7 04be 5e2d 9f3c 20ab b63d 2afa dd3d
00000200: 2794 403d 58b1 e53d b0ab c1bd 2b21 30bd
00000210: 8e2b b9bd 5134 97bd b1d3 2e3d d69a 1fbe
00000220: a3d8 bc39 fd31 dabd fb6d ecbc 88df 96bd
00000230: 47da 0ebe 595c 12bd a81c fabd 949d a13d
00000240: ae5e 96bd 5c0d e73d 30c4 84bd d941 10be
00000250: c1a8 8a3d f93a 97bd 9696 cebd 9989 12bd
00000260: 405e 13bd f31c 19bc e45a 58bd be14 6fbd
00000270: 0611 8c3d cadc be3a 1f7f 833d 471a 26bc
00000280: 783c 003b 5ae8 1abd 20db 64bd 8a13 43bd
00000290: 485a 5ebd bc7d 84bd 1042 21bc 73e6 f63b
000002a0: e080 853d 221f f9bd 80ef 4f3d 3737 92bd
000002b0: 6ce9 35be a896 3a3d 1024 91bd 71fc 82bd
000002c0: a1a9 df3d 934b 2fbc ef28 063e 77b7 07be
000002d0: b190 043d 006f 853d c517 523d c141 a6bd
000002e0: 226b 11bd 2d30 fc3c c241 673d a845 f5bd
000002f0: 3cc0 b3bd 9379 20be ad69 8f3d 4890 c2bd
00000300: f40e cdbc 4e70 40bd 57d4 a2bd 4d3f 53be
00000310: 42fa 52bb 097d d2bd 58be 24be bea8 e93c
00000320: 04f3 6cbe a945 b9bb ee31 2bbd 8d6c 29be
00000330: c841 193e d2b3 febd d0a8 61bd 9dd7 19be
00000340: 6de5 e73c 4166 053e 0bc2 653c 0f6a 1ebd
00000350: f81a 47be a038 b5bd 4478 68bd e9c9 763d
00000360: 6021 2f3c 0d5f f8bc e3b8 c83d c1a8 a1bd
00000370: eeb2 c8bd ca08 18be c617 463c 9693 48be
00000380: 3884 623d 3256 703d af03 6ebc 8f7f 253e
00000390: f0e7 263e ef58 223e 1e6d adbd 7fcd 0abe
000003a0: 23b6 99bc 864f da3d 0527 bfbd 34e8 a1bd
000003b0: 0ba6 d9bd 6edd eabd f8d7 753d 129f f9bd
000003c0: bfd3 df3d cba4 4fbb 08d3 9cbd 75ab 05be
000003d0: a626 3bbe 8e71 debd b0b6 29bd 6a32 ebbd
000003e0: 0392 17be 4b42 57bd 804e 1cbd 1f43 d6bc
000003f0: 0d0a b6bd 988a ffbc 2ad6 5f3d 9046 d1bd
-0.007674511 0.00820578 -0.10432002 -0.098041266 -0.14263429 -0.026591176 -0.0010217451 -0.10390672
0.16676927 -0.07893684 -0.07948953 0.04113114 -0.038142942 0.009314545 0.014328073 -0.14257985
-0.061329942 0.050306875 -0.08591541 -0.043334845 0.034506783 -0.04612392 -0.08695183 -0.014807159
-0.16291171 0.04447677 0.038576044 -0.09505912 -0.04521969 -0.08236328 0.06613017 -0.08567491
-0.023017984 -0.17474239 -0.019577166 0.015884582 -0.015338154 -0.06475752 -0.05048454 0.050988935
-0.0046761497 -0.028884247 -0.15935735 0.03261538 -0.10247397 0.019141901 -0.025122106 -0.057955947
-0.15862066 -0.10762293 -0.049675766 -0.17978531 -0.08576517 0.07263118 0.028326446 0.032810256
-0.09507814 -0.049963266 -0.16096994 0.0074716886 -0.037947565 0.04491977 -0.051372126 0.11954911
0.0018742081 0.04662145 -0.06818999 -0.1581333 -0.158086 -0.17791611 -0.03927812 -0.15671685
-0.10088741 0.003463019 0.0535811 -0.091405325 0.026488833 -0.069527075 -0.08506951 -0.07484794
-0.116734 -0.025842967 -0.060731675 -0.12095916 0.01945221 -0.11589732 -0.14471483 -0.016661914
-0.067730874 -0.12886612 -0.16209643 -0.09750633 -0.09570834 0.007931921 -0.07562494 0.0043270895
0.060845762 -0.04998674 -0.079300925 -0.124523155 -0.031913765 -0.16874842 -0.12096639 0.039628185
-0.08431716 0.10084039 0.013966658 -0.08640573 -0.16066664 0.040331576 0.010530248 0.058074698
-0.17310652 -0.034295935 -0.16775374 -0.075231515 -0.16961902 -0.113772064 -0.053749215 0.063179635
-0.050477143 -0.071635865 0.05646263 -0.048612796 -0.12985072 0.019430812 0.08919358 0.10838731
0.04701629 0.11215466 -0.09456575 -0.04300038 -0.090415105 -0.073830254 0.042682353 -0.15586409
0.0003601956 -0.10654066 -0.028861037 -0.07366854 -0.13950454 -0.0357326 -0.12212497 0.07891384
-0.073422775 0.11281845 -0.06482732 -0.14087619 0.067704685 -0.07384295 -0.10087316 -0.035775755
-0.035978556 -0.009345281 -0.052821055 -0.05836939 0.068391845 0.001456165 0.06420731 -0.010138101
0.0019567292 -0.037819244 -0.055873036 -0.047626056 -0.054285318 -0.064692944 -0.009842411 0.007534796
0.065187216 -0.12164141 0.050765514 -0.07139438 -0.17764825 0.045553833 -0.070869565 -0.063958056
0.10921026 -0.010699171 0.13101552 -0.1325358 0.03236455 0.06515312 0.0512922 -0.0811801
-0.03550256 0.03078469 0.056459196 -0.119761765 -0.087769 -0.15671377 0.07002578 -0.09500176
-0.025031544 -0.046982102 -0.07950657 -0.20629616 -0.0032192622 -0.10277755 -0.16088235 0.028522845
-0.23139578 -0.005654056 -0.041795664 -0.16545315 0.149665 -0.12436642 -0.055092633 -0.15023656
0.02830764 0.13027288 0.014023314 -0.038675364 -0.19443882 -0.08848691 -0.05675532 0.06025115
0.01068911 -0.030318761 0.09800889 -0.078935154 -0.09799753 -0.14847103 0.012090629 -0.1958755
0.055301875 0.058675952 -0.014527245 0.16161941 0.16299415 0.15854238 -0.08468078 -0.13554953
-0.018763607 0.10659699 -0.09333614 -0.07905617 -0.10627373 -0.114680156 0.060020417 -0.121885434
0.10929059 -0.0031683918 -0.076574385 -0.13053687 -0.18276462 -0.108615026 -0.04143399 -0.11484225
-0.14801793 -0.052553456 -0.0381608 -0.026155053 -0.08888636 -0.031194016 0.054647602 -0.10218537

gnn1_layers.2.W1.weight f4 [64, 64]
00000000: cd27 dd3c b439 c8bd 4abb bcbd a9d9 bdbc
00000010: 0332 8fbd 6521 fabc c8f2 22be 70dc 503d
00000020: a2b3 cebd fd12 e7bd c0a0 45bc 9e47 2fbe
00000030: 080b 9bbc efaf 0a3c 0802 4fbd 8260 e0bd
00000040: 76d9 9cbd 752a e9bd 6432 503d b766 8ebd
00000050: a622 a0bc 3d07 303d b987 15be b90a 2fbe
00000060: 3073 d43c e574 20be 3a0e 19be 3b3b 253d
00000070: 2cdd d53d 7598 823a fcab 9dbd 9083 9ebd
00000080: ac39 25be e44b d7bd a254 d53d 0c9b abbd
00000090: 8e08 aabc 307b febd ccb0 a6bb 789c ac3d
000000a0: 054c ddbd 7eea efbb f384 46bc 8ee2 20be
000000b0: d988 1dbe 25cc 6ebd 06b8 41be 4ee7 b2bd
000000c0: db7a 36bc 943e cfbd ffd4 a0bd 14da e5bd
000000d0: e3fb a4bc 7667 bb3a 1e4f 233d 020d 4fbe
000000e0: 6b11 dfbd ed4d 9c39 185b 633c 435e b4bd
000000f0: b795 033e 3bfc d7bd c2a5 b6bd 4fea 10bc
00000100: 4a7e d03c 40dc 17be e655 1ebe 0898 81bc
00000110: 839a 703c c39b b6bd 2633 013d ec7b 98bd
00000120: 598e fdbd 67a3 87bd ac74 2abe d0b2 aebc
00000130: 2a31 33be 9f1a 653d 8d9e 1ebe 8088 ae3c
00000140: eb81 1dbe 7558 a0bd 74c6 8dbd b0dd 793b
00000150: bce3 3f3c b730 35be 3962 2bbe 74a4 32bd
00000160: f77f 80bd 0d1b 73bd afaa b4bc 209e adbd
00000170: c007 d83d dd8b 51bd dcde 6bbd b71e 89bc
00000180: aace 20be c26c f5bd a846 153d 3865 e6bd
00000190: 6ab2 37be 5020 803d 1428 2cbd e8ed c1bc
000001a0: 5301 8ebc 74ce 3bbe 3285 eabd 6059 f7bd
000001b0: feed 733d 72d8 e6bd 2c96 11be 20b3 33bd
000001c0: 44ca 44bd a0b6 1ebc 850c 033d f429 f73c
000001d0: 4f67 41bd 19de 583d 2130 87bb 1f32 d93b
000001e0: bf41 2bbe 0030 4cbd 395d b1bd de23 37be
000001f0: 426b f9bd ca92 0f3d d94c 6fbc 8e38 623d
00000200: 343d ce3c fae6 79bd 1e6b 533d 4a07 0abd
00000210: 5bc7 a2bd 7de9 e8bd 90a0 7d3c 3899 83bb
00000220: 0917 d03c a7fa 99bd b470 34be 8345 19bd
00000230: 7bfe 3dbd 65d0 10be fea7 f6bc 2cfa 99bd
00000240: 958c 3e3d 09c6 5ebd e0de 7cbd e5f7 223d
00000250: ca2d 68bd e9fc a5bd d36b b8b9 ea43 773d
00000260: 7a53 51bb 5387 68bd 225a 2d3d 453b eebd
00000270: ee3e e23d 92c0 07be 801a 163b 2dfa 5b3d
00000280: 1c60 29bc 89a4 b0bd 9cb8 9d3d 7967 553c
00000290: 83ec 30be 5042 64bc 03bd 28be 362c b2bd
000002a0: c2db 99bd 6099 e4bd 5ac5 d8bd e60f f53b
000002b0: b9bd 82bd 76da 3cbe 835f 1ebd a6c2 fbbd
000002c0: 304f 15be e2b3 853c 1168 113d 88d2 d5bd
000002d0: 6fbf 0bbe ce44 8cbb ae6d 3cbe e157 8a3c
000002e0: 846e d43c 8cb8 f1bb 1f70 b3bc 9a1c 0cbd
000002f0: 6e9f 1fbe 9a3d e2bd beee a43c f565 383d
00000300: 99c3 683d 25c3 bc3d 6a00 4abe 167f fa3d
00000310: 94fc 12be 75fb c8bc 7f9d 213e 7b5c c63c
00000320: 369e 09be 18db 8c3c 862d 4f3c afc8 c1bb
00000330: 3ff7 7dbd e856 143e beb6 173e 59c7 a5bd
00000340: 0b71 3dbd 4e7a 363c 10ed 2dbd a9e2 a63d
00000350: 0a57 55be 7262 14be fa9a 0bbd 7208 8dbd
00000360: 5578 d83c d89c 39be aeed 593d 2f0b 1dbe
00000370: 1c59 57bd 112d f2bd 7032 703d 9d22 243b
00000380: 4146 fa3c 2b57 833d 8038 b4ba b529 113e
00000390: 454f d23d 917b 33bd fb8e 203d c2d9 24be
000003a0: 7474 e03d 83e8 d53c f487 75bc 89c2 c23d
000003b0: fc54 aebb 6ee2 28be 75f0 8f3d f098 c13d
000003c0: a79b 8f3d 7181 983c 5506 353c 0874 51bd
000003d0: cc5c d93b 152b 1ebe fd35 34be cc2a e4bc
000003e0: c578 8cbd d66c 613d 20cb dabd 36d0 d1bb
000003f0: b78f eabc 8dda 77bb 27c6 d83c 33d4 67bc
0.026996518 -0.09776631 -0.0921541 -0.023175078 -0.06991961 -0.030533502 -0.15912926 0.050991476
-0.10092856 -0.112829186 -0.012062252 -0.17117164 -0.018926159 0.008464797 -0.050539047 -0.109559074
-0.07658665 -0.11385051 0.050829306 -0.06953185 -0.019547772 0.042975653 -0.14602555 -0.17093934
0.025933832 -0.15669592 -0.14946833 0.04033969 0.10442576 0.0009963649 -0.07698819 -0.07739937
-0.16135281 -0.10512522 0.10416533 -0.08379182 -0.020756032 -0.1242584 -0.005086994 0.084282815
-0.10805515 -0.007321655 -0.0121166585 -0.15711424 -0.15384234 -0.058300156 -0.18917856 -0.08735524
-0.011137689 -0.10119358 -0.07853126 -0.11223236 -0.02013964 0.0014297802 0.039870374 -0.20219806
-0.10891994 0.00029812698 0.013876699 -0.088070415 0.1285008 -0.10546156 -0.089183345 -0.008844926
0.025450844 -0.14830112 -0.15462455 -0.015819564 0.014685276 -0.08916428 0.03154292 -0.07445511
-0.12380666 -0.066229634 -0.1664607 -0.021325499 -0.17499223 0.05593359 -0.1549017 0.021305323
-0.15381591 -0.07829372 -0.069226176 0.003812652 0.011712011 -0.17694364 -0.16736688 -0.043613866
-0.06274407 -0.05935197 -0.022054045 -0.084774256 0.10548353 -0.051158775 -0.057585582 -0.016738279
-0.15703836 -0.119836345 0.036444336 -0.11249775 -0.17939153 0.06256163 -0.04203041 -0.023673013
-0.017334616 -0.18340474 -0.11451186 -0.12077594 0.05955314 -0.112717524 -0.14217442 -0.043872
-0.048044458 -0.009687096 0.03199436 0.030171372 -0.047217663 0.052946184 -0.0041256105 0.0066282894
-0.16724299 -0.049850464 -0.08660359 -0.17884776 -0.12178661 0.0350521 -0.014605724 0.055229716
0.025175668 -0.061011292 0.051615827 -0.033698358 -0.0794818 -0.11372659 0.015480176 -0.004016068
0.025401609 -0.07518511 -0.17621118 -0.037419807 -0.04638527 -0.14141996 -0.030109402 -0.075184196
0.04652079 -0.05438808 -0.061735988 0.039787192 -0.056684293 -0.081048794 -0.0003517555 0.060367502
-0.0031940625 -0.05676968 0.042322285 -0.116323985 0.11047159 -0.13257053 0.0022903979 0.053705383
-0.010337856 -0.086251326 0.07701227 0.013025158 -0.17277722 -0.013931826 -0.16478352 -0.08699839
-0.075126186 -0.111620665 -0.10584517 0.007478702 -0.06383843 -0.18442711 -0.038665306 -0.122929856
-0.14580989 0.016321126 0.035499636 -0.10440546 -0.13647245 -0.004280663 -0.18401214 0.016887607
0.025931604 -0.007376736 -0.02190405 -0.034206964 -0.15588161 -0.11046906 0.020133372 0.04501911
0.05682716 0.09216908 -0.1972672 0.12231271 -0.14354163 -0.024533967 0.15782736 0.02421402
-0.13439259 0.017194316 0.012645131 -0.005913816 -0.06200337 0.14486277 0.14815804 -0.08094663
-0.046250384 0.011137558 -0.04246241 0.08148701 -0.20833984 -0.14490679 -0.034083344 -0.068863764
0.026424566 -0.18126237 0.053205185 -0.15336297 -0.052575216 -0.11825002 0.05864185 0.0025045045
0.030551078 0.0641311 -0.0013749748 0.14176066 0.10269026 -0.043819014 0.039198857 -0.16098693
0.10959712 0.026111847 -0.014986027 0.09509761 -0.0053201895 -0.16492626 0.070282854 0.09452999
0.0701211 0.01861641 0.011048873 -0.051136047 0.0066333767 -0.15446122 -0.1759872 -0.027852438
-0.068589725 0.055035435 -0.10683274 -0.0064029945 -0.028632982 -0.0037819475 0.026461674 -0.014149713

gnn1_layers.2.W2.weight f4 [64, 64]
00000000: 93f2 28be 3e80 c3ba 745e 2cbe b311 76bd
00000010: ab39 f9bb 27ed 9abc 2543 57bd 1a5b 25bd
00000020: 9fc4 bbbd 49d2 2ebd dd08 e43b 9fba 22be
00000030: 6fc3 483d fa1a 64bd d90b b53c f023 e8bd
00000040: acef 353c 95a0 24be dcbf d1bd f1c0 c43a
00000050: cc78 4dbd bb8c 803d 59e3 19bc 147c 01be
00000060: 870c 05be aed2 bd3b d48a aebd 5587 1fbe
00000070: 6014 bdbd 93c6 3ebe c011 57bd 35de 36be
00000080: 81e3 683d 27d4 3abd f4ea 283d d9d5 23be
00000090: 0e98 79bd 967f ae3d d5d0 c8bd 8d63 273d
000000a0: 0c95 cabd 32a2 19be 72ce 25be d55e 41be
000000b0: 2838 c8bb a212 10be 87f1 0bbe 3471 51bd
000000c0: 2f9d 1fbe 5131 20be e0d4 1dbe c7f7 783d
000000d0: 5bc8 bebd 312d 19be 207b a6bd 26a2 833c
000000e0: 1db8 12be 1ebe 1dbc 43b0 aabd 5906 3dbd
000000f0: 054e b93c afc8 39bd c4a1 c537 8ca0 18bd
00000100: 3b8f 22bd 5324 b1bc 420e 1dbe ae69 773d
00000110: c7f2 0fbe 7577 e63c 6a17 a2bd c7ff 19be
00000120: 79ec 0bbc 5ec6 a73d 23b8 c0bd da2b cdbc
00000130: aa10 2dbe 50bd 97bd ebc0 4d3d 546c 683d
00000140: 6a82 ccbd af3d 63bc 241a ec3d ca6b 60bc
00000150: 0121 18bd 9fa3 24be 3f96 c5bc 4296 dabc
00000160: 5699 05be cfc1 1a3b 1cfe 10be c22c 743d
00000170: e01e cebb 4633 cd3c ac70 06bd 8808 fdbd
00000180: 2df9 fc3c 9ebd 813c c05d fb3d 37f4 bebc
00000190: 2877 e6bd 2255 96bd b7a2 37be 118a 55bd
000001a0: 8729 743d e0d9 cfbd 0167 acbd 194c e53c
000001b0: 2e76 513d b9ca d5bc 1552 4dbd 7a57 fa3d
000001c0: a4cf 363d e2f1 0ebe a0cc 16be 01b9 b5bd
000001d0: 3355 2cbc 40d4 0bbe 6294 e8bd a27b 4bbd
000001e0: 12ac bbbd fffe c23c 70a7 9c3c d43d d53c
000001f0: f4be d23b bc8c 07be ff02 20be c381 13be
00000200: b1cd 9bbd a074 1c3d 3528 b8bd c5f8 603d
00000210: 9747 043d 9317 37be 54ca 18bb bff9 e6bd
00000220: e155 38be d473 333d 79da d4bd 95a4 2fbe
00000230: c8a8 1bbe e6b8 023d b856 b8bd fd50 1b3d
00000240: b0f4 d3bd b936 7d3d 0c28 00bd 2f8f 6d3d
00000250: 35e2 50bc 28bc 1dbe 6f06 b2bb c554 fbbb
00000260: 9307 32be b88b 2cbe 894b 58bd 262b b53b
00000270: e61f da3d 8243 c4bd a6bb efbd 44a9 69bb
00000280: 0f5c 52bd 95ed 68bd 6e9f a13d abf4 39bd
00000290: 6e7f 453d 5687 c43d 515b 57bd 2a66 073d
000002a0: b321 a4bc 44eb 37be c1d3 543d 71d6 66bd
000002b0: 9ce7 9abd 18f5 2f3d 870d 483d 5c91 cabd
000002c0: 8072 31bc 92e4 03be 4ac9 bcbd c6fb 07bd
000002d0: 62ec dabd 95f8 e7bd 5429 9cbb cdfb b8bd
000002e0: ece9 53bc 7ee0 743d 0b98 f3bc 7fd4 fdbc
000002f0: 9034 4b3d 4d41 dcbd 8277 77bd 920e 34be
00000300: 89df 75bb 17e0 4d3d 2b2e b13d 3951 be3d
00000310: 6775 bbbd b0ed e5b8 063f 23bd 1ee8 bc3b
00000320: 6d43 abbd e64a b13d 55f2 21bd 33b4 debc
00000330: d9f0 a2bc 6b67 3f3d d73c 173d fe71 943d
00000340: 7516 ef3d 03a4 293d f896 0bbd b017 ab3d
00000350: cf26 edbd 5c04 02bd a064 22be b057 073c
00000360: 05f0 243d c740 91bd b0c1 0a3e dcf8 dabd
00000370: e00c 993d 7a23 cdbd e846 54bd 2499 0bbc
00000380: 5706 fd3d dc3d 10bd 406a 15bc ccd9 173b
00000390: 48f7 813d 2fef d43d e497 33be 91f1 3e3d
000003a0: b65e ff3d 55c4 3fbe e246 8dbd 3fbe c73d
000003b0: 1da8 28bd 5730 353e a969 36bc a040 443d
000003c0: 5ab7 1abd e816 bb38 3dfa 6ebd e0dc a03c
000003d0: 419a 09be 9f13 c1bd ef20 2dbd 7daf bdbc
000003e0: 00a8 f03d 4695 58bd 75d0 2ebe a7aa 013e
000003f0: dd27 00be e570 4c3d 7442 4dbd cd6f 793b
-0.16498785 -0.0014915538 -0.16832906 -0.060075473 -0.0076057515 -0.018911911 -0.05255427 -0.040370084
-0.09168362 -0.042681012 0.0069590644 -0.15891503 0.049014505 -0.05568979 0.022100376 -0.113349795
0.0111045055 -0.16076882 -0.102416724 0.0015011114 -0.05016403 0.06276842 -0.009392583 -0.12644988
-0.1299306 0.0057929372 -0.08522573 -0.15578969 -0.09232402 -0.18630438 -0.052507162 -0.17858203
0.05685759 -0.04561248 0.041239694 -0.15999545 -0.060936026 0.08520429 -0.098054565 0.040866423
-0.0989171 -0.15003279 -0.16192034 -0.18883832 -0.00611021 -0.14069608 -0.13666354 -0.05113335
-0.15587305 -0.15643813 -0.15413237 0.060783174 -0.093155585 -0.14958645 -0.08128953 0.01606853
-0.14328046 -0.009627847 -0.083344005 -0.04614863 0.02262021 -0.045357402 2.3559558e-05 -0.037262484
-0.039687376 -0.021623766 -0.1533747 0.06040352 -0.14057456 0.028133133 -0.07914622 -0.15038978
-0.008540266 0.081921324 -0.09410121 -0.025045324 -0.16900888 -0.07409155 0.05023281 0.056743935
-0.09985812 -0.013869687 0.115284234 -0.013697574 -0.03714085 -0.16078041 -0.024119494 -0.026682977
-0.13046774 0.0023614054 -0.14159435 0.059612997 -0.0062903017 0.025048863 -0.032822296 -0.12355143
0.030880535 0.015837487 0.12273741 -0.02330981 -0.11253196 -0.073404565 -0.17933165 -0.052133624
0.059609916 -0.10148978 -0.08418084 0.027990388 0.051138096 -0.026097642 -0.050127108 0.12223716
0.044631615 -0.13959458 -0.14726496 -0.08873177 -0.01051836 -0.13655186 -0.11356427 -0.049678452
-0.09163679 0.023803232 0.01912281 0.026030459 0.006431455 -0.1323728 -0.15626143 -0.14404969
-0.07607592 0.03819716 -0.08992044 0.054924745 0.032294836 -0.17880087 -0.0023313956 -0.11278104
-0.1800151 0.043811634 -0.10393233 -0.17152627 -0.15201104 0.031914614 -0.09000915 0.037919033
-0.10349405 0.061819766 -0.03128819 0.05799788 -0.012749244 -0.15403807 -0.005432896 -0.0076700174
-0.17385702 -0.16850173 -0.05280641 0.0055288253 0.106506154 -0.095831886 -0.11705713 -0.0035653869
-0.051357325 -0.0568672 0.07891737 -0.04539935 0.04821723 0.09596126 -0.05257732 0.033056416
-0.0200356 -0.1796084 0.051959757 -0.05635685 -0.07563707 0.04295835 0.048841026 -0.09891006
-0.010830522 -0.12880161 -0.0921808 -0.033199094 -0.10689618 -0.1132671 -0.004765669 -0.09032402
-0.012934189 0.059784405 -0.029735586 -0.030985115 0.049610674 -0.10754643 -0.060416706 -0.17583683
-0.003751727 0.050262537 0.08651384 0.09292836 -0.09153252 -0.00010963844 -0.039855026 0.005764975
-0.0836247 0.08656864 -0.039537746 -0.027185535 -0.019890236 0.046729486 0.036923256 0.07248305
0.11674205 0.04141618 -0.034079522 0.083541274 -0.11579668 -0.03174244 -0.15858698 0.008260652
0.040267963 -0.070924334 0.13550448 -0.106919974 0.07473159 -0.10016532 -0.051825434 -0.008520398
0.12354725 -0.035215244 -0.00911957 0.0023170589 0.06345993 0.10397183 -0.1753841 0.046617094
0.124692366 -0.18727238 -0.068982854 0.097530834 -0.04117595 0.17694221 -0.01113359 0.047913194
-0.037772514 8.9211215e-05 -0.058344115 0.019636571 -0.1343775 -0.094275706 -0.042267736 -0.023154968
0.117507935 -0.052876733 -0.17071708 0.12662755 -0.12515207 0.049912352 -0.050112203 0.0038061023

gnn2_layers.0.W1.weight f4 [64, 129]
00000000: 212d ddbc 7bcb e83b 70a5 fb3d 1e07 403c
00000010: 116a 01be cc03 2c3d cd12 ee3d 152b 283d
00000020: 0c83 e2bc 046b f4bd da27 28bd 7def 1dbe
00000030: c119 9bbd 2ac1 b5bd 5681 b2bd 3ec9 973c
00000040: 1380 06bc 40a8 9d3c d4ee 623c e37b 763b
00000050: f889 b33c c9da b5bc f10f 9e3c ea77 333c
00000060: b82a 133d 4e82 cbbd bbc8 9c3d 1acf d7bc
00000070: 2dd9 aebb 969c b8bc b4ae cdbc 46cd 3d3c
00000080: 173b 18be b45f a23c 140d a63d ca7a f83d
00000090: 2390 b43d a630 e8bd 9181 cfbd 4e0d 36bc
000000a0: ad69 d03d bdfb dfbd 4b4a 8a3d cc07 393d
000000b0: 8dac 003d cf5c 323d d53e 143e 894f cdbd
000000c0: efeb 4abd a630 95bd c580 9e3c 3b8c 063d
000000d0: 896a 73bd f8ea 13be 7f69 44bd 84d6 633d
000000e0: 61f9 953c 2336 063d efb9 05be a8f4 f3bb
000000f0: 1bbc da3d e188 28bd bd9f 40bd 653c 0c3d
00000100: 7b3f b73c 6b37 fc3d 0be3 253d 1e7c 013e
00000110: 958b 053d 39d0 e7bc 77b5 b43d b9dc a73d
00000120: f00b 6336 1b94 d5bd c445 ddbc c204 a23b
00000130: 3d2f 5c3d b8f9 abbd 6203 e1bd be62 a6bd
00000140: e383 f3bd bed2 5c3c b818 c9bd caf8 97bc
00000150: e829 9c3b 48af ac3d ed1d 9ebc e63a 143d
00000160: c676 083e 84b7 9d3b 6ae3 d33c 9792 c23d
00000170: 628e d9bd 26b0 0d3e 08ca 99bd ce2a f0bd
00000180: 8cac 9dbd fa20 8cbd 6edd 72bc 8b97 393d
00000190: 1c1c 053c c67c acbd 2d53 03be 1439 1abe
000001a0: 6ecf 6bbb 88aa c13d 8c58 bdbd 74fd 143e
000001b0: 5893 e43d 923d df3c 2719 ef3d 8013 debc
000001c0: 5494 acbd f090 92bd 166e 9f3c bb26 023d
000001d0: 7f8b 28bd c8bf 0ebe 1140 f0bc 97d0 8abd
000001e0: 404a 013e 0593 11bd c549 70bd 734e 9ebd
000001f0: 6305 933d 7f34 7abd 1570 76bd a760 b5bc
00000200: e019 e3bd 57b0 d8bd 4d5f a43b 5ac8 323c
00000210: 0e59 ebbd aa8a 1b3d d605 01be 737f 063d
00000220: 2aa3 823d 1584 c93c 6710 c8bc ba48 11bb
00000230: 8c1c 94bd 967a 2abc ed42 003d 92ce aebd
00000240: 00f6 49bd 7f85 be3b f926 86bd 3407 f4bd
00000250: 4c51 013e ffa2 81bc eee9 dabc 49db b6bd
00000260: 5b11 11bd d98b 063e ab61 edbd 08f4 843c
00000270: 70f0 0e3e e747 b33c c447 bf3d 5903 f6bd
00000280: 6444 533a c217 5fbd 4f9f e7bd 1183 b43c
00000290: 9031 73bc f219 efbc 56bf c5bd da43 7c3c
000002a0: d779 3fbd 02ad 1e3d 3ba3 213e 2552 da3c
000002b0: 4ce8 593d 5c53 f53d e392 98bd f0c0 4c3c
000002c0: 30f4 c2bd 3c1f 05be a07e 893c dcbd abbc
000002d0: 2301 dbbd 2c88 00be 465b 173c a231 2fbd
000002e0: 647e 76bd 9efd 513d 1743 9fbd 7707 2cbd
000002f0: 0103 bbbd e9ac 97bd 5d7a cabd 741f a4bd
00000300: b744 3fbd f43a b03b 7267 a13d 0a05 ec3d
00000310: 05d3 6dbd caeb a2bd d016 b0bd a0f8 b7bc
00000320: 0aba c53b 3aec 2a3d f5cc a93d 993d fbbd
00000330: f2d1 643c 6520 393d 4d3b 50bc 05e6 02bc
00000340: d125 153b 42cd 783c d7f2 23bc 442a 80bd
00000350: d5d4 be3d 7005 d7bb 38c5 8e3c 73d7 44bc
00000360: a8db 2c3d 5020 013e 2be4 a9bd 5309 563d
00000370: 850b c03d c7c7 0f3b d2fd 9cbd a439 09bd
00000380: eff1 8dbd 5107 183d 8e09 5cbc 5c83 acbd
00000390: 6c6d 003d 1ec9 213d 59a5 97bd f3ec 2abd
000003a0: 7835 e13c d57e 91bc 4c6c 63be 490c 08be
000003b0: 1e70 083d 3523 bd3d d64e 31bd c164 d43d
000003c0: 938b dbbd 04ef c3bb 0ce5 cbbd b56d 143d
000003d0: 08e2 85bd c675 bb3c 45db 1dbd cfca 73bc
000003e0: 7b83 88bd a131 533c 7d11 9d3c 3b20 f7bd
000003f0: 430a e5ba 6bda a43d 52f9 acbd 64ab ebbd
-0.026999058 0.007104335 0.12287414 0.011720447 -0.12638117 0.04199581 0.1162468 0.04105671
-0.027650379 -0.11934474 -0.04105363 -0.15423389 -0.075732715 -0.08874734 -0.08716075 0.018528577
-0.008209246 0.019245267 0.013850886 0.0037610463 0.021916375 -0.022199051 0.01929471 0.010953883
0.03592941 -0.09936963 0.07655474 -0.02634387 -0.005335948 -0.022535603 -0.025107719 0.0115845855
-0.14866291 0.019821025 0.08107963 0.12132795 0.088165544 -0.11337404 -0.10132135 -0.0111115705
0.10176406 -0.10936687 0.067524515 0.04517345 0.031414557 0.04354554 0.14477094 -0.10024936
-0.04954141 -0.072846696 0.019348511 0.032848578 -0.05942777 -0.14445102 -0.04795217 0.0556245
0.01830739 0.032766473 -0.1305921 -0.007444937 0.106804095 -0.041146163 -0.04702734 0.034237284
0.022369137 0.12315258 0.04049973 0.12645003 0.03260382 -0.02829753 0.08823674 0.081963964
3.3832584e-06 -0.104286395 -0.027010806 0.004944415 0.053755987 -0.083972394 -0.10986973 -0.08124302
-0.1189039 0.013477979 -0.09819168 -0.018551249 0.004765738 0.0843187 -0.01930138 0.036188982
0.13326558 0.0048131365 0.025865275 0.09500616 -0.106228605 0.13836727 -0.075092375 -0.11726914
-0.07698926 -0.06842227 -0.014823301 0.04531054 0.008124378 -0.08422236 -0.12824698 -0.15060836
-0.0035981792 0.094563544 -0.092454046 0.1454981 0.11160916 0.027251039 0.11674719 -0.027108908
-0.08426729 -0.07156551 0.019461673 0.031775218 -0.04114866 -0.13940346 -0.029327424 -0.067780666
0.1262598 -0.0355406 -0.058664102 -0.07729807 0.07178762 -0.06108522 -0.060165484 -0.022140814
-0.1108892 -0.10580509 0.0050162436 0.010912025 -0.11491595 0.037974037 -0.12599882 0.03283639
0.06378777 0.024599114 -0.024421884 -0.0022168593 -0.072320074 -0.010405203 0.031313825 -0.08535494
-0.04930687 0.005814254 -0.06550402 -0.119154364 0.12628669 -0.015824793 -0.026722874 -0.08928544
-0.035416942 0.13139285 -0.11590894 0.016229644 0.13958907 0.021884872 0.0933986 -0.12012357
0.0008059202 -0.054466017 -0.113096826 0.022035154 -0.01484336 -0.029187176 -0.09655635 0.015397036
-0.046747055 0.03873921 0.15784924 0.026650498 0.05320005 0.1197879 -0.074498914 0.012497172
-0.09519231 -0.13000196 0.016784012 -0.020964555 -0.10693576 -0.12551945 0.00923807 -0.042771943
-0.06017913 0.05126726 -0.07776468 -0.041999307 -0.09131432 -0.07406027 -0.0988662 -0.08013812
-0.04669639 0.0053781215 0.07881059 0.115243986 -0.058062572 -0.079551294 -0.08598101 -0.02245742
0.0060341405 0.04172919 0.082910456 -0.12267608 0.0139660705 0.04519691 -0.012709451 -0.007989411
0.0022758136 0.015185656 -0.010006628 -0.062580615 0.09317938 -0.0065619275 0.017428026 -0.012014258
0.042201668 0.12609982 -0.08295473 0.052254986 0.09377197 0.0021939145 -0.076656 -0.033502236
-0.06930911 0.037116352 -0.013430012 -0.08423492 0.031354353 0.03949844 -0.074045844 -0.04172988
0.027491316 -0.017760674 -0.2220928 -0.13285936 0.03331005 0.09235231 -0.043288074 0.1037078
-0.10719981 -0.0059794206 -0.099557966 0.036237437 -0.06537253 0.022883307 -0.03853919 -0.014879896
-0.06665703 0.01289025 0.019173378 -0.12066694 -0.0017474372 0.080494724 -0.084459916 -0.115072995

gnn2_layers.0.W2.weight f4 [64, 129]
00000000: e9d2 1dbd c3b2 babc 9987 b33d b32c bd3d
00000010: b6cd 9bbd 41fb 633d e1e1 bd3d eb82 0e3e
00000020: 6154 b0bd 5e46 dcbb dc42 b0bc 7742 15bd
00000030: 9883 e5bc 473f 0ebd f5b0 fabd af1b da3b
00000040: 24d2 14be ede8 3abd 7832 6bbd c7fa fa3c
00000050: 67d3 013e 88c3 023e 11b3 2abc 0fa4 52bd
00000060: 27b1 ff3d d033 7a3d 0fd4 453d 4e7f 1b3c
00000070: 5470 c73b aa18 103e 651b 4bbc c6e0 06be
00000080: a269 0cbe e33d 703c 94d6 bcbd 3301 c63d
00000090: 5034 643d abaa cabd c1e1 18be f9dc 2abe
000000a0: 27ba 073e 63b5 30bc 0440 c33c a853 6f3c
000000b0: c4b7 ca3c 0086 a33d d6fb f534 6859 05bc
000000c0: 0b23 7cbd f189 24bc 55a4 e6bb ccda 3fbd
000000d0: f68b 06be 1c5d b8bc 6b98 88bd f332 f8bc
000000e0: 091d d2bc f664 ed3c aa22 b83c 15d2 babd
000000f0: 090d 093d 760d d0bd d7ca 0fbe dd6b 49bd
00000100: 941a f03c 6753 cf3d c771 823a 48dc 0e3e
00000110: 8824 83bd bcfb 70bc 27cf 89bb b54a 173e
00000120: 19dc 97bd 5f0e b2bb 776f f6bc f120 c0bb
00000130: b73c 86bd de8c f8bc 13b6 8bbc 8700 6dbd
00000140: 2f83 06be 73d5 c8bb 02d3 03bd 56aa 0e3c
00000150: dd5d 43bc d7d7 b73d 9ac6 29bd 50ee 48bd
00000160: 081d 113d e69f debc 2b39 ce3d f332 c13d
00000170: 1d6a 3a3c 3a00 8d3d 5456 84bc 284f f9bd
00000180: db59 efbc b709 82bd 4e25 573d 816e aa3d
00000190: 6154 5ebc 73d2 d4bd 7a91 37bd 3c3a 06bd
000001a0: 7a56 ac3d 238c 463e 7383 9cbd 6239 643c
000001b0: f18b e1bc ab00 41bd 0b57 9d3c fa95 8ebd
000001c0: 2e32 f03b cebc 25bd 56e2 bf3d 30cc c33c
000001d0: 62fc dc3b 4f81 773b 9a98 eebc 2004 9a3d
000001e0: a38b 95bc 0b4b 143b ab76 ab3a 5ab1 dbbd
000001f0: 6ac0 84bc 419d b1bd 3074 46bd 7314 e93d
00000200: 0b36 1dbe 5f32 143d 4758 5a3d 2ec6 1f3d
00000210: e62c 88bd cf43 2a3c 6361 c2ba 2a2d 893d
00000220: 967c 60bc 71ff 5a3d 26a6 91bd 2144 06be
00000230: 8f17 a4bc 49b7 b5bc 2378 05be 5a46 ffbd
00000240: 8df7 1f3d 8892 093d ec07 dbbd 1d43 bcbd
00000250: f9e0 e43d 72e8 293d 39b0 583d 7dae 90bd
00000260: fdfb 81bb 54c3 b2bc d9b7 01be 392f c03d
00000270: 46cf d43d 45f2 2e3b f7f5 0a3d 82aa acbd
00000280: 488c b7bd 4872 c3bd 2fd8 f9bd ecd2 53bc
00000290: 202f 5b3b df57 03be 7fe8 0abd 5d7d b43c
000002a0: b435 55bd ae93 3ebc 21fa 193e 7000 d0bd
000002b0: 0789 ec3d 41f4 02ba 4215 153d b7b2 1e3d
000002c0: a376 0a3d 97ec 89bb 8950 8b3b 5f17 dcbc
000002d0: 61b1 c4bd b1a3 1fbd e3e3 d43c 1608 fcbd
000002e0: 5a14 c73c fe94 953d 9734 5a3c 604d e9bd
000002f0: 088a eebd e994 2bbc f4fa 92bd fbc2 9ebd
00000300: 2d70 debc bc82 013d edba c2bb 2424 5f3d
00000310: 2bb9 8dbd 3297 71bd c7b9 98bd 1848 773d
00000320: 1439 df3d a210 a23d 9f78 cbbc 950c 673c
00000330: a578 cabd 1a1f a2bd edb0 d7bd 21ab a0bd
00000340: e661 d8bd 9055 dc3b 4b42 45bd 4bce 9ebd
00000350: f782 08ba 194f 0c3e 4a6c 103e ae49 c7bd
00000360: 442d e13c b475 553d 68e0 9ebd b61e be3d
00000370: 2741 10bc 20e7 01be f022 583d 49b9 4d3c
00000380: 7bb6 823c b186 e83c 352c b23b bf50 babc
00000390: cbcc 923d e13b b5bd 46ec ca3c 5259 d03c
000003a0: 8073 febd b5cc c0bc 42d1 76be 7cfe e0bd
000003b0: 82b7 ee3c 8ede 0b3e 299b 7cbd 7704 0f3e
000003c0: 9224 5fbd 1f22 1cbd 9e36 85bd 17a9 5bbd
000003d0: cb14 6ebd ec39 b7bd c47d dfbd 2076 1ebd
000003e0: 3378 9a3c a630 a33c 7fff ccbc 9376 b0bd
000003f0: 3099 17be 1b9f b13d 1728 f6bc 3357 10be
-0.038531218 -0.022790318 0.087660976 0.09237041 -0.076075956 0.055659536 0.092715986 0.13917129
-0.08609844 -0.0067222556 -0.021516256 -0.03644034 -0.02801685 -0.034728315 -0.12240783 0.006656132
-0.14533287 -0.04563229 -0.057421178 0.030637158 0.126783 0.12769902 -0.010418669 -0.05142599
0.12484961 0.06108457 0.048297938 0.009490801 0.0060863886 0.14071909 -0.012396668 -0.13171682
-0.1371217 0.014663192 -0.09220615 0.096681975 0.05571395 -0.098958336 -0.14929868 -0.16685857
0.13254605 -0.010785433 0.023834236 0.014607348 0.02474583 0.07984543 4.581804e-07 -0.008138992
-0.061556857 -0.010042653 -0.007038633 -0.04683952 -0.13139328 -0.022505336 -0.066696964 -0.030297732
-0.02564861 0.028978806 0.022477467 -0.09122101 0.033459697 -0.101588175 -0.14042221 -0.049175132
0.029309548 0.101233296 0.0009952121 0.13951218 -0.06403452 -0.014708456 -0.0042056027 0.14774592
-0.07415027 -0.005433842 -0.030082447 -0.005863302 -0.06554549 -0.030340608 -0.017054593 -0.05786183
-0.1313598 -0.0061289608 -0.032183655 0.008707603 -0.011924234 0.08976715 -0.041449167 -0.049055398
0.035428077 -0.027175855 0.10069498 0.09433546 0.011377838 0.06884809 -0.016154446 -0.12173301
-0.029217651 -0.06349509 0.05252581 0.08321858 -0.013569922 -0.103917025 -0.04481647 -0.03277038
0.084149316 0.19389395 -0.076422594 0.013929697 -0.02753255 -0.047119778 0.019206544 -0.069621995
0.0073302006 -0.04046326 0.09369342 0.023901075 0.0067439536 0.0037766283 -0.0291255 0.07520318
-0.01825506 0.0022627737 0.001308163 -0.107271865 -0.016205031 -0.08672572 -0.04845065 0.113808535
-0.15352647 0.03618085 0.053306844 0.03900736 -0.06649189 0.010392143 -0.0014830049 0.066980675
-0.013701579 0.053466264 -0.071117684 -0.13111927 -0.020030765 -0.022182124 -0.1303411 -0.1246459
0.039054442 0.03358701 -0.1069487 -0.09192488 0.11175723 0.041481443 0.052902434 -0.07064531
-0.003966807 -0.021821655 -0.12667789 0.09384007 0.10391097 0.0026694697 0.033925977 -0.08430959
-0.089623034 -0.09543282 -0.12199437 -0.012928706 0.0033444837 -0.12826489 -0.03391313 0.022032434
-0.05205317 -0.011631889 0.15036823 -0.101563334 0.115495734 -0.0004995503 0.036397226 0.038744655
0.033804547 -0.004209112 0.004251544 -0.026866613 -0.09604145 -0.038974468 0.025987571 -0.1230623
0.024301697 0.07303809 0.013318202 -0.11391711 -0.11647421 -0.010472515 -0.07176772 -0.07752033
-0.027153099 0.03161882 -0.0059426934 0.054477826 -0.069200836 -0.05898208 -0.07457309 0.06037149
0.10899559 0.07913329 -0.02483779 0.014102121 -0.09886292 -0.079160884 -0.10531793 -0.0784514
-0.10565548 0.006724067 -0.048158925 -0.07754191 -0.00052075036 0.13702048 0.14103809 -0.0973085
0.027487405 0.052114204 -0.07757646 0.092832014 -0.008804596 -0.12685823 0.052767694 0.012556382
0.015956154 0.028384538 0.005437399 -0.02274358 0.071679674 -0.088493116 0.024770867 0.025433216
-0.124243736 -0.023535112 -0.24103263 -0.10986039 0.029140238 0.13659117 -0.06167141 0.13966547
-0.054478236 -0.038118478 -0.06504558 -0.053628054 -0.0581253 -0.089465946 -0.1091266 -0.03868687
0.018856144 0.019920658 -0.025024174 -0.08616366 -0.1480453 0.08672925 -0.030048413 -0.14095764
